Project 3-Open set recognition/Project/Weights/0_weights.pth (torch, 387487 bytes, 10 tensors)

conv1.weight f4 [64, 1, 7, 7]
0.29076228 0.27995545 0.115124844 0.10026541 0.13973527 0.19273962 0.18393013 0.4561608
0.096243165 0.09019202 -0.063526705 0.027957993 -0.052804574 0.08815582 0.18071592 -0.01902569
-0.04471551 -0.031071879 -0.11049815 0.052390866 0.2726805 0.16852993 -0.09982221 -0.040904637
-0.15910105 -0.038456507 0.24747542 0.10854718 0.06768118 -0.019567303 -0.17684047 0.01219144
-0.10584598 0.10704274 0.116463184 0.13954815 0.13091992 0.1831053 0.11725772 0.21316229
0.12537362 -0.018786177 0.30165944 0.15346567 0.20698188 0.21400745 0.30149752 0.15058112
-0.07356517 0.2760585 0.48760614 0.6471158 0.65259457 0.5704935 0.62639344 0.49423215
0.1971413 -0.012629117 -0.0048511145 -0.049059335 -0.0446448 0.04399214 0.22224316 0.12951492
-0.027551666 -0.20466666 -0.30231848 -0.31614396 -0.18748148 0.14840236 -0.07214365 -0.14264919
-0.13081989 -0.18768315 -0.20470499 -0.08287498 0.14076322 -0.055159826 0.031404443 -0.12057335
-0.21498537 -0.068849586 0.05067849 0.11407338 0.110748015 0.06537638 0.0795136 0.116588935
0.214012 0.07300822 0.16082333 0.22894488 0.30029392 0.57690305 0.6323073 0.51121414
0.46879464 0.2232535 0.2840786 0.33122483 0.43263066 0.36877498 0.2637284 0.27927217
0.19715098 0.4335972 0.23078611 -0.07372962 0.0015363621 0.065322086 0.045096625 0.3395958
0.3391402 0.15186267 -0.03676805 -0.2358172 -0.13457566 0.048404958 0.30735022 0.17375372
-0.013299429 -0.16222253 -0.24086702 -0.07819261 -0.072182275 0.24820049 0.020657076 -0.1116783
-0.1775955 -0.20899175 -0.0682122 0.17515765 0.25176466 0.093150735 0.10905625 -0.063285805
0.152737 0.2728219 0.29698333 0.32473347 0.16321905 0.1548177 0.46862078 0.5382863
0.28869638 0.17809992 0.21852782 -0.019479997 -0.049452998 -0.07169886 -0.09141265 -0.08760488
-0.021883482 0.07236902 0.05206137 -0.116300486 0.12379367 -0.07652614 -0.012046984 -0.06513525
-0.045167025 -0.0342536 -0.09934312 -0.083476655 0.013633682 0.025466412 -0.05665253 0.06304155
-0.13543665 0.010244012 0.14863278 -0.03800299 0.1463947 0.068913914 -0.10088025 0.06501939
-0.019829862 -0.067293 0.11427696 -0.10043379 0.03691951 -0.0023349342 0.05410538 0.010665223
0.041615814 0.04480327 -0.0147115 -0.0037757398 -0.09392391 -0.004893681 0.049741536 0.053481452
-0.09904456 0.025179284 -0.07909108 -0.06418011 -0.17125723 -0.012495511 -0.09511631 0.014077054
0.035418704 0.11085859 -0.121945344 -0.16431844 -0.13824698 0.08930829 -0.04705601 0.121008426
0.032794297 0.058124796 0.008764945 -0.042774495 0.045653094 0.061383665 0.1701767 0.12392972
0.038397886 -0.03130733 0.1325372 0.0061380095 0.26277083 0.4291692 0.17742042 0.116842546
-0.058073577 0.15698822 0.17895123 0.39456454 0.22314756 0.025501855 -0.016786007 0.09289414
0.062373564 0.4390738 0.5044821 0.029384747 -0.05401699 -0.2962416 -0.14353879 0.09345628
0.3258942 0.3874035 0.020405348 -0.1099711 -0.17120285 -0.1468472 0.10385439 -0.096255176
0.024475101 0.0030702928 -0.054123703 0.04755336 0.119235665 -0.027994957 -0.06506392 -0.041811693
00000000: cbde 943e 5256 8f3e 93c6 eb3d f457 cd3d
00000010: c316 0f3e 895d 453e 2e58 3c3e e98d e93e
00000020: 231b c53d 98b6 b83d 4a1a 82bd 2908 e53c
00000030: 9c49 58bd 0a8b b43d 980d 393e c4db 9bbc
00000040: 9c27 37bd 748a febc db4c e2bd ce97 563d
00000050: c79c 8b3e 1c93 2c3e 966f ccbd 9f8b 27bd
00000060: 63eb 22be 9284 1dbd 326a 7d3e fc4d de3d
00000070: 6e9c 8a3d 9c4b a0bc ab15 35be 9bbe 473c
00000080: c7c5 d8bd 3939 db3d 4084 ee3d b6e5 0e3e
00000090: df0f 063e f57f 3b3e d124 f03d 3747 5a3e
000000a0: f161 003e 78e5 99bc 1b73 9a3e 1b26 1d3e
000000b0: 0ff3 533e c524 5b3e e25d 9a3e f031 1a3e
000000c0: 56a9 96bd 8a57 8d3e 83a7 f93e 62a9 253f
000000d0: 7010 273f dd0b 123f 525b 203f ff0b fd3e
000000e0: 69df 493e 5bea 4ebc 19f6 9ebb 71f2 48bd
000000f0: 77dd 36bd 1a31 343d b693 633e 8f9f 043e
00000100: 08b4 e1bc 2394 51be 7dc9 9abe 9fdd a1be
00000110: 25fb 3fbe caf6 173e 0dc0 93bd a112 12be
00000120: a6f5 05be 0330 40be 2f9e 51be 5cba a9bd
00000130: 3c24 103e 45ef 61bd f2a1 003d 29ef f6bd
00000140: 2025 5cbe 0301 8dbd 4094 4f3d 4e9f e93d
00000150: dbcf e23d 0de4 853d 07d8 a23d 2ec6 ee3d
00000160: f625 5b3e 5585 953d dfae 243e 8770 6a3e
00000170: 20c0 993e ebaf 133f e4de 213f eede 023f
00000180: da05 f03e 919c 643e c072 913e 4d96 a93e
00000190: c481 dd3e 13d0 bc3e 6907 873e c3fc 8e3e
000001a0: f2e1 493e 7400 de3e 3253 6c3e 8eff 96bd
000001b0: c25f c93a 96c7 853d 3db7 383d 80df ad3e
000001c0: c9a3 ad3e e381 1b3e 189a 16bd 107a 71be
000001d0: 34ce 09be 4744 463d 025d 9d3e 7fec 313e
000001e0: d9e5 59bc aa1d 26be d8a5 76be 7223 a0bd
000001f0: 4dd4 93bd 4528 7e3e 0739 a93c 98b7 e4bd
00000200: 98db 35be ef01 56be d7b2 8bbd 875c 333e
00000210: 4ce7 803e d0c5 be3d e258 df3d fd9b 81bd
00000220: 1767 1c3e 50af 8b3e 330e 983e 7743 a63e
00000230: e522 273e 8888 1e3e 10ef ef3e 22cd 093f
00000240: 03d0 933e d35f 363e c2c5 5f3e 8494 9fbc
00000250: 3a8f 4abd dad6 92bd 8e36 bbbd 306a b3bd
00000260: fd44 b3bc 3536 943d 4e3e 553d f32e eebd
00000270: 8987 fd3d bdb9 9cbd b760 45bc a165 85bd
00000280: 0f01 39bd 814d 0cbd 6874 cbbd cff5 aabd
00000290: cf5f 5f3c f09e d03c 7c0c 68bd ee1b 813d
000002a0: e8af 0abe 80d6 273c 3133 183e 06a9 1bbd
000002b0: 7ee8 153e bd22 8d3d 4e9a cebd e328 853d
000002c0: 3c72 a2bc ead0 89bd 0a0a ea3d 3bb0 cdbd
000002d0: ea38 173d b205 19bb 9a9d 5d3d 30bd 2e3c
000002e0: 5875 2a3d a283 373d 8108 71bc 6772 77bb
000002f0: 2e5b c0bd 2c5b a0bb c8bd 4b3d 5e0f 5b3d
00000300: e0d7 cabd c944 ce3c 81fa a1bd dd70 83bd
00000310: 0e5e 2fbe f9b9 4cbc 57cc c2bd 72a3 663c
00000320: 3413 113d d409 e33d 7bbe f9bd 1843 28be
00000330: 9e90 0dbe 44e7 b63d cebd 40bd 44d3 f73d
00000340: 5053 063d 4414 6e3d d89a 0f3c 4f34 2fbd
00000350: bdfe 3a3d 706d 7b3d cd42 2e3e ddce fd3d
00000360: 1a47 1d3d 1d3c 00bd d5b7 073e 5b21 c93b
00000370: e689 863e 11bc db3e b3ad 353e 254b ef3d
00000380: 8fde 6dbd 85c1 203e fe3e 373e 5d04 ca3e
00000390: cb80 643e 44e9 d03c cf82 89bc 483f be3d
000003a0: 6c7b 7f3d 48ce e03e bd25 013f 48b8 f03c
000003b0: eb40 5dbd fbac 97be d5fb 12be 0266 bf3d
000003c0: 9bdb a63e c059 c63e 1e29 a73c 8738 e1bd
000003d0: cd4f 2fbe 1d5f 16be 9cb1 d43d 6f21 c5bd
000003e0: 0280 c83c f736 493b d1b0 5dbd 50c7 423d
000003f0: d431 f43d ae55 e5bc 3c40 85bd bd42 2bbd

conv1.bias f4 [64]
-0.11794785 -0.024425289 -0.0992714 -0.04944646 -0.21752524 0.051266048 0.01644177 0.038239576
-0.1555615 -0.36995316 -0.05682108 0.03917962 -0.23023556 -0.15882488 0.027356435 -0.08059296
-0.16741166 -0.20979452 0.09347502 -0.16511637 0.025791444 -0.09122089 -0.21244623 -0.2579431
-0.014708029 -0.18680638 -0.22049788 -0.025385173 -0.1920116 -0.04633948 -0.083740905 -0.14303775
-0.21670601 0.04630495 -0.26868373 -0.2825629 -0.011177094 -0.16052313 -0.021483453 -0.22123645
-0.15457988 -0.093947075 -0.016596533 -0.23745045 -0.07966134 -0.15115929 -0.12688705 0.097684115
-0.06073344 0.0018502906 -0.018600816 -0.14931738 -0.27206075 -0.117146865 0.030110322 -0.22249302
0.0061098267 -0.083765395 0.003427036 0.07203472 0.019099759 -0.09705652 -0.003975954 -0.17664747
00000000: a48e f1bd 8b17 c8bc ce4e cbbd 5f88 4abd
00000010: f0be 5ebe 59fc 513d e4b0 863c 1aa1 1c3d
00000020: 844b 1fbe 806a bdbe 39bd 68bd cf7a 203d
00000030: dfc2 6bbe fda2 22be 9a1a e03c ec0d a5bd
00000040: f66d 2bbe 60d4 56be d56f bf3d 4414 29be
00000050: 9448 d33c 05d2 babd 818b 59be 1e11 84be
00000060: f2f9 70bc 2c4a 3fbe 32ca 61be 91f4 cfbc
00000070: b09e 44be 77ce 3dbd 5a80 abbd 7d78 12be
00000080: 2ee8 5dbe 42aa 3d3d ea90 89be 16ac 90be
00000090: 2120 37bc 2d60 24be 11fe afbc cf8b 62be
000000a0: 304a 1ebe 5367 c0bd 74f5 87bc 3626 73be
000000b0: 7c25 a3bd 80c9 1abe aeee 01be 9c0e c83d
000000c0: a1c3 78bd 7385 f23a bd60 98bc a8e6 18be
000000d0: 8c4b 8bbe b2ea efbd eca9 f63c 36d5 63be
000000e0: f134 c83b 318d abbd 2098 603b f086 933d
000000f0: 1977 9c3c 92c5 c6bd b848 82bb 13e3 34be

conv2.weight f4 [32, 64, 5, 5]
-0.069589294 -0.06884064 -0.06597046 -0.08181378 -0.07747257 -0.062382296 -0.06381436 -0.08267703
-0.054543093 -0.046321344 -0.039210357 -0.038991604 -0.07748575 -0.06795564 -0.07182944 -0.055447526
-0.053333484 -0.054452356 -0.045327336 -0.04675941 -0.07345248 -0.042870954 -0.04314555 -0.056520205
-0.081521474 -0.075017266 -0.05273263 -0.051281404 -0.03664981 -0.047121886 -0.050846625 -0.06075299
-0.04293891 -0.06893164 -0.04929341 -0.071840264 -0.06016288 -0.0452445 -0.048385356 -0.065294586
-0.059967678 -0.07364082 -0.04843444 -0.043089304 -0.05119019 0.032866642 -0.07719203 -0.043248504
-0.0634201 -0.044438407 -0.041527193 -0.0672946 -0.074605465 -0.08328944 -0.05036731 -0.047063313
-0.06421472 -0.08395226 -0.07582952 -0.061274316 -0.04859225 -0.06836808 -0.076018706 -0.07722212
-0.037521504 -0.05097591 -0.08032168 -0.07542607 -0.08108374 -0.056238823 -0.07017991 -0.060108237
-0.06393506 -0.08134641 -0.08167882 -0.07937892 -0.070468 -0.056110647 -0.07174594 -0.060873333
-0.063006416 -0.03714818 -0.07138906 -0.036470167 -0.079005614 -0.08089046 -0.05189896 -0.074536435
-0.046333008 -0.07370953 -0.040354613 -0.035831664 -0.058422703 -0.05457542 -0.03663732 -0.045221526
-0.08186452 -0.060823735 -0.08240222 -0.04072953 -0.06443886 -0.060050827 -0.0752592 -0.0735396
-0.05662535 -0.039124195 -0.07228166 -0.057448216 -0.037249498 -0.037190802 -0.06466086 -0.03624299
-0.050654598 -0.036834914 -0.057850443 -0.08111845 -0.06668185 -0.052332487 -0.04558556 -0.084363535
-0.040419266 -0.08216315 -0.045164425 -0.034882486 -0.053472184 -0.0647102 -0.04621532 -0.067355104
-0.078333706 -0.07761789 -0.048257295 -0.040914886 -0.05898348 -0.08414591 -0.08444361 -0.0656759
-0.04653568 -0.076685235 -0.05316468 -0.073571704 -0.039694104 -0.06658518 -0.06524069 -0.08185365
-0.08231063 -0.05834479 -0.05599196 -0.046523057 -0.08173601 -0.055316243 -0.063523725 -0.045291904
-0.07133723 -0.052522287 -0.04978555 -0.04735604 -0.06852062 -0.05187092 -0.064695574 -0.052709024
-0.07491153 -0.07961876 -0.08013402 -0.075255185 -0.07026125 -0.056036845 -0.06517501 -0.073918335
-0.059524603 -0.067728564 -0.04439926 -0.08029804 -0.06891492 -0.075808585 -0.05666319 -0.05854129
-0.06138044 -0.03517046 -0.06944001 -0.06348257 -0.053187832 -0.038424164 -0.040800013 -0.056947675
-0.069391124 -0.0449954 0.07526882 0.032556266 -0.046132028 -0.039442528 -0.073238105 -0.06522802
-0.08233181 -0.054136127 -0.041984245 -0.06467536 -0.054890938 -0.05156276 -0.060008038 -0.0398871
-0.05609552 -0.08424726 -0.080350876 -0.08430115 -0.057541516 -0.04649336 -0.06330735 -0.03752675
-0.06437563 -0.05477591 -0.037482712 -0.047375154 -0.060826994 -0.03589951 -0.074869886 -0.05068619
-0.044211198 -0.07549454 -0.08336817 -0.05177062 -0.06946731 -0.07259856 -0.055035103 -0.077949874
-0.03723835 -0.062100362 -0.06785206 -0.038310714 -0.05296848 -0.05520938 -0.071745515 -0.036019348
-0.067228206 -0.03916726 -0.0618017 -0.04737566 -0.042358123 -0.078518 -0.076603994 -0.084613666
-0.04189333 -0.038361743 -0.068748556 -0.07173587 -0.05549264 -0.04645736 -0.053613223 -0.06454295
-0.07523414 -0.038381536 -0.07567159 -0.08290077 -0.06845383 -0.054311365 -0.050434217 -0.050277952
00000000: d584 8ebd 52fc 8cbd 851b 87bd fc8d a7bd
00000010: f0a9 9ebd 9484 7fbd 1ab1 82bd 9352 a9bd
00000020: 9468 5fbd 73bb 3dbd 0a9b 20bd a9b5 1fbd
00000030: d9b0 9ebd 542c 8bbd 501b 93bd f21c 63bd
00000040: 3674 5abd 6f09 5fbd 28a9 39bd cc86 3fbd
00000050: 416e 96bd 7499 2fbd 63b9 30bd bb81 67bd
00000060: bbf4 a6bd a7a2 99bd 2cfe 57bd 730c 52bd
00000070: 1c1e 16bd e102 41bd 8d44 50bd 21d8 78bd
00000080: b6e0 2fbd 082c 8dbd e3e7 49bd fd20 93bd
00000090: 5a6d 76bd 4c52 39bd b92f 46bd 2bb9 85bd
000000a0: aba0 75bd 00d1 96bd 3163 46bd 697e 30bd
000000b0: ceac 51bd 2c9f 063d db16 9ebd 5825 31bd
000000c0: 66e2 81bd 0c05 36bd 6b18 2abd c0d1 89bd
000000d0: c0ca 98bd a793 aabd f44d 4ebd 76c5 40bd
000000e0: 0283 83bd 2aef abbd 824c 9bbd c7fa 7abd
000000f0: ab08 47bd 9004 8cbd b2af 9bbd a126 9ebd
00000100: 26b0 19bd 1ecc 50bd b17f a4bd fc78 9abd
00000110: 3b0f a6bd ae5a 66bd 7cba 8fbd 0e34 76bd
00000120: 62f0 82bd f298 a6bd 3a47 a7bd 6a91 a2bd
00000130: 8751 90bd 47d4 65bd 89ef 92bd 5156 79bd
00000140: 8209 81bd b128 18bd 6d34 92bd be61 15bd
00000150: b2cd a1bd e6a9 a5bd 0194 54bd 8fa6 98bd
00000160: aec7 3dbd 06f5 96bd e14a 25bd 39c4 12bd
00000170: a54c 6fbd 7a8a 5fbd 0411 16bd 353a 39bd
00000180: 96a8 a7bd 4f22 79bd 7fc2 a8bd 02d4 26bd
00000190: 85f8 83bd dbf7 75bd 7f21 9abd ee9b 96bd
000001a0: fcef 67bd b140 20bd 6808 94bd d24e 6bbd
000001b0: ee92 18bd 6255 18bd ea6c 84bd 8873 14bd
000001c0: 327b 4fbd 35e0 16bd 96f4 6cbd 6e21 a6bd
000001d0: 7e90 88bd 975a 56bd edb7 3abd cac6 acbd
000001e0: ac8e 25bd 2745 a8bd 55fe 38bd f0e0 0ebd
000001f0: a605 5bbd c886 84bd 464c 3dbd 79f1 89bd
00000200: 6c6d a0bd 21f6 9ebd 71a9 45bd 5e96 27bd
00000210: a998 71bd b154 acbd c5f0 acbd 1681 86bd
00000220: 329c 3ebd 260d 9dbd 35c3 59bd c3ac 96bd
00000230: 4996 22bd d05d 88bd e99c 85bd e3a2 a7bd
00000240: 7a92 a8bd f2fa 6ebd d357 65bd f68e 3ebd
00000250: 3665 a7bd 4993 62bd ba18 82bd 0184 39bd
00000260: 4119 92bd 9c21 57bd efeb 4bbd 68f8 41bd
00000270: 8a54 8cbd 9a76 54bd 1d7f 84bd 6be5 57bd
00000280: 376b 99bd 290f a3bd 4e1d a4bd 641f 9abd
00000290: 21e5 8fbd e486 65bd 7a7a 85bd 7f62 97bd
000002a0: 12d0 73bd 46b5 8abd 00dc 35bd 4c73 a4bd
000002b0: 4423 8dbd 8841 9bbd a917 68bd fec8 6fbd
000002c0: 0e6a 7bbd e60e 10bd 9036 8ebd 2603 82bd
000002d0: 7cdb 59bd a862 1dbd ea1d 27bd f741 69bd
000002e0: ef1c 8ebd 194d 38bd 8a26 9a3d b859 053d
000002f0: f0f4 3cbd 7d8e 21bd dcfd 95bd 4596 85bd
00000300: 949d a8bd d8bd 5dbd acf7 2bbd 8474 84bd
00000310: 52d5 60bd 7933 53bd fdca 75bd a860 23bd
00000320: 6ac4 65bd d489 acbd 008f a4bd 15a6 acbd
00000330: a7b0 6bbd d26f 3ebd 49a7 81bd a6b5 19bd
00000340: 5fd7 83bd b45c 60bd 7987 19bd 730c 42bd
00000350: ba25 79bd 5d0b 13bd 6255 99bd 539c 4fbd
00000360: cd16 35bd e29c 9abd eebc aabd 6e0d 54bd
00000370: e144 8ebd 8eae 94bd 7d6c 61bd 2fa4 9fbd
00000380: 3d87 18bd f35c 7ebd 05f6 8abd b2eb 1cbd
00000390: 7af5 58bd 3b23 62bd 50ef 92bd 0689 13bd
000003a0: f1ae 89bd d96d 20bd c823 7dbd fb0c 42bd
000003b0: b67f 2dbd 0cce a0bd 8ee2 9cbd ee49 adbd
000003c0: 5798 2bbd 3421 1dbd 0bcc 8cbd 41ea 92bd
000003d0: 404c 63bd 134a 3ebd 8a99 5bbd 182f 84bd
000003e0: 5b14 9abd f535 1dbd b5f9 9abd e1c7 a9bd
000003f0: 8631 8cbd 9875 5ebd 1c94 4ebd 41f0 4dbd

conv2.bias f4 [32]
-0.054853372 -0.06280766 -0.05653813 -0.036934085 -0.070709914 -0.03902037 -0.07514718 -0.059624232
-0.028496893 -0.045886293 -0.0496442 0.07799826 -0.041526023 -0.051923804 -0.05394112 0.04910893
-0.06269721 -0.053895906 0.02031159 -0.051841658 -0.052477047 -0.04361493 -0.06488771 -0.0018104239
-0.04394072 -0.042744625 -0.032579467 -0.06566719 -0.051402353 -0.06169987 -0.037857678 0.054442443
00000000: eead 60bd 4da1 80bd 8794 67bd 3248 17bd
00000010: 5cd0 90bd d3d3 1fbd c4e6 99bd 8a38 74bd
00000020: 5172 e9bc 44f3 3bbd b757 4bbd 8dbd 9f3d
00000030: 3117 2abd 0eae 54bd 5df1 5cbd 7226 493d
00000040: 6567 80bd f4c1 5cbd 7e64 a63c eb57 54bd
00000050: 2cf2 56bd 92a5 32bd d9e3 84bd bf4b edba
00000060: 2ffb 33bd fd14 2fbd 0c72 05bd 857c 86bd
00000070: 468b 52bd 01b9 7cbd a710 1bbd 0aff 5e3d

fc1.weight f4 [256, 32]
-0.20724867 -0.01815904 -0.1762841 -0.23359698 -0.10794125 0.06039007 0.09899434 -0.015271345
0.065852135 -0.15229599 0.08543985 -0.040834785 -0.10602493 -0.099264905 0.09712634 0.030213416
-0.122544006 0.058886323 0.039234348 0.04812534 0.057480406 -0.0039132717 -0.017843189 -0.013628029
-0.21806353 0.057852514 -0.025274217 0.01095291 -0.013598919 -0.16706283 -0.1479374 -0.10216825
0.15028664 0.075487785 -0.12088698 -0.04670465 -0.0515963 -0.1386764 -0.09468664 -0.115870915
-0.14120695 0.027818605 0.058303062 -0.1048367 -0.05857158 -0.00079063274 -0.07023492 -0.049000453
-0.13588914 0.1468733 -0.17502752 0.074168466 -0.14934303 -0.123016536 0.100195915 0.14887002
0.14996009 0.1375616 -0.16640596 0.08827552 -0.12654842 0.041090667 -0.10904995 -0.016085556
-0.09261355 -0.028007127 0.07094762 0.12116637 0.015349187 -0.14828485 0.16299248 -0.072151005
-0.11760544 0.043844156 0.14228411 -0.13429792 -0.02528239 -0.1359653 -0.04019037 0.042202882
-0.07340082 -0.15172186 -0.17904386 0.13539453 -0.05737069 -0.06325685 0.019134177 -0.16089272
-0.011018282 0.10679619 -0.10294946 0.08897988 -0.05488878 -0.023267526 -0.044218324 -0.17344716
0.15249605 0.06298347 -0.021798966 -0.034089398 -0.1482847 0.103176855 0.047792945 -0.112582706
0.10569955 -0.15951857 0.09859039 -0.16051182 -0.14142336 -0.076044254 -0.04850354 0.040367085
0.10224371 -0.011127421 0.099648885 -0.037210442 -0.13110162 -0.088293344 -0.1594685 -0.2299783
-0.029297138 0.119921036 0.08527613 0.061206117 0.040136233 -0.09111561 -0.09384963 -0.15896422
0.20789632 0.1449052 -0.11336759 0.07432383 0.06641964 0.048776723 0.03675357 0.072350696
0.027523935 0.009791659 0.010199536 0.059434567 -0.12822463 0.014281217 0.03698233 -0.21536803
-0.13746256 0.05176285 -0.092169605 0.005398902 0.086245835 -0.10252203 -0.032189526 -0.2022164
0.056712657 0.03815638 0.1407008 0.2327321 0.051711883 -0.12943526 0.19753385 -0.12172618
-0.1414288 -0.0012810894 0.07176507 0.10378083 -0.08368766 -0.061475687 0.04672907 -0.03929932
0.12924877 -0.16046593 -0.027968274 -0.15243906 0.029159969 0.014830906 0.061787248 -0.18869422
0.041790556 0.04866994 0.13415793 -0.0730033 0.048790924 -0.059491195 0.015555143 0.041069455
0.11959913 -0.067071825 -0.09740974 -0.08244188 -0.08123431 0.061432518 0.036138907 0.049119197
0.008378401 0.044107597 -0.043037623 -0.09727696 -0.011693014 -0.2076436 -0.060273215 0.110604435
0.09390964 0.13838993 0.11805238 -0.0333585 -0.04215381 -0.054808196 -0.16935304 0.006023813
-0.015475944 0.051253136 0.12563573 0.17795815 0.17017868 0.025959803 -0.1334229 0.2568559
0.08349747 -0.07770808 -0.014774671 -0.061083533 0.19379562 0.06450399 -0.12702239 0.0017973884
0.09296051 0.047227707 0.024000198 -0.08419414 -0.09203799 0.028783398 0.08764535 0.040305957
-0.06399211 0.20962235 0.15871371 -0.26131544 -0.003656403 0.16232835 -0.06236784 -0.017328499
0.14728822 0.10736374 -0.11748022 0.18610528 -0.12102429 0.17787343 -0.029496424 -0.026647128
0.091045626 0.0458219 -0.15269735 0.0052548093 -0.0061718035 0.14768606 -0.08453487 -0.18133637
00000000: ff38 54be 44c2 94bc d283 34be 0c34 6fbe
00000010: 4d10 ddbd 945b 773d 8bbd ca3d aa34 7abc
00000020: 7cdd 863d 7bf3 1bbe 17fb ae3d 6042 27bd
00000030: 9923 d9bd 664b cbbd 2dea c63d 2082 f73c
00000040: 5af8 fabd c932 713d 32b4 203d 141f 453d
00000050: 9370 6b3d e73a 80bb e12b 92bc 1948 5fbc
00000060: 0c4c 5fbe c2f6 6c3d e00b cfbc d673 333c
00000070: 00ce 5ebc 8512 2bbe e77c 17be 963d d1bd
00000080: bee4 193e 5799 9a3d 9893 f7bd 604d 3fbd
00000090: a456 53bd 3001 0ebe 12eb c1bd bb4d edbd
000000a0: 8e98 10be d8e3 e33c 31cf 6e3d a0b4 d6bd
000000b0: c1e8 6fbd 7742 4fba 53d7 8fbd b3b4 48bd
000000c0: 8626 0bbe f465 163e 6a3a 33be a3e5 973d
000000d0: 61ed 18be 18f0 fbbd 8433 cd3d 6271 183e
000000e0: 238f 193e f3dc 0c3e 5366 2abe ccc9 b43d
000000f0: e995 01be b04e 283d 9555 dfbd dbc5 83bc
00000100: 2cac bdbd 346f e5bc fc4c 913d 1326 f83d
00000110: 287b 7b3c fcd7 17be 80e7 263e e8c3 93bd
00000120: 1fdb f0bd ee95 333d edb2 113e 6585 09be
00000130: 041d cfbc 7d3a 0bbe a89e 24bd eedc 2c3d
00000140: 2b53 96bd fa5c 1bbe 4657 37be dda4 0a3e
00000150: 87fd 6abd cf8c 81bd 47bf 9c3c 10c1 24be
00000160: 0686 34bc f6b7 da3d 2bd7 d2bd 153b b63d
00000170: 0fd3 60bd 8a9b bebc 461e 35bd 229c 31be
00000180: ed27 1c3e 7afd 803d bf93 b2bc 53a1 0bbd
00000190: f2d7 17be 634e d33d 89c2 433d c391 e6bd
000001a0: 0179 d83d d658 23be c2e9 c93d 365d 24be
000001b0: 49d1 10be 17bd 9bbd a6ab 46bd f557 253d
000001c0: 2665 d13d c94f 36bc b714 cc3d fa69 18bd
000001d0: 813f 06be 24d3 b4bd b64b 23be 6e7f 6bbe
000001e0: 8d00 f0bc 2999 f53d 40a5 ae3d 44b3 7a3d
000001f0: e465 243d d29a babd 3c34 c0bd 84c7 22be
00000200: c6e2 543e 0762 143e 442d e8bd 1837 983d
00000210: 0507 883d 1aca 473d e98a 163d 9a2c 943d
00000220: e079 e13c 326d 203c f41b 273c a971 733d
00000230: 514d 03be c4fb 693c c97a 173d 7089 5cbe
00000240: fcc2 0cbe 4805 543d 6bc3 bcbd 46e9 b03b
00000250: a8a1 b03d 12f7 d1bd 2ad9 03bd d111 4fbe
00000260: 884b 683d dd49 1c3d df13 103e 5351 6e3e
00000270: d7cf 533d ad8a 04be 5046 4a3e 934b f9bd
00000280: b6d2 10be 3aea a7ba 91f9 923d 0b8b d43d
00000290: 7064 abbd eecd 7bbd fb66 3f3d 53f8 20bd
000002a0: ca59 043e 2e51 24be b91d e5bc fc18 1cbe
000002b0: e3e0 ee3c 54fd 723c a014 7d3d 0f39 41be
000002c0: 932c 2b3d 225a 473d b260 093e c182 95bd
000002d0: fed8 473d 0aad 73bd 00db 7e3c 7238 283d
000002e0: 63f0 f43d f45c 89bd c27e c7bd 4ad7 a8bd
000002f0: 2d5e a6bd aaa0 7b3d 6406 143d 3631 493d
00000300: 9045 093c 2baa 343d 3848 30bd 2539 c7bd
00000310: 0e94 3fbc 86a0 54be 0ce1 76bd 9484 e23d
00000320: b353 c03d 17b6 0d3e 72c5 f13d eca2 08bd
00000330: 79a9 2cbd 8f7e 60bd e26a 2dbe 6863 c53b
00000340: d08e 7dbc cfee 513d a7a6 003e a93a 363e
00000350: 5243 2e3e a7a9 d43c 03a0 08be 9e82 833e
00000360: b900 ab3d 6a25 9fbd 7611 72bc ba32 7abd
00000370: 5c72 463e ab1a 843d 2812 02be 5996 eb3a
00000380: 1462 be3d d771 413d 109c c43c fa6d acbd
00000390: 6a7e bcbd 29cb eb3c 687f b33d dc17 253d
000003a0: 4c0e 83bd 3ea7 563e d985 223e 23cb 85be
000003b0: 43a0 6fbb 6739 263e 6c75 7fbd 7ff4 8dbc
000003c0: b9d2 163e 85e1 db3d 7899 f0bd 6292 3e3e
000003d0: 95db f7bd 7424 363e 7ca2 f1bc 144b dabc
000003e0: 2176 ba3d bfaf 3b3d b25c 1cbe 8930 ac3b
000003f0: d73c cabb 043b 173e 9e20 adbd 3eb0 39be

fc1.bias f4 [256]
-0.17228708 -0.06091174 -0.195683 -0.20629333 0.12008288 0.03984519 0.072546184 0.16447346
-0.13459414 -0.011338087 -0.2576453 0.1842845 -0.10852525 -0.0023099314 -0.14129467 0.279604
-0.19884427 -0.017279603 -0.011472123 -0.1606031 -0.046624128 -0.07188846 0.17156515 -0.023275528
-0.22777982 0.2977343 -0.21572217 -0.098835565 0.065428086 0.23470446 -0.24418952 -0.0042814077
0.06124853 -0.115609415 -0.14259368 -0.17206673 -0.11632094 0.16921867 -0.07882653 0.15089087
0.08342408 0.13646546 0.242268 0.08354479 -0.12654985 -0.013974368 0.10412883 -0.047995877
-0.1968945 -0.123877116 -0.052894503 -0.21952137 -0.17304876 -0.17509606 -0.15211876 -0.23087104
0.13930504 -0.20338091 0.17840259 -0.07647688 0.18459356 -0.14798982 -0.056217737 0.26076388
-0.08739045 0.14663263 -0.13551791 -0.2529254 -0.101784624 0.12007928 -0.07326503 0.018587159
-0.010025049 0.22323534 -0.19334371 0.18124704 -0.20174658 0.023702104 -0.088296086 -0.06620827
-0.012204859 -0.2135402 -0.09157847 0.26319522 0.0457423 -0.06395826 -0.019284394 -0.17208925
-0.17640665 0.17225358 0.12509717 0.18762828 -0.056164075 -0.24173906 -0.15057775 0.149376
-0.040648885 -0.13888974 0.14902075 0.12352871 -0.01853141 0.066420555 -0.11409115 -0.046824284
0.19799818 -0.047228143 0.19691402 -0.15785581 -0.04794217 -0.19285521 -0.012526467 -0.0032611967
-0.19136766 -0.08695254 -0.04180129 -0.052472893 0.09354076 0.18641645 0.14880048 -0.07721777
-0.064773634 -0.07625811 0.08967146 -0.0477181 -0.04574574 -0.030051777 -0.09266215 0.05075546
-0.19599526 0.23424888 -0.10284848 -0.20547931 0.121938534 0.1589802 -0.08428114 -0.017804919
0.071421854 -0.23467694 0.022873044 0.092443004 -0.1271468 0.24758703 -0.03484292 -0.06135279
-0.13733009 -0.06770296 -0.1509838 0.077607 -0.06529802 -0.1582219 -0.12739766 -0.117861845
-0.16126867 0.09179416 0.16173257 0.004595594 0.2620559 -0.22311914 -0.037751753 -0.036679726
-0.030721528 0.0051203975 -0.25018826 -0.045152187 -0.12828112 0.0018250144 -0.10586272 0.13358906
0.060634032 -0.017017176 -0.025194468 -0.13421188 0.14565645 -0.22317383 -0.010418897 -0.14581904
-0.060302723 0.21871422 0.027946692 0.117507845 -0.06363895 -0.112438455 0.17710969 -0.24324536
-0.16920057 0.046050522 -0.16785322 -0.123130776 -0.12842996 -0.17103522 -0.024799582 -0.23282304
-0.059122957 -0.12341429 -0.07113694 -0.16900127 -0.22588567 -0.12891223 -0.058762625 0.20783986
-0.043390352 -0.12739399 -0.12839495 0.14308149 -0.09619728 0.078418136 -0.1631967 -0.119586244
0.059308376 -0.089791186 -0.10384751 -0.022926474 -0.1338397 -0.10032899 -0.08044355 -0.06980718
-0.04235756 -0.024705244 -0.12683137 -0.13743329 0.1351455 -0.02107993 -0.10945738 -0.1268721
-0.19989723 -0.22422999 -0.029053511 0.021829698 0.1732733 0.060485344 0.07783631 -0.0067858393
-0.0844409 -0.033300854 -0.26005065 -0.009886285 -0.08451174 -0.15041094 -0.15392293 0.1401603
-0.11532693 0.091502786 -0.1638518 0.050897513 -0.14699014 0.2940845 -0.11695336 0.12816007
-0.17293896 -0.13219677 -0.045017984 -0.16263305 -0.11870826 -0.0039166287 -0.22034556 0.21174566
00000000: 066c 30be 977e 79bd 2061 48be 8f3e 53be
00000010: 03ee f53d b634 233d 1893 943d bb6b 283e
00000020: 0cd3 09be 62c3 39bc 16ea 83be 13b5 3c3e
00000030: 7c42 debd 3862 17bb 8daf 10be 4128 8f3e
00000040: d59d 4bbe f48d 8dbc 92f5 3bbc 2475 24be
00000050: f1f8 3ebd 423a 93bd c6ae 2f3e 52ac bebc
00000060: 1d3f 69be a170 983e 46e6 5cbe 4d6a cabd
00000070: 29ff 853d 5e56 703e d10c 7abe 0d4b 8cbb
00000080: bddf 7a3d a1c4 ecbd 1404 12be 4332 30be
00000090: ac39 eebd a947 2d3e ce6f a1bd 2383 1a3e
000000a0: 3eda aa3d 9abd 0b3e 1a15 783e 8819 ab3d
000000b0: 4996 01be bff4 64bc 7f41 d53d 5397 44bd
000000c0: b69e 49be 49b3 fdbd e8a7 58bd 36ca 60be
000000d0: b233 31be 624c 33be 05c5 1bbe 7569 6cbe
000000e0: fba5 0e3e 1643 50be 2baf 363e e99f 9cbd
000000f0: 1806 3d3e a58a 17be 9244 66bd d882 853e
00000100: c4f9 b2bd dd26 163e 35c5 0abe 707f 81be
00000110: 7574 d0bd 20ec f53d fa0b 96bd 1944 983c
00000120: 1a40 24bc ce97 643e e5fb 45be d398 393e
00000130: a896 4ebe ea2a c23c 94d4 b4bd 3498 87bd
00000140: e4f6 47bc 48aa 5abe 7e8d bbbd 86c1 863e
00000150: 475c 3b3d 8cfc 82bd 4efa 9dbc 2a38 30be
00000160: f2a3 34be 3e63 303e 7919 003e a121 403e
00000170: 4d0c 66bd 728a 77be 0e31 1abe 06f6 183e
00000180: 727f 26bd 1d39 0ebe e598 183e 9ffc fc3d
00000190: 2fcf 97bc 8007 883d 9fa8 e9bd d2ca 3fbd
000001a0: 09c0 4a3e 4c72 41bd d4a3 493e f4a4 21be
000001b0: 025f 44bd d67b 45be d03b 4dbc cdb9 55bb
000001c0: e2f5 43be 2c14 b2bd d437 2bbd d1ed 56bd
000001d0: 4c92 bf3d f4e3 3e3e 275f 183e 5a24 9ebd
000001e0: 0aa8 84bd 362d 9cbd aca5 b73d 0e74 43bd
000001f0: e35f 3bbd 252f f6bc a7c5 bdbd f5e4 4f3d
00000200: fbb2 48be f0de 6f3e 39a2 d2bd 2b69 52be
00000210: e9ba f93d b5cb 223e 979b acbd 9fdb 91bc
00000220: 9f45 923d 274f 70be 4060 bb3c c252 bd3d
00000230: c532 02be 7487 7d3e 73b7 0ebd 104d 7bbd
00000240: 42a0 0cbe d9a7 8abd 7f9b 1abe 6bf0 9e3d
00000250: f8ba 85bd ec04 22be 8874 02be 8d61 f1bd
00000260: 9d23 25be 94fe bb3d 399d 253e a396 963b
00000270: 312c 863e 5879 64be 95a1 1abd 7b3d 16bd
00000280: b7ab fbbc 02c9 a73b ad18 80be 80f1 38bd
00000290: 205c 03be 5235 ef3a 8ece d8bd 92cb 083e
000002a0: 645b 783d 9b67 8bbc a164 cebc d76e 09be
000002b0: f726 153e ae87 64be 05b4 2abc 9651 15be
000002c0: fdff 76bd 9ff6 5f3e 76f0 e43c f4a7 f03d
000002d0: 2355 82bd 2246 e6bd 3e5c 353e 5015 79be
000002e0: ea42 2dbe 799f 3c3d b7e1 2bbe fd2b fcbd
000002f0: 2583 03be db23 2fbe 7e28 cbbc 2a69 6ebe
00000300: ea2a 72bd a2c0 fcbd 3eb0 91bd ab0e 2dbe
00000310: 934e 67be 9101 04be 14b1 70bd f9d3 543e
00000320: 15ba 31bd 9273 02be f779 03be f483 123e
00000330: 1403 c5bd b099 a03d 091d 27be a2e9 f4bd
00000340: 57ed 723d 71e4 b7bd 01ae d4bd 4dd0 bbbc
00000350: 460d 09be 4979 cdbd 97bf a4bd 11f7 8ebd
00000360: 1f7f 2dbd a762 cabc 15e0 01be 50bb 0cbe
00000370: 9563 0a3e d1af acbc 312b e0bd c3ea 01be
00000380: dcb1 4cbe 8c9c 65be a101 eebc 32d4 b23c
00000390: 8e6e 313e 7bbf 773d a568 9f3d bf5b debb
000003a0: 5aef acbd 7a66 08bd 5c25 85be 16fa 21bc
000003b0: 7e14 adbd 5305 1abe f99d 1dbe 2f86 0f3e
000003c0: 8730 ecbd d065 bb3d c4c8 27be e979 503d
000003d0: 9584 16be 3e92 963e 3e85 efbd 653c 033e
000003e0: e916 31be 975e 07be c764 38bd 4789 26be
000003f0: 511d f3bd 1057 80bb 44a2 61be dbd3 583e

fc2.weight f4 [128, 256]
-0.034300204 0.025344059 0.0116212 -0.039967313 -0.045765348 0.09006345 -0.055803902 -0.013703787
-0.046034165 -0.0017690882 -0.010046355 -0.022765711 -0.0032112699 -0.026444217 0.04290881 0.030713037
0.03309267 -0.07640031 0.090332024 0.02044981 0.07389007 -0.033966616 -0.05275118 -0.07513366
-0.0964851 -0.038343698 -0.047260605 0.0022721943 -0.036681466 -0.0773386 -0.060767956 -0.09770369
-0.034524497 -0.05475527 -0.08059995 -0.040283613 -0.055543184 -0.031021273 0.060746133 -0.022555433
-0.045625784 -0.0017995571 -0.026002469 -0.08523926 0.0044127554 -0.0007329532 -0.032477774 -0.011465465
0.016050383 -0.027169205 0.03613215 -0.05067024 0.04941736 8.323789e-05 -0.00766545 -0.053326324
-0.122414604 -0.08100249 -0.025865968 -0.04042489 -0.006027825 -0.024455644 -0.08258239 0.036446437
0.0464738 -0.11853268 0.04414066 0.050524265 -0.09164126 -0.044542614 0.022704288 -0.110213846
-0.116296664 -0.018473469 0.009845495 -0.059501 -0.046677724 -0.08398451 -0.05927457 -0.023733832
0.04037542 -0.044099364 0.047696605 0.012213953 -0.061606333 -0.090992786 -0.06122906 -0.038207352
0.035990283 -0.089296155 -0.043585185 -0.10130028 0.022103347 0.03866998 -0.0482286 -0.025993895
0.06180071 -0.06205421 -0.026143111 -0.02878143 -0.012399251 -0.08878602 -0.016396776 -0.0027531385
-0.06650231 -0.0388439 -0.05596991 0.054624617 -0.014457688 -0.025078557 -0.014568014 0.046626873
-0.018108524 0.004309781 0.046103455 -0.045540784 -0.10443439 -0.026783356 -0.09382804 0.07910876
0.049471065 -0.057454385 -0.068795934 0.0039235726 -0.04870346 0.012521915 0.032484032 -0.0007760152
-0.06931732 0.0010635428 0.06118772 -0.00045719743 -0.061012078 -0.053832386 -0.09711554 -0.02558544
-0.008259058 -0.036043122 -0.057410136 -0.041151285 0.050566107 0.051357932 0.014728121 0.02482254
-0.035952285 -0.047204945 -0.09567536 -0.055041008 -0.008695582 0.002830699 -0.017935067 0.03811662
-0.09341642 -0.08845151 -0.097535774 -0.039424963 -0.00978331 -0.018351905 -0.07510911 -0.009619117
-0.09880892 0.000108473 -0.0108312145 -0.07557412 0.003364712 -0.08167754 -0.01716815 -0.030237732
-0.092861876 -0.08425077 -0.11728508 -0.006759189 -0.03569259 -0.04918623 -0.060797814 0.0016109496
-0.010635205 -0.031207945 -0.038706932 -0.028060772 -0.054768357 -0.050349884 -0.012040273 0.006576173
0.0043074563 -0.026060594 -0.010035619 -0.057605974 -0.03950788 -0.052531525 0.038033873 -0.06023699
-0.04833663 0.042203978 0.056015424 0.04619921 -0.04984156 -0.056915224 -0.046687596 -0.04948835
-0.07389981 0.050002582 0.04139866 0.04872118 -0.020221962 -0.111939944 -0.04403729 -0.019722499
-0.056512903 -0.057671987 0.034615085 -0.060177997 -0.02454511 -0.0760112 -0.049432494 -0.122010686
-0.021709561 -0.093048744 -0.11876466 0.035085745 -0.035662223 -0.098474324 -0.04129877 -0.0077960715
-0.035261784 0.024837606 -0.120085366 -0.046381336 -0.036216795 -0.104492106 -0.0024381648 -0.04055086
-0.06169183 -0.06102026 -0.050496213 -0.0341442 -0.029533548 0.01586128 0.042175286 -0.11633752
-0.001552768 -0.09305819 -0.032167837 -0.04187285 -0.007914983 -0.030172985 -0.03487286 -0.015457903
0.05911626 -0.05414322 0.039743215 -0.066894904 -0.0009742081 -0.03392751 -0.054632884 -0.08011613
00000000: 5f7e 0cbd 589e cf3c d866 3e3c c4b4 23bd
00000010: 7274 3bbd 3073 b83d a292 64bd d985 60bc
00000020: 528e 3cbd c0e0 e7ba 7899 24bc 287f babc
00000030: 2b74 52bb 8ba1 d8bc 26c1 2f3d e899 fb3c
00000040: 2e8c 073d c477 9cbd ffff b83d 5c86 a73c
00000050: ad53 973d 9420 0bbd 9f11 58bd addf 99bd
00000060: fb99 c5bd 480e 1dbd 5694 41bd 18e9 143b
00000070: 4e3f 16bd b363 9ebd d2e7 78bd df18 c8bd
00000080: 8f69 0dbd 1047 60bd 9611 a5bd 6e00 25bd
00000090: 4081 63bd 5320 febc f0d0 783d 2cc6 b8bc
000000a0: 1ae2 3abd 1edf ebba 2103 d5bc ec91 aebd
000000b0: e098 903b a823 40ba 6a07 05bd a5d9 3bbc
000000c0: 187c 833c f491 debc 4eff 133d 998b 4fbd
000000d0: dc69 4a3d 0090 ae38 752e fbbb b46c 5abd
000000e0: 82b4 fabd a2e4 a5bd dee4 d3bc 9294 25bd
000000f0: 1085 c5bb 3457 c8bc f520 a9bd dc48 153d
00000100: 505b 3e3d 43c1 f2bd d6cc 343d 88f2 4e3d
00000110: 6aae bbbd 5172 36bd 58fe b93c ccb7 e1bd
00000120: f22c eebd ac55 97bc 004f 213c 52b7 73bd
00000130: 2431 3fbd 1200 acbd e4c9 72bd 746d c2bc
00000140: b260 253d 89a1 34bd 845d 433d 081d 483c
00000150: ec56 7cbd 6d5a babd 53cb 7abd 507f 1cbd
00000160: 8c6a 133d e7e0 b6bd 6186 32bd 8576 cfbd
00000170: 1412 b53c 6a64 1e3d 5a8b 45bd 26f1 d4bc
00000180: be22 7d3d 8e2c 7ebd 142a d6bc 09c7 ebbc
00000190: 3a26 4bbc 72d5 b5bd 8852 86bc 006e 34bb
000001a0: 5d32 88bd c81a 1fbd b440 65bd 10be 5f3d
000001b0: f0df 6cbc 8c71 cdbc aeae 6ebc d2fb 3e3d
000001c0: 5458 94bc 1039 8d3b fad6 3c3d f988 3abd
000001d0: b3e1 d5bd c568 dbbc ea28 c0bd c603 a23d
000001e0: 2ca2 4a3d 4a55 6bbd e2e4 8cbd 5091 803b
000001f0: 477d 47bd b828 4d3c fa0d 053d 806d 4bba
00000200: 3df6 8dbd 9366 8b3a fa9f 7a3d 00b4 efb9
00000210: cde7 79bd 597f 5cbd 83e4 c6bd 8f98 d1bc
00000220: 0051 07bc f4a1 13bd e426 6bbd 408e 28bd
00000230: 681e 4f3d b25c 523d 384e 713c a458 cb3c
00000240: b442 13bd f959 41bd 71f1 c3bd ae72 61bd
00000250: ea77 0ebc 4083 393b 90ec 92bc 2c20 1c3d
00000260: 1c51 bfbd 1126 b5bd d6c0 c7bd 127c 21bd
00000270: 2d4a 20bc bc56 96bc ced2 99bd 8099 1dbc
00000280: 555c cabd 007c e338 6875 31bc 9bc6 9abd
00000290: 8082 5c3b 8e46 a7bd 38a4 8cbc 1fb5 f7bc
000002a0: 5e2e bebd ab8b acbd 2933 f0bd 307c ddbb
000002b0: 6532 12bd 8077 49bd 2107 79bd 8026 d33a
000002c0: 483f 2ebc cea7 ffbc 298b 1ebd b4df e5bc
000002d0: c954 60bd ae3b 4ebd 9144 45bc f07c d73b
000002e0: 9025 8d3b 077d d5bc 706c 24bc 3ef4 6bbd
000002f0: 04d3 21bd 4c2b 57bd 68c9 1b3d 10bb 76bd
00000300: a1fc 45bd 14de 2c3d 6e70 653d 623b 3d3d
00000310: aa26 4cbd f01f 69bd 7e3b 3fbd 4cb4 4abd
00000320: c958 97bd 82cf 4c3d a491 293d dc8f 473d
00000330: 87a8 a5bc c540 e5bd 7260 34bd 1491 a1bc
00000340: 137a 67bd 7639 6cbd 8cc8 0d3d 347d 76bd
00000350: d412 c9bc c3ab 9bbd ba79 4abd bde0 f9bd
00000360: 40d8 b1bc 5790 bebd e33a f3bd 12b6 0f3d
00000370: 8d12 12bd e8ac c9bd e628 29bd 3076 ffbb
00000380: a96e 10bd 3c78 cb3c 51ef f5bd 5bfa 3dbd
00000390: 1058 14bd f5ff d5bd 9ec9 1fbb a918 26bd
000003a0: 93b0 7cbd 61f0 79bd 1ed5 4ebd cada 0bbd
000003b0: 57f0 f1bc 84ef 813c febf 2c3d 5e42 eebd
000003c0: 4086 cbba 4b95 bebd 6cc2 03bd de82 2bbd
000003d0: d8ad 01bc 562d f7bc d8d6 0ebd 2543 7dbc
000003e0: e423 723d 48c5 5dbd c8c9 223d 3200 89bd
000003f0: 0062 7fba 93f7 0abd bbc6 5fbd ed13 a4bd

fc2.bias f4 [128]
-0.034802787 -0.04286062 -0.0011192672 -0.1474201 0.12674648 -0.00061342865 -0.033188127 -0.050894372
-0.04811786 -0.04864835 -0.010897338 -0.027653303 -0.09366964 -0.08421664 0.11963929 0.018703148
-0.06802262 0.08782664 -0.023941247 -0.043723688 -0.10726679 0.07772147 -0.04108711 -0.040952563
-0.074427895 -0.010816254 -0.10988735 -0.05482313 -0.017712248 -0.07259313 0.00016433168 -0.011402346
0.08610542 0.028904423 -0.0069631785 0.16536792 0.13184324 -0.08536369 -0.075892694 -0.07467415
0.12317674 -0.09355408 0.18805192 -0.008688927 0.13106947 -0.06889025 0.1234285 0.009002231
-0.10552673 0.12116993 -0.05226515 -0.00906469 0.017552918 0.109809995 -0.071171 -0.037390046
0.06546249 -0.04641425 -0.056216452 -0.010285521 -0.04907786 0.23551881 -0.06232772 0.04678808
-0.050299928 0.040608615 0.1691898 0.11609695 -0.030079164 0.08546258 -0.014117488 -0.10478531
-0.06684993 -0.09922588 -0.030894935 -0.014568659 -0.009612846 -0.0506303 -0.048906382 -0.099566415
-0.015551302 -0.029888453 0.12943159 0.11531616 -0.115831226 -0.069104224 0.13671592 -0.0477476
-0.03698227 -0.10518566 -0.013602626 -0.065734856 0.0296987 -0.01196351 -0.092566244 0.096597016
0.11650141 0.02688326 -0.055785723 -0.110985436 0.04847332 -0.040723376 0.16697787 -0.021666378
-0.0049645007 -0.07990789 0.10663217 -0.024342017 0.06896714 0.12842886 -0.021964926 0.008691631
0.12407183 -0.066946834 -0.09953282 -0.08602397 -0.06261289 -0.043661255 0.11352386 0.0032240832
-0.112903334 -0.009170491 0.05650519 -0.012080115 0.032527354 -0.0848062 -0.099262506 -0.09442349
00000000: 5e8d 0ebd 9e8e 2fbd 60b4 92ba 4bf5 16be
00000010: d4c9 013e 80ce 20ba 46f0 07bd 9e76 50bd
00000020: 3c17 45bd 7e43 47bd c08a 32bc 2e89 e2bc
00000030: ded5 bfbd c679 acbd 7205 f53d 5837 993c
00000040: 724f 8bbd 74de b33d 6f20 c4bc 9c17 33bd
00000050: b1ae dbbd 6f2c 9f3d f54a 28bd e0bd 27bd
00000060: a76d 98bd a836 31bc 9e0c e1bd 388e 60bd
00000070: 4719 91bc b5ab 94bd 7350 2c39 e8d0 3abc
00000080: 0a58 b03d f8c8 ec3c 602b e4bb 3556 293e
00000090: ea01 073e 29d3 aebd a16d 9bbd c3ee 98bd
000000a0: 1644 fc3d 4899 bfbd af90 403e 005c 0ebc
000000b0: 1337 063e 5516 8dbd 15c8 fc3d 187e 133c
000000c0: 661e d8bd f127 f83d fb13 56bd 1184 14bc
000000d0: 23cb 8f3c 10e4 e03d 1ac2 91bd 4e26 19bd
000000e0: 3311 863d de1c 3ebd 3943 66bd 9a84 28bc
000000f0: de05 49bd d82b 713e 5a4b 7fbd dca4 3f3d
00000100: 4c07 4ebd 3855 263d 1740 2d3e 3dc4 ed3d
00000110: 9468 f6bc 0107 af3d 094d 67bc ae99 d6bd
00000120: 9ee8 88bd f036 cbbd 6017 fdbc 62b1 6ebc
00000130: 337f 1dbc b861 4fbd 0f52 48bd 7ae9 cbbd
00000140: e3ca 7ebc a1d8 f4bc b789 043e e12a ec3d
00000150: ec38 edbd 8486 8dbd 42ff 0b3e fd92 43bd
00000160: b97a 17bd 946b d7bd 8cdd 5ebc ff9f 86bd
00000170: b04a f33c 9902 44bc 5f93 bdbd a8d4 c53d
00000180: 4b98 ee3d 483a dc3c 927f 64bd 554c e3bd
00000190: f68b 463d 8ecd 26bd 3ffc 2a3e b07d b1bc
000001a0: 40ad a2bb bfa6 a3bd f861 da3d e968 c7bc
000001b0: a53e 8d3d db82 033e caef b3bc 5867 0e3c
000001c0: 5f19 fe3d 6c1b 89bd ddd7 cbbd 562d b0bd
000001d0: 303b 80bd 25d6 32bd 337f e83d 244b 533b
000001e0: dd39 e7bd d43f 16bc fc71 673d adeb 45bc
000001f0: 673b 053d dfae adbd 244a cbbd 1a61 c1bd

fc3.weight f4 [2, 128]
0.12248501 0.1098298 0.079056285 0.03815605 0.08631284 -0.010854795 -0.05298475 -0.08089847
-0.026026433 0.059395626 0.071498595 0.0071570743 0.043809943 -0.024873493 0.1566773 0.13075739
0.024625957 -0.036535405 0.12890519 0.0158234 0.10399122 0.06751073 -0.08537993 -0.07962006
0.03150228 -0.018497862 -0.07124672 0.020563131 -0.06120615 -0.006875537 -0.0137034645 0.03726172
-0.010422153 -0.08669867 -0.008360691 -0.0581101 0.025970398 -0.03011036 0.00211372 0.015062614
0.12540153 0.0071933814 -0.3584114 -0.0820502 0.14957865 -0.024668237 -0.1333726 -0.06148909
-0.023203298 0.12571894 0.107066624 0.014029936 -0.02714544 -0.028982064 0.029696492 -0.03330674
0.07748034 0.02927907 -0.02651324 0.02797443 -0.050740357 -0.29806387 -0.009333886 -0.0039077774
0.07318235 0.1028636 -0.13633552 0.13604273 0.088627994 0.1176818 -0.05246231 -0.009162074
-0.036258124 0.08670386 0.04673764 0.09006804 0.016745338 0.070064485 0.030488439 -0.113362946
0.026698804 0.027269028 -0.12312845 -0.14187536 0.07411551 0.012624015 0.13489662 -0.039064232
0.023028882 -1.4511182e-05 0.02974479 0.061619524 0.11408157 0.011791958 -0.014478649 0.1315437
0.026058875 -0.08726335 -0.042447954 0.038518634 0.012434204 0.020742966 -0.26581347 0.052523617
-0.05867645 0.040697508 0.059140958 -0.012331808 0.08915125 0.08334221 0.127426 0.034150664
0.063175485 0.022962533 0.062405873 0.032398447 0.027861413 0.025696186 -0.21591589 0.08713876
-0.025512883 -0.05084692 -0.030763594 0.013023866 0.056302097 0.0065221596 -0.029701587 0.018216174
0.014338812 0.023247851 -0.003971539 0.028023567 -0.08818002 -0.034167208 -0.075527005 -0.06911654
-0.1250469 0.021018697 0.027733264 -0.032871805 0.053277656 0.0061469567 -0.13216387 -0.11227017
-0.017865708 0.01196455 0.03471916 0.044790413 0.032237075 -0.05888652 0.0075486223 -0.041187763
-0.08454533 -0.0059396927 -0.005300093 -0.004423438 0.0226323 -0.01842768 0.0005980743 -0.004542071
0.025007248 -0.007904573 0.02732459 0.089331076 -0.12786107 0.07386107 -0.03522227 0.009408942
-0.12438202 -0.019468578 0.44081452 0.075153485 -0.07006095 0.025396112 0.14537509 -0.05778999
0.0278784 -0.10742197 0.02812033 0.024262173 -0.09234083 0.06147158 0.067638606 0.015748331
-0.14646675 -0.0030016839 0.062085833 -0.0064494917 -0.08696194 0.32542694 -0.051741652 -0.07683618
-0.0070401533 -0.12736155 0.25266856 -0.069694415 0.01725176 -0.08140271 0.019113796 -0.008753607
0.029855946 0.013305363 -0.016108377 -0.012114647 -0.060273662 0.044096004 0.015321123 -0.016830206
-0.08147001 -0.0062043997 0.17165656 -0.014188797 0.001789334 0.020189233 -0.008818293 0.03534944
-0.060092274 -0.016287625 -0.038102027 0.020355016 -0.078657225 0.0050633526 0.032561645 -0.009352029
-0.10860872 -0.004536234 -0.054324947 0.013307587 -0.09260559 -0.0124951415 0.18651207 -0.06335524
-0.0756258 0.0050961515 0.03145691 -0.03330198 -0.046400443 -0.07307788 0.013276879 0.07509029
-0.10606063 -0.057647265 -0.008289032 0.026396118 0.021536801 -0.05848092 0.108586684 -0.06842654
-0.03257719 0.002294142 -0.07068249 -0.03139109 -0.14889976 0.02444825 -0.11055033 0.054149527
00000000: 6cd9 fa3d 72ee e03d 43e8 a13d 8549 1c3d
00000010: c9c4 b03d 4fd8 31bc 8a06 59bd 19ae a5bd
00000020: 6335 d5bc d448 733d db6d 923d e485 ea3b
00000030: 0e72 333d 7fc3 cbbc 0470 203e 44e5 053e
00000040: 60bc c93c 26a6 15bd b9ff 033e 13a0 813c
00000050: 59f9 d43d 1143 8a3d acdb aebd d80f a3bd
00000060: 8908 013d d488 97bc cde9 91bd 0374 a83c
00000070: 4db3 7abd 2f4c e1bb 7f84 60bc bf9f 183d
00000080: aec1 2abc 138f b1bd 48fb 08bc db04 6ebd
00000090: dfbf d43c 00aa f6bc 5686 0a3b 2fc9 763c
000000a0: 4269 003e 75b6 eb3b b381 b7be ef09 a8bd
000000b0: 252b 193e 0b15 cabc d492 08be fcdb 7bbd
000000c0: d814 bebc 77bc 003e bf45 db3d d1dd 653c
000000d0: 1d60 debc cb6b edbc 0f46 f33c a66c 08bd
000000e0: 03ae 9e3d a9da ef3c 4b32 d9bc a22a e53c
000000f0: 1fd5 4fbd d49b 98be 28ed 18bc d00c 80bb
00000100: a1e0 953d 27aa d23d 8a9b 0bbe c94e 0b3e
00000110: 9882 b53d 2803 f13d b8e2 56bd 861c 16bc
00000120: 6683 14bd cb91 b13d f86f 3f3d 9875 b83d
00000130: 852d 893c f87d 8f3d e4c2 f93c d52a e8bd
00000140: 73b7 da3c 4c63 df3c c52a fcbd c647 11be
00000150: dfc9 973d f5d4 4e3c 5722 0a3e d101 20bd
00000160: 11a7 bc3c 0d75 73b7 59ab f33c c164 7c3d
00000170: 99a3 e93d 0e33 413c db37 6dbc 64b3 063e
00000180: 6c79 d53c 21b7 b2bd e8dd 2dbd b7c5 1d3d
00000190: d5b8 4b3c 27ed a93c b418 88be 0123 573d
000001a0: b856 70bd 6eb2 263d ca3d 723d 5a0b 4abc
000001b0: ee94 b63d 52af aa3d f67b 023e 91e1 0b3d
000001c0: 2662 813d ec1b bc3c 4d9d 7f3d 3cb4 043d
000001d0: 9e3d e43c cf80 d23c 0e19 5dbe ce75 b23d
000001e0: 6500 d1bc dc44 50bd ef03 fcbc 0e62 553c
000001f0: 079d 663d d7b7 d53b be50 f3bc 163a 953c
00000200: 56ed 6a3c 4772 be3c af23 82bb ae91 e53c
00000210: ba97 b4bd eaf2 0bbd e7ad 9abd f98c 8dbd
00000220: 4b0c 00be 672f ac3c df30 e33c 96a4 06bd
00000230: ac39 5a3d 696c c93b f755 07be e7ed e5bd
00000240: 1b5b 92bc f606 443c ae35 0e3d 2776 373d
00000250: 060b 043d fe32 71bd 6f5a f73b 80b4 28bd
00000260: 1a26 adbd c1a1 c2bb 67ac adbb 7df2 90bb
00000270: 6067 b93c a5f5 96bc 16c8 1c3a a7d5 94bb
00000280: 00dc cc3c 2f82 01bc d2d7 df3c 36f3 b63d
00000290: 03ee 02be 7944 973d 3a45 10bd f727 1a3c
000002a0: 00bc febd 917c 9fbc 71b2 e13e 12ea 993d
000002b0: 1e7c 8fbd 820b d03c 35dd 143e 32b5 6cbd
000002c0: 3e61 e43c 0d00 dcbd 9b5c e63c 77c1 c63c
000002d0: 301d bdbd a0c9 7b3d 1c86 8a3d a502 813c
000002e0: 61fb 15be e6b7 44bb b74d 7e3d 4256 d3bb
000002f0: 1a19 b2bd 5c9e a63e 0eef 53bd 4a5c 9dbd
00000300: 16b1 e6bb 116b 02be c65d 813e f2bb 8ebd
00000310: 9053 8d3c 77b6 a6bd 8994 9c3c 4a6b 0fbc
00000320: 7594 f43c bdfe 593c b7f5 83bc 837c 46bc
00000330: 84e1 76bd 039e 343d 7305 7b3c 80df 89bc
00000340: c0d9 a6bd 474e cbbb bdc6 2f3e 2178 68bc
00000350: 1688 ea3a e463 a53c 9a7a 10bc 93ca 103d
00000360: 5123 76bd a06d 85bc df10 1cbd 90bf a63c
00000370: 0a17 a1bd 7bea a53b 5c5f 053d 4139 19bc
00000380: 406e debd b0a4 94bb d683 5ebd 1108 5a3c
00000390: 00a8 bdbd 6cb8 4cbc 05fd 3e3e 64c0 81bd
000003a0: b3e1 9abd 9efd a63b f6d8 003d a867 08bd
000003b0: 640e 3ebd dba9 95bd 4487 593c f0c8 993d
000003c0: 5136 d9bd 8a1f 6cbd b8ce 07bc ac3c d83c
000003d0: f26d b03c b089 6fbd b262 de3d 3723 8cbd
000003e0: a96f 05bd 5159 163b fbc1 90bd f293 00bd
000003f0: 2e79 18be b247 c83c 3668 e2bd e5cb 5d3d

fc3.bias f4 [2]
0.12610438 -0.08015556
00000000: 8221 013e 9928 a4bd
