Project 3-Open set recognition/Project/Weights/1_weights.pth (torch, 387487 bytes, 10 tensors)

conv1.weight f4 [64, 1, 7, 7]
000000 fc c8 ca 3e 35 b8 8b 3e 58 a3 b4 3e 1a 3e 5c 3e
       0.39606464 0.27288976 0.3528087 0.21508065
000010 73 0a 5e 3d f9 77 28 be 91 18 3c be 6a d0 96 3e
       0.054209184 -0.16452016 -0.18368746 0.29455882
000020 0c a4 29 3e 98 2c 8c 3e 06 66 a5 3d b6 31 8a 3e
       0.16566485 0.27377772 0.080761 0.2699105
000030 e8 f2 c0 3e 29 d1 80 3c ad f9 97 3e 7f c2 be 39
       0.37685323 0.015724735 0.29682675 0.00036384535
000040 3a e5 2f be ec 52 01 be 71 4c fe 3d 59 8e 87 3e
       -0.17177287 -0.12629288 0.12416924 0.2647579
000050 cf 9e 03 3f 7f 8c 8c 3e 97 43 d2 bd 5f bd 3e be
       0.514142 0.2745094 -0.10266798 -0.18626927
000060 da 59 81 be 7f ff 75 be b7 da ac 3e 67 f4 6c 3e
       -0.25263864 -0.24023245 0.33760616 0.23140107
000070 ed 1e 81 3e fe 00 1f be 99 33 63 be 09 c2 a2 be
       0.25218907 -0.15527722 -0.22187652 -0.31788662
000080 c1 b9 f6 bd 6c dd 02 3e 28 f5 3b 3e 71 77 7c 3e
       -0.120471485 0.12779778 0.18355238 0.24654938
000090 b8 9c 95 3d 0a 4d b9 bd 39 1a 32 be fc 20 99 bc
       0.07305282 -0.09047897 -0.17392816 -0.018692486
0000a0 5f 71 2e 3d 80 1f 9c 3c cc 0f 52 3e c2 ff 84 3e
       0.042588588 0.01905799 0.20513839 0.25976378
0000b0 db d5 a1 3e dd 65 ce 3e 55 24 4b 3e b1 c5 1e 3d
       0.3160847 0.4031209 0.19838078 0.038762752
0000c0 a7 47 c7 3c 8e e8 a0 3e ab 6f c4 3d bb 98 91 bc
       0.024326159 0.31427425 0.095916115 -0.017773023
0000d0 1d 5e 16 3e a0 9f bd 3e 29 40 1b 3e 82 7c 22 3e
       0.14684339 0.37035847 0.15161194 0.15867808
0000e0 bd 23 15 3e 46 41 17 3e bd 3d 8c 3d d0 25 76 bd
       0.14564414 0.14770994 0.06847713 -0.060094655
0000f0 a4 93 a3 3e 23 6d 56 3b ae a1 2d 3d c9 8e 86 3a
       0.31948578 0.003271886 0.042390518 0.0010265942
000100 5f 8e ae bd 36 f5 98 3d 48 ec 3b 3e 6d f0 f7 3d
       -0.08523249 0.07468645 0.18351853 0.121064045
000110 5f 69 7d 3e 38 15 4c bd 24 0c d4 3c 93 b6 d2 3d
       0.24747227 -0.049824923 0.025884695 0.102887295
000120 0e de ea 3c a4 bd 3e 3e d1 8c a3 3e 5c df 8b 3e
       0.028670337 0.1862703 0.31943372 0.27318847
000130 36 85 34 be 60 9a 96 3e 49 f9 e8 3d ca b1 0e 3d
       -0.17628941 0.29414654 0.11375672 0.03483752
000140 36 5f 83 3e fd a4 ac 3e 9f 5e ae 3d 88 f6 21 3e
       0.25658578 0.33719626 0.08514141 0.158167
000150 c4 ed 83 3e cd 27 08 3d de fa 2d 3e c2 ed c7 3c
       0.25767338 0.033241082 0.1699023 0.024405364
000160 e5 39 5d 3e 79 64 25 3e 1b 0f 8e 3e 5d 90 3a 3e
       0.21604116 0.16151609 0.277459 0.18219133
000170 28 0d f0 3d 7e d1 de 3c 06 c6 3b 3e b0 96 31 3e
       0.11721259 0.027199503 0.18337259 0.17342639
000180 30 e4 cb 3e f2 bd 0b 3f c9 11 f9 3d 99 a1 b4 3d
       0.3982253 0.5458671 0.121615954 0.08819885
000190 da b2 7d bd 4e 0a e9 3a 39 52 12 3e 1c 36 08 3d
       -0.061938144 0.001777956 0.14289178 0.033254728
0001a0 be c0 17 3e 5f 99 09 bc 3d 8c 30 bd 19 1a 73 3d
       0.14819619 -0.008398383 -0.04310249 0.05935106
0001b0 2e 57 15 be 04 a7 6d bd 35 a3 ef bc e4 51 fe 3d
       -0.14584038 -0.058020607 -0.029252628 0.12417963
0001c0 da a0 df 3d 6f c1 56 3d d8 c0 c2 3c 91 9b 08 3d
       0.10919352 0.052430566 0.023773596 0.033351485
0001d0 bc 88 11 3e 5e 07 f1 bd 00 f5 8e bd 98 c3 72 3e
       0.14212316 -0.11768983 -0.06980324 0.23707426
0001e0 c1 16 41 3e e8 ef c6 3c 3d f5 6c bd e2 80 b2 3d
       0.18856336 0.024284318 -0.057851065 0.08715989
0001f0 c1 8c 77 bc 67 b7 1a 3e 40 16 12 3e 39 d4 79 3e
       -0.015109242 0.15109025 0.142663 0.24397363
000200 9b 31 e0 3d b3 30 5d 3e 94 52 24 3d 3c 87 a3 3b
       0.109469615 0.21600609 0.040117815 0.0049904864
000210 4b 4a e9 3d 87 b4 4c 3e 42 bb a6 3c 68 cf e2 3d
       0.113911234 0.1999074 0.020352963 0.11074716
000220 bf 4a a0 bd 1a ba 1f 3d 97 98 1d 3d 73 c5 93 3d
       -0.07826757 0.03899584 0.0384756 0.07215395
000230 87 de 71 3d 28 85 1d 3d 8b a8 19 bd 98 46 eb 3d
       0.05905011 0.038457066 -0.03751425 0.11488074
000240 fd 58 09 3e 70 8c 3d 3d 6f 1b a8 3d 04 ba f3 3d
       0.13412853 0.04627651 0.082083575 0.11900714
000250 3a 6e 3d 3d 24 e1 0d 3e 46 d5 9b 3d 29 e8 42 bc
       0.0462477 0.13855416 0.07609038 -0.011896172
000260 ed 5c b6 bc c3 1f 1d be 05 76 e3 3d 64 0f 5b bd
       -0.022261107 -0.15344147 0.11106495 -0.053481475
000270 1d f9 43 3e dc 17 24 3e 54 e1 3b 3e f8 4c 16 3e
       0.19137998 0.16024727 0.18347675 0.14677799
000280 79 77 33 3e ff 04 90 bd e3 50 fc 3b 29 b5 0d 3d
       0.17526044 -0.07032203 0.007700072 0.034596596
000290 e2 f2 f4 bd cc 84 a1 bd f4 ef 9c 3d ee 0f 61 3e
       -0.11960389 -0.07886657 0.07662955 0.21978733
0002a0 a7 37 2f 3d 31 9e 44 3e 97 b3 ef bd 47 c1 dd bd
       0.042777684 0.1920097 -0.11704176 -0.1082788
0002b0 45 ca d9 bd 30 de 4b 3d 60 45 9f 3e b7 b9 a4 3d
       -0.10634283 0.04977244 0.31107616 0.08043235
0002c0 69 b5 6e 3e 37 c7 e5 bc 09 47 bd bd 74 1b 5f bd
       0.2331139 -0.028049095 -0.092420645 -0.05446954
0002d0 ff f5 f7 3c 0b aa 71 3d 7e 27 0e be 59 1a 30 3e
       0.030268667 0.059000056 -0.13882253 0.17197551
0002e0 16 fe 5b 3e e5 32 5c bd 1a 62 ee 3d 77 c8 73 3d
       0.21483645 -0.053759474 0.11639805 0.05951735
0002f0 b2 44 22 bd 05 41 ac bd e9 5d 72 3e ad 37 46 3d
       -0.039616294 -0.08410839 0.23668636 0.04839294
000300 2f e5 bc 3c 4e c7 0e 3e 98 25 7a 3e 5e 3d 07 be
       0.023058502 0.13943216 0.24428403 -0.13207003
000310 ff 8e 21 3e dc 2e 0f 3e d5 c7 63 bc b7 4b a1 3d
       0.15777205 0.13982719 -0.013902624 0.078757696
000320 a0 45 8d 3d b9 be e6 3c fc 24 f8 bd 20 93 eb bc
       0.068980455 0.028167116 -0.12116429 -0.028756678
000330 e6 2d 54 bd 8a 5d c2 bd 65 c7 be bd 31 62 28 be
       -0.051801585 -0.094904974 -0.09315375 -0.16443707
000340 04 13 e6 bd ce 18 f3 bd 5b a8 59 bd f0 bf 1a 3d
       -0.11234096 -0.118699655 -0.053139072 0.037780702
000350 63 48 82 bd ba 6b a6 3d ba f3 aa bd 0d 8d f9 3c
       -0.06361463 0.08126016 -0.083472684 0.030462766
000360 cb 8f 6c bd d7 5e 1e 3e 7d ec 1d 3e c6 84 13 3e
       -0.05775432 0.15465866 0.15422244 0.14406118
000370 9b dc 67 3e 77 10 42 3e ef 48 6f 3e d0 7e 89 3e
       0.22642748 0.18951593 0.23367666 0.26854563
000380 5d 17 1e 3d 34 50 73 3e 34 53 2c 3e 44 b9 48 3e
       0.0385965 0.23761064 0.16828614 0.19601923
000390 5d 01 8c 3e f2 06 69 3e d8 b0 8b 3e c9 3f 3a 3e
       0.2734479 0.22756556 0.2728336 0.18188395
0003a0 75 96 17 3e 82 62 28 3e a8 8c 24 3a c4 48 31 3d
       0.14803489 0.16443828 0.0006277063 0.043282285
0003b0 97 5f 6e 3d e2 35 60 3e 58 eb 08 be 71 ff c8 bd
       0.05819663 0.21895555 -0.13371027 -0.098143466
0003c0 06 3d d4 bd ad c6 1c be 5a 6a ed bc a0 56 e0 bd
       -0.10363202 -0.15310164 -0.028981376 -0.109540224
0003d0 a0 55 e0 bd bf c1 29 3d b9 53 54 bc 75 66 21 3e
       -0.10953832 0.041444536 -0.012959414 0.1576174
0003e0 0c a5 9c 3d ff 8d 9a bd eb 87 35 3d ac 99 8e 3e
       0.07648668 -0.07546615 0.044319075 0.27851617
0003f0 19 7f f2 3d f1 c1 b7 3d 2e a2 3e bd 78 e9 af bb
       0.11840648 0.08972538 -0.046541385 -0.005368408

conv1.bias f4 [64]
000000 32 b8 9b bd 2c e8 7e be b4 dc 98 be 0f 88 25 be
       -0.07603492 -0.24893254 -0.29855883 -0.16165183
000010 c6 73 21 be d5 63 21 be c1 74 95 be c3 ee 25 be
       -0.1576682 -0.15760739 -0.2919064 -0.16204362
000020 41 96 a9 be 16 c4 88 be 37 80 9a be d5 de 7d be
       -0.33122447 -0.26712102 -0.30175945 -0.24792035
000030 94 48 a6 bd 43 34 0e be 29 0a d7 bc 5e 4c 8e bd
       -0.08119312 -0.13887124 -0.026249962 -0.0694816
000040 26 dd c5 be 5c 1a bd bd 10 b4 4e be e7 27 8a be
       -0.38645285 -0.09233543 -0.20185876 -0.26983568
000050 7f f8 28 bd b2 3a 8e be 67 ec 82 be d1 81 d2 be
       -0.04125261 -0.27779156 -0.25570986 -0.41114667
000060 6b b8 f4 3d cb 9a b6 be c4 7d 3c be 33 af e2 be
       0.119492374 -0.35664973 -0.18407351 -0.4427429
000070 18 c0 99 be d1 85 9e be 4e 89 5d 3d 43 68 5b be
       -0.30029368 -0.3096147 0.054086022 -0.21426491
000080 b3 9b d2 bd 0c 7c 3b 3e 0e e7 98 bd 7d f6 39 be
       -0.102836035 0.18309039 -0.07465945 -0.18160434
000090 66 32 91 be 76 77 a2 be ac ea 3e be 8f 5e b6 bd
       -0.28358763 -0.31731766 -0.18644208 -0.08904754
0000a0 81 f6 c8 bd dd bc 64 be f8 3c 49 be 3e 63 e7 be
       -0.09812642 -0.2233767 -0.19652164 -0.45192903
0000b0 1e 07 15 be d4 99 97 be 2a 90 29 be df c5 67 be
       -0.14553496 -0.2960955 -0.165589 -0.22634076
0000c0 d3 c8 54 be 11 55 78 be 61 af b8 be 9a da 0a bb
       -0.20779733 -0.242512 -0.36071303 -0.0021187426
0000d0 ab 11 1d be 20 1f b4 be ac 5c de be 79 59 a0 be
       -0.15338771 -0.35179996 -0.43430078 -0.31318262
0000e0 03 a4 0a be 8a a5 d1 be 89 e8 c6 be c2 d7 62 be
       -0.13539128 -0.4094661 -0.38849285 -0.22152618
0000f0 ca 4b a0 be 77 1f 2e be 43 72 d8 bd f6 38 95 be
       -0.31307822 -0.1700419 -0.10568669 -0.2914502

conv2.weight f4 [32, 64, 5, 5]
000000 a6 93 26 bd 37 c5 3f bd e0 31 95 bd d7 0e a0 bd
       -0.040668152 -0.046818938 -0.072849035 -0.078153305
000010 68 36 57 bd a7 70 9f bd b1 db 50 bd 2a a0 89 bd
       -0.05254212 -0.077851586 -0.050990764 -0.06720002
000020 b5 0e 86 bd ee 10 85 bd 61 52 a7 bd ad 9d 81 bd
       -0.06545774 -0.0649737 -0.081700094 -0.063289024
000030 3c 94 4e bd 41 51 6a bd f5 9f 4c bd 78 ff 15 bd
       -0.050434336 -0.057206396 -0.049957234 -0.036620587
000040 30 7d 60 bd 5e 16 8b bd 69 a4 73 bd e2 6d 9c bd
       -0.054806888 -0.067913756 -0.059482966 -0.07638146
000050 a7 99 94 bd 0d bf a3 bd 95 01 a6 bd fc 28 95 bd
       -0.07255869 -0.079954244 -0.081057705 -0.07283208
000060 80 e9 17 bd 29 38 76 bd 71 76 67 bd 64 b1 17 bd
       -0.037087917 -0.060112152 -0.05650944 -0.037034407
000070 38 fb 98 bd 37 31 3f bd b8 1f 97 bd d2 6c 64 bd
       -0.07469791 -0.046677794 -0.07379097 -0.05576784
000080 e6 cd 93 bd 33 29 78 bd 7d d5 5b bd bc 45 5a bd
       -0.072170064 -0.060586166 -0.053670395 -0.05328916
000090 19 39 aa bd 88 b2 99 bd c6 83 7c bd fb 4e a8 bd
       -0.08311672 -0.07504755 -0.061649106 -0.08218189
0000a0 f5 a8 2d bd 46 61 15 bd 71 d2 aa bd 46 c0 8c bd
       -0.042397458 -0.03646972 -0.0834092 -0.06872611
0000b0 07 df 4d bd c0 8a ad bd 9e a3 ab bd de e3 84 bd
       -0.050261524 -0.0847373 -0.08380817 -0.06488775
0000c0 c0 e2 7e bd bd f1 6b bd 66 4e 89 bd 37 9a 66 bd
       -0.062227964 -0.057603586 -0.067044064 -0.056299414
0000d0 19 ab 95 bd 57 83 9c bd 71 b2 90 bd bd 7a 8b bd
       -0.07308025 -0.076422386 -0.07065285 -0.0681052
0000e0 5a 30 25 bd a0 72 9c bd 32 1b 10 bd cf 6f 52 bd
       -0.040329315 -0.076390505 -0.035182185 -0.05137616
0000f0 6f f8 85 bd b7 3d 23 bd 4f f5 80 bd 32 6a 3d bd
       -0.065415256 -0.039853778 -0.06296789 -0.046243854
000100 22 46 90 bd 24 69 23 bd 45 de 94 bd 2f d2 98 bd
       -0.07044627 -0.03989519 -0.07268957 -0.07461964
000110 57 8f 75 bd 44 8c 76 bd 70 15 a6 bd 50 2d 95 bd
       -0.059951153 -0.06019236 -0.08109558 -0.07284033
000120 0a c3 32 bd 35 18 6b bd 80 4d a0 bd e9 d7 8b bd
       -0.043643035 -0.057396132 -0.07827282 -0.06828291
000130 4f 83 83 bd 9d 48 14 bd e3 5b 89 bd 8b 06 3b bd
       -0.064215295 -0.036202062 -0.06706979 -0.045660537
000140 3f 03 a0 bd 46 7e 88 bd 15 7c 55 bd ce 85 1a bd
       -0.07813119 -0.0666471 -0.052120287 -0.037725262
000150 54 5d a2 bd a9 45 55 bd 83 9d 26 bd dc f1 9a bd
       -0.07927957 -0.052068386 -0.04067756 -0.07565662
000160 40 9d a3 bd de 9c 83 bd 8a 69 94 bd c7 5c aa bd
       -0.079889774 -0.064264044 -0.072466925 -0.08318477
000170 b0 0e 8e bd 0f 1a 71 bd 4f da 9a bd 3b 71 42 bd
       -0.06936395 -0.058862742 -0.0756117 -0.047471266
000180 bf aa 1b bd f7 34 75 bd a5 d0 38 bd 83 06 16 bd
       -0.038004633 -0.059864964 -0.045120854 -0.036627304
000190 8f 58 5d bd c8 be 43 bd 43 c5 50 bd 25 54 7d bd
       -0.054039534 -0.047789365 -0.050969373 -0.061847825
0001a0 7d 3e 9b bd 9e 27 80 bd f3 e5 1b bd d5 cc 6b bd
       -0.07580278 -0.062575564 -0.038061094 -0.05756839
0001b0 1d f0 1f bd c8 3e 8a bd ce 1b 81 bd 13 a4 a9 bd
       -0.03904735 -0.06750256 -0.063041314 -0.08283248
0001c0 84 13 99 bd f7 64 8f bd d2 f8 7f bd f5 84 9b bd
       -0.074744254 -0.070016794 -0.062493153 -0.07593719
0001d0 a2 0c 36 bd e2 ed 99 bd 9e 64 8f bd 5f 35 84 bd
       -0.04444564 -0.07516076 -0.07001613 -0.06455492
0001e0 52 b8 6a bd 39 c7 27 bd fe 54 90 bd 3d f5 5e bd
       -0.057304688 -0.040961478 -0.07047461 -0.054433096
0001f0 e7 4b 29 bd 1b 79 86 bd b5 e2 81 bd 53 66 1a bd
       -0.04133215 -0.06566068 -0.06342069 -0.03769524
000200 5b 87 32 bd 33 21 2b bd af 00 61 bd 49 a5 66 bd
       -0.043586116 -0.041779708 -0.054932293 -0.056309972
000210 2d 5b a0 bd 0c 50 ac bd 41 10 6f bd da 9e 1b bd
       -0.078298904 -0.08413705 -0.05836511 -0.03799329
000220 ff e9 83 bd 5d 48 a6 bd 39 a7 92 bd 57 64 99 bd
       -0.064411156 -0.08119271 -0.071608014 -0.074898414
000230 f6 6f 52 bd 4f 4d 65 bd cd 9e aa bd 03 68 ac bd
       -0.051376306 -0.05598193 -0.0833107 -0.08418276
000240 15 66 ac bd 9a 3c 75 bd a5 9e 81 bd ab 1e 95 bd
       -0.08417908 -0.059872247 -0.06329087 -0.0728124
000250 6e 5c 24 bd 20 b6 6f bd 29 ec 9c bd 21 ee 33 bd
       -0.04012721 -0.058523297 -0.076622315 -0.04392827
000260 2f 9a 8a bd ab 32 65 bd 12 4a 69 bd 31 b2 66 bd
       -0.067676894 -0.055956524 -0.056955405 -0.05632228
000270 bb 90 7c bd 6f dc 66 bd f6 59 34 bd 7f 7a a9 bd
       -0.061661463 -0.056362566 -0.044031106 -0.082753174
000280 3f 27 89 bd f6 ed 53 bd d9 4d 1b bd 10 53 48 bd
       -0.06696939 -0.05174061 -0.03791604 -0.04890734
000290 2b 77 a9 bd ab a8 55 bd 17 20 86 bd 6c 75 a9 bd
       -0.082746826 -0.052162807 -0.065490894 -0.082743496
0002a0 3e f1 66 bd 91 27 a4 bd c3 35 85 bd 45 08 71 bd
       -0.05638241 -0.08015359 -0.06504395 -0.058845777
0002b0 72 d3 a2 bd 18 66 92 bd e2 8e 8d bd 34 be 93 bd
       -0.07950486 -0.07148379 -0.06912018 -0.07214013
0002c0 0f 70 6c bd c2 2f 3b bd 4c 77 93 bd 7b 57 8d bd
       -0.057724055 -0.045699842 -0.072004884 -0.06901451
0002d0 62 8b 7c bd 46 94 a8 bd c7 fb ac bd 88 c8 8d bd
       -0.061656363 -0.08231406 -0.0844646 -0.06923014
0002e0 d7 2c 5d bd 30 54 10 bd 82 2e 83 bd f7 e5 80 bd
       -0.05399784 -0.035236537 -0.06405355 -0.06293862
0002f0 03 c4 1e bd 2d cf 19 bd 49 8b a7 bd 04 a0 9b bd
       -0.03876115 -0.037551094 -0.081808634 -0.0759888
000300 db 1e 91 bd 57 58 72 bd 1a d5 2a bd 57 0d 68 bd
       -0.07085963 -0.05916628 -0.041707136 -0.056653347
000310 4e 54 ac bd 50 78 ac bd 85 3e 28 bd 6e 0f a4 bd
       -0.08414517 -0.08421385 -0.04107525 -0.080107555
000320 c5 97 59 bd 08 15 69 bd 70 71 80 bd 72 06 42 bd
       -0.053123254 -0.056904823 -0.062716365 -0.047369428
000330 c4 14 38 bd b4 b9 a8 bd aa c3 15 bd 1d b1 8a bd
       -0.04494168 -0.08238545 -0.036563553 -0.06772063
000340 b7 4b 72 bd df 8a 47 bd 41 e5 ac bd d5 84 a6 bd
       -0.05915424 -0.048716422 -0.08442164 -0.081308044
000350 30 01 92 bd f1 5e 36 bd ee c5 17 bd ad 81 ab bd
       -0.07129133 -0.044524137 -0.037053995 -0.08374343
000360 e6 0a 8f bd 1a 17 98 bd 6a ca a7 bd 0b 81 91 bd
       -0.069845006 -0.07426281 -0.08192904 -0.07104691
000370 66 18 15 bd 28 c2 65 bd 2f c4 41 bd 97 38 62 bd
       -0.03640022 -0.056093365 -0.047306236 -0.05522975
000380 bd ce 7b bd 3d e1 33 bd 3a 5d 9d bd 3e 8e 92 bd
       -0.061476458 -0.043915976 -0.07683797 -0.07156037
000390 f2 75 13 bd 9a d8 50 bd 49 e1 8a bd 87 45 47 bd
       -0.036001153 -0.050987817 -0.06781251 -0.04865029
0003a0 48 77 7e bd 54 06 3c bd bd 93 5a bd 6c 5a 2b bd
       -0.062125474 -0.045904472 -0.05336355 -0.04183428
0003b0 0f e2 a6 bd 94 ea 3a bd f9 d8 90 bd b0 3a 95 bd
       -0.08148586 -0.045633867 -0.07072634 -0.072865844
0003c0 a6 e9 71 bd 9b c8 a1 bd 27 0b 73 bd b1 c0 85 bd
       -0.059060715 -0.078995906 -0.059336808 -0.065308936
0003d0 91 91 96 bd 8d 75 8a bd dc e6 82 bd 7f a6 a5 bd
       -0.07351983 -0.06760702 -0.06391689 -0.08088397
0003e0 1a 14 92 bd 5f f7 50 bd 2b 93 1c bd 04 ac 33 bd
       -0.0713274 -0.05101716 -0.038226288 -0.04386522
0003f0 ed 9f a2 bd cc 9e 4c bd a4 56 95 bd 80 bf 24 bd
       -0.0794066 -0.049956128 -0.07291916 -0.04022169

conv2.bias f4 [32]
000000 cb 18 46 bd 01 3f 41 bd 25 12 2f bd c7 4a 98 bd
       -0.04836349 -0.047179226 -0.042741913 -0.07436138
000010 1b 87 5f bd 0a 64 8b bd 83 84 9b bd 3e 94 b9 bc
       -0.054572206 -0.0680619 -0.07593634 -0.022653695
000020 af 2e 3c bd 77 30 aa bd 10 30 66 bd 39 13 87 bd
       -0.04594296 -0.08310025 -0.05619818 -0.06595463
000030 b4 ee 33 bd fc cc 46 bd cb 5d 8d bd 20 6c 33 bd
       -0.043928817 -0.048535332 -0.06902655 -0.043804288
000040 e7 c9 9a bc b4 e6 08 bd 1f d6 d9 bd e5 e6 cf bd
       -0.018895103 -0.03342314 -0.106365435 -0.101514615
000050 be 22 2f bd 44 e7 57 bd 45 51 35 bd 1f 12 67 bd
       -0.042757742 -0.052710786 -0.044266958 -0.056413766
000060 4a 4a 28 bd 3d f3 ac bd e2 05 6d bd 31 2a 3e bd
       -0.041086473 -0.084448315 -0.05786694 -0.046426956
000070 8f 48 8f bd 12 e9 2b bd 26 a2 21 bc 56 14 53 bd
       -0.06996261 -0.04197032 -0.009865319 -0.051533066

fc1.weight f4 [256, 32]
000000 81 f0 b7 3d fd 3a b2 bd 6b 3f 3b bc f1 93 07 3e
       0.08981419 -0.08702657 -0.011428694 0.13240029
000010 02 25 d3 bb e8 d1 de 3c e7 cf 91 bc 8f 5e 3c 3d
       -0.0064436207 0.0271997 -0.01779933 0.045988616
000020 43 bc 08 bd 76 b8 31 3e 48 f6 2a bc 69 b2 b1 bd
       -0.033382665 0.17355523 -0.010434695 -0.08676607
000030 d0 93 e0 bd 8c ba 06 be 02 e6 99 3d 1f 74 03 3e
       -0.10965693 -0.131571 0.07514574 0.12837265
000040 ee 4d 85 bd 19 bc 0d be 16 20 fc 3d a5 b3 00 be
       -0.065090045 -0.13841285 0.123108074 -0.12568529
000050 e7 d4 20 ba fa fe 03 be 54 0e b0 3d 78 e8 6f 3d
       -0.00061352405 -0.12890235 0.08596483 0.05857131
000060 7b ba a1 3d cf e2 cd 3c cc 10 eb bd 95 33 ee bd
       0.078968965 0.025132565 -0.11477813 -0.11630932
000070 55 75 10 bb 54 25 54 3d a1 aa 37 3e d9 d0 ae 3d
       -0.0022042592 0.05179341 0.17936184 0.08535928
000080 04 14 24 be 82 e2 2a bd 77 e4 1c be c1 f0 cd 3d
       -0.1602326 -0.04171992 -0.15321527 0.10055686
000090 da ee 17 3d d1 f6 dc bc a5 c0 13 3e 86 89 24 be
       0.03709302 -0.02697316 0.14428957 -0.16068086
0000a0 cf 72 5a 3d e8 36 b6 bd 2a 18 b5 bd 95 a9 07 be
       0.053332146 -0.08897191 -0.088424996 -0.13248284
0000b0 a2 85 ac 3d 30 1f 1c be e9 f3 a8 bd 50 f5 1b 3e
       0.08423926 -0.15246272 -0.08249647 0.15230298
0000c0 38 0f 8a be 75 b1 22 3e 2d 92 da bd 89 4c c3 bd
       -0.26964736 0.15888007 -0.10672412 -0.09536082
0000d0 d9 15 b0 bd 1a a2 ab 3d 7c 5b 82 be 81 92 27 3e
       -0.08597917 0.08380528 -0.25460422 0.1636448
0000e0 a9 eb 94 bc 5f 79 84 bc 9b 99 a7 bd ab 4a c1 bc
       -0.018178778 -0.016171155 -0.08183595 -0.023595175
0000f0 cb 55 df bd 2f 99 ff 3d 59 c2 10 be 7c 47 a6 3d
       -0.109050356 0.12480389 -0.14136638 0.08119103
000100 bf 31 ca 3d 10 ff a7 bc c6 a7 b5 bd 0e 34 f5 bd
       0.098727696 -0.020507365 -0.08869891 -0.11972819
000110 28 41 ee bd ad cb 8c 3d 02 eb 9a bd 91 3f 35 bd
       -0.11633521 0.068747856 -0.075643554 -0.044250075
000120 a4 0b 87 bd 12 ed 4b 3e 0d 4a 77 bd 8b be ec 3d
       -0.06594017 0.19914654 -0.060373355 0.11559781
000130 6f d2 a0 3d 14 26 f5 3c c9 87 8c 3d 08 b9 d8 3d
       0.07852637 0.029925384 0.068618365 0.10582167
000140 27 45 02 be fb 18 a6 3d 70 b1 59 3d 7e 6e 9e 3d
       -0.12721692 0.081102334 0.053147733 0.077359185
000150 a8 f6 4d 3e cc 80 b4 3d 83 f4 28 bd 79 fb 3c 3d
       0.20113623 0.088136286 -0.04124881 0.04613826
000160 05 93 13 3a 2a b0 91 3d a2 ae 0d be 0c 32 b0 bc
       0.00056295126 0.07113679 -0.13836148 -0.02150824
000170 20 57 3d bd 8e 97 a5 3b 11 4d 16 3e 3b 4a b0 3d
       -0.046225667 0.005053467 0.14677836 0.08607908
000180 92 37 45 be 7a 43 54 be f6 b8 ac 3d 12 c8 86 bd
       -0.1925948 -0.20728865 0.08433716 -0.06581129
000190 04 ed 75 3d 26 86 c7 3d 83 bd 3d be f6 1f 8b 3d
       0.06004049 0.09742384 -0.18529324 0.067932054
0001a0 b5 d5 5d 3d 10 2a 2c be 3d 54 f7 bd e1 5e c4 bd
       0.054158885 -0.1681292 -0.12076614 -0.09588409
0001b0 08 d8 af 3d e6 f6 58 bd 16 8a ed bc 2b 69 53 bd
       0.085861266 -0.052969836 -0.028996509 -0.051613968
0001c0 e6 4d 1b 3e e4 23 56 3d 44 35 0b bd f1 48 1c bc
       0.15166435 0.05228032 -0.033986345 -0.009538875
0001d0 ed ca b8 3d 88 ae 04 3d 4f e3 40 3e c8 28 c9 3d
       0.0902308 0.03239301 0.18836711 0.098222315
0001e0 0b 76 4e be 72 07 f7 bd fc d1 1f be 95 97 12 3e
       -0.20162217 -0.12061967 -0.15607446 0.14315636
0001f0 6a bb 2e bb 68 30 46 3d 22 04 c0 3a 83 90 fa bc
       -0.0026662 0.048386008 0.0014649669 -0.030586487
000200 4d 75 05 3e 19 7c 32 3e 57 4b 00 3e 2c dd 30 bd
       0.13033028 0.17430152 0.1252874 -0.043179676
000210 c7 00 1f 3d 13 5b ed 3d 20 f4 9e 3d 86 0c 0d 3e
       0.0388191 0.11589637 0.07761407 0.13774309
000220 9a 04 ab bd 16 79 56 3e 79 11 c4 3d be 5b df 3c
       -0.08350487 0.20944628 0.09573645 0.027265426
000230 0a 2a a9 3d 59 b3 e7 3d d7 70 10 bd cc 86 ef 3d
       0.082599714 0.11313505 -0.035263862 0.11695632
000240 48 b3 fa bd 52 03 9e bc 09 e8 4a 3d 60 ab 6d 3d
       -0.122412264 -0.019288693 0.049537692 0.058024764
000250 e0 ed e0 bd c3 0a 49 3e 71 90 43 be 9d 16 2b 3d
       -0.10982871 0.19633012 -0.19098069 0.041769613
000260 6e e8 c8 3d c8 34 c0 bd c8 3b 32 3d 73 3b 6b 3e
       0.098099574 -0.09385067 0.043514043 0.22971897
000270 44 33 a2 3d 70 7b 70 3d 83 e4 cb bd 82 e0 2a bd
       0.079199344 0.05871147 -0.099556945 -0.041718014
000280 e3 f0 49 bd f2 3d fb 3c 48 7f 56 3d 7f f0 f5 bd
       -0.049301993 0.030669186 0.05236748 -0.120087616
000290 32 e4 a2 bd 7e fd 00 be 35 6b 69 3d 2c 65 da 3c
       -0.07953681 -0.125967 0.056987006 0.02665957
0002a0 74 07 1a be 2a 02 ea bd 2b 05 05 3e 0d 91 f7 3c
       -0.15041906 -0.11426194 0.12990253 0.030220533
0002b0 fc 3a 26 be c4 b4 fa bd 8d 5a 0b bc db 49 51 3d
       -0.16233438 -0.122415096 -0.008505476 0.051095825
0002c0 be 8c 3d be 3d a7 28 bd 1e 79 8d be 25 89 bc bd
       -0.1851072 -0.041175116 -0.27631468 -0.09205846
0002d0 54 78 16 bd 11 f8 ed 3d 90 1a 1e bd 1a 5c b5 bc
       -0.036735848 0.116195805 -0.03859955 -0.022138644
0002e0 64 08 36 bd 9d e8 db bd 36 0c fd bd ef e9 be 3b
       -0.044441596 -0.10737727 -0.12355845 0.005826227
0002f0 33 1a dc 3c f3 24 a8 3d 89 bb 91 be 3a 0a 4b be
       0.026867962 0.082101725 -0.2846339 -0.1982812
000300 84 72 eb bb f6 eb 83 3d 4f 59 d7 bd 72 82 da bd
       -0.007185282 0.0644149 -0.10515081 -0.10669412
000310 a4 21 ea bd 6d ac 21 3d 03 73 9c bd 3d 12 15 be
       -0.11432198 0.03947108 -0.07639124 -0.14557739
000320 67 ec 88 bd d4 82 70 3d bc 0f 24 be fc f2 57 be
       -0.06685715 0.058718517 -0.16021627 -0.21088785
000330 4d be f4 bd b8 f9 1e be ef 97 a3 bc b2 ee 5b bc
       -0.119503595 -0.15524948 -0.019969909 -0.013423609
000340 f3 d4 ed be 64 5d 79 bd 4b 85 3b bf ce f0 59 3e
       -0.4645153 -0.06088008 -0.73250264 0.21283266
000350 6c 93 68 be 6b 1e 98 bd 3e b5 14 bf ec cc 04 be
       -0.22712487 -0.07427677 -0.58089054 -0.12968796
000360 77 04 bd 3c ec 46 a4 3d f7 22 f3 3c 29 87 55 be
       0.023073418 0.0802134 0.029679758 -0.20852341
000370 f7 8e ea 3c 92 38 27 be 3e 05 df be 9a c5 d6 3d
       0.028632624 -0.16330174 -0.43558687 0.10486908
000380 fc 4f d4 3d dc 22 61 ba 44 2f 15 be 1b ff 31 be
       0.10366818 -0.00085882633 -0.14568812 -0.17382471
000390 cd 6d 02 be ff 50 85 bc fe 51 34 be 6e a1 93 bd
       -0.12737198 -0.016273974 -0.17609403 -0.07208525
0003a0 b0 e7 3f 3d 98 2c 17 3d 1d 57 13 3e ef b8 dc bd
       0.046851814 0.036907762 0.143887 -0.10777461
0003b0 b9 d9 5b bc 64 9d ed 3d e2 53 1d be 2a 24 01 be
       -0.013418608 0.116022855 -0.1536403 -0.12611452
0003c0 52 03 89 be a9 00 26 be 81 3a e1 bd c6 66 28 be
       -0.26760346 -0.1621119 -0.10997487 -0.16445455
0003d0 c1 7d c6 3b 9f df a0 3d 46 fc d6 bd 66 a4 2a be
       0.0060574715 0.07855152 -0.10497336 -0.16664276
0003e0 96 a0 16 3e 1b eb 80 3d 17 dd 89 3d 6f 88 e8 bd
       0.14709696 0.06294843 0.06731623 -0.11354148
0003f0 9d f8 87 bc d7 1b 5b bd 50 e7 49 be 75 e8 17 be
       -0.01659804 -0.053493347 -0.19717145 -0.14834769

fc1.bias f4 [256]
000000 74 85 8c 3d 0f c8 8a be a8 9e e2 3d 65 05 8f 3d
       0.06861392 -0.27105758 0.110654175 0.06983451
000010 88 3e 12 3e 09 c8 85 be dd ac 5a 3e e4 7e 1a be
       0.14281666 -0.26129177 0.21355005 -0.15087467
000020 d0 bd 83 3e 41 d5 74 3e 22 3f 0d bd 30 06 bb bd
       0.25730753 0.23909475 -0.034484036 -0.091320395
000030 91 3d 55 bd f8 0f 4c be a4 e5 7e bd ab e5 90 3e
       -0.052060667 -0.19927967 -0.06223072 0.28300223
000040 e9 b4 dd bd 98 2c 7c 3e 15 9c ea be e2 66 a3 3e
       -0.108255215 0.24626386 -0.45822206 0.3191443
000050 4b 1f dc bd 14 2c 2f be 84 ad 31 be 72 91 84 3e
       -0.10748156 -0.17106658 -0.17351347 0.25892216
000060 10 5d 83 bc 6e e5 81 3d c2 76 39 be 84 b6 f3 bd
       -0.016035587 0.06342588 -0.18111709 -0.119000465
000070 06 90 52 bd 16 26 00 bd ba 1e ee 3d 27 a4 b1 3d
       -0.051406883 -0.03128632 0.116269544 0.08673888
000080 37 3c 4e be 35 51 94 be f1 87 6e be 03 3a 10 be
       -0.20140158 -0.28968206 -0.23294045 -0.1408463
000090 7d 94 13 be d7 9f 26 bd 35 41 09 be 6a 7d 01 be
       -0.14412113 -0.04067978 -0.13403781 -0.12645498
0000a0 8e 67 47 3d 88 0a 87 3e 30 51 b7 3d ad 2c c7 3d
       0.04868274 0.26375222 0.08951032 0.09725318
0000b0 48 65 04 bd 96 a2 fd bd 8c 6d 3a 3e 0c a9 94 3e
       -0.03232315 -0.123845264 0.18205851 0.29035223
0000c0 7c 06 46 3e 3a d3 0b 3e 9f 3a 65 be 49 bc 06 be
       0.19338411 0.13654795 -0.22385643 -0.13157763
0000d0 cd 29 37 be 16 40 72 bd 84 9d 46 3e 4f 7f f4 3d
       -0.1788704 -0.05914315 0.19396025 0.11938345
0000e0 c7 57 a3 3d 93 db 64 be 67 bf ec bd 8e 8f 18 3e
       0.079757266 -0.22349386 -0.115599446 0.14898512
0000f0 8a 91 8a be 15 82 00 be 18 3a 82 3e 93 3b 39 3e
       -0.27064162 -0.12549622 0.25434947 0.18089132
000100 4c 9e b3 ba 10 65 60 be 2a a5 d5 bc c3 e0 5d be
       -0.0013703792 -0.21913552 -0.026079733 -0.21667771
000110 06 25 ad 3d b3 fd 54 bc c1 82 fe 3d bd 2e 78 3e
       0.08454327 -0.01299994 0.12427283 0.24236579
000120 3f 1b c9 3e 2c 40 03 3e c9 36 18 3e fe 98 5e 3e
       0.392786 0.12817448 0.14864649 0.2173805
000130 78 bb 2a bd 72 22 bc bc b1 4f 19 be 30 94 38 3e
       -0.04168269 -0.022965644 -0.14971806 0.18025279
000140 80 c2 73 be cc ca 71 be e1 81 02 be f3 d6 c1 3d
       -0.23804665 -0.23612517 -0.12744857 0.094648264
000150 24 3e 8e bd 29 67 c0 bd ff a8 6a bc c6 d6 3e 3e
       -0.06945446 -0.09394676 -0.014322518 0.18636617
000160 83 60 44 be 5d 33 8d 3d 7f 73 96 3e e6 4d 6a be
       -0.19177441 0.068945624 0.29384992 -0.22881278
000170 ec 8d 2c be b1 f5 36 be 36 5c e6 bd 36 8d 0b 3d
       -0.16851014 -0.17867161 -0.112480566 0.034070216
000180 cf f8 08 be e7 da f9 3d 94 aa 2d be 3c f7 26 3e
       -0.13376163 0.121999554 -0.16959602 0.1630525
000190 12 ea 8e bd 5a 0c 9f be c1 55 13 3e 81 8b 79 bd
       -0.06978239 -0.3106411 0.14388181 -0.060924057
0001a0 98 dc a4 3e 93 b0 86 3e 95 f5 4d 3e 2c b0 39 3e
       0.3219955 0.2630659 0.20113213 0.1813361
0001b0 82 df 1f be d4 84 95 bd ee 2b 7f bd 3a 9d 13 3e
       -0.15612605 -0.073007256 -0.062297754 0.14415446
0001c0 a4 08 2c 3e 47 e8 36 3e 93 91 67 3d 1e a7 6e be
       0.16800171 0.17862044 0.056535315 -0.23305938
0001d0 af bd 01 3e be 21 d0 3d 4b ae 09 be ce 01 5e be
       0.12670015 0.10162686 -0.13445394 -0.21680376
0001e0 b0 5a 62 be e3 51 7b be 8a e1 54 3d 1b 1d f9 bd
       -0.22104907 -0.24542956 0.051972903 -0.121637546
0001f0 78 ab 09 be 66 b2 59 3e dd dd 87 bd ba 8a 53 be
       -0.13444316 0.2125946 -0.06634114 -0.20658389
000200 24 07 46 3e 93 29 25 3e 66 6f 03 bd 9b e1 e5 bd
       0.19338661 0.1612914 -0.03208866 -0.112246715
000210 62 72 62 3e 18 67 99 bd a6 06 8e 3d 1e 8f 64 be
       0.22113946 -0.07490367 0.06934862 -0.2232022
000220 3a 79 58 bd 0b b2 af bd 10 c2 40 be 43 8f f7 bd
       -0.052849986 -0.08578881 -0.18824029 -0.12087872
000230 72 ea 1c be 39 5a 98 3d 47 c4 25 3e 13 fe 65 be
       -0.15323809 0.074390836 0.16188155 -0.22460203
000240 7e 04 18 bd 6b 8c c6 bd 58 64 8c 3e fe 95 a9 bd
       -0.03711366 -0.09694751 0.27420306 -0.08280562
000250 de 10 3c be 03 72 17 bd 75 20 da 3d 32 88 8e 3e
       -0.1836581 -0.036973964 0.10650722 0.27838284
000260 18 76 9f 3e cd fd ac 3d a8 51 3c be a8 a0 ff bc
       0.31144786 0.08446846 -0.18390524 -0.031204537
000270 56 67 8b 3e ad d5 bc bc 27 44 e9 bc c9 4a c0 bd
       0.27227277 -0.023051107 -0.02847488 -0.09389264
000280 0d 8f af be 26 b4 f5 bd b9 8d 0c bd 62 85 e2 bd
       -0.34288827 -0.11997251 -0.034314845 -0.11060597
000290 89 0d 4a 3e a5 62 e3 3d 44 c8 60 be e1 cb 96 3e
       0.19731726 0.11102799 -0.21951395 0.29452422
0002a0 c4 ab a2 3c 45 30 25 bd ce dd b2 3e e7 fe cd bd
       0.019857295 -0.040329237 0.3493485 -0.100583844
0002b0 0c 8a 55 3e 03 55 89 bd a0 92 83 bd 28 a1 22 3e
       0.20853442 -0.06705668 -0.06424451 0.15881789
0002c0 1d 67 5b bc 4e 30 58 3d 51 16 07 bc 54 ca 35 be
       -0.013391283 0.052780442 -0.008245067 -0.17752963
0002d0 d1 0c 98 3e 3b d3 3c be 81 ca a1 3d dc 0f d1 3d
       0.29697278 -0.18439953 0.07899953 0.10208103
0002e0 39 55 21 be c3 78 5b be 2b da 00 be ac 8f 8f be
       -0.15755166 -0.21432786 -0.12583224 -0.280393
0002f0 a4 23 4f 3e 23 c3 5f 3e ea 80 8f 3e 9e aa 72 be
       0.2022844 0.21851783 0.2802804 -0.23697898
000300 83 06 1e be d8 16 01 bd 67 94 1b 3e 50 89 5d bc
       -0.15432172 -0.031515926 0.1519333 -0.013521507
000310 e7 d2 26 3e 86 6a a9 bc 96 0c e1 3c 45 24 36 3d
       0.1629139 -0.020680677 0.027471822 0.044468183
000320 e3 3d 29 be 50 5c bb bd 3d c6 33 be ff 69 64 3d
       -0.16527514 -0.091484666 -0.1755609 0.05576515
000330 96 5d 7f bd ed 04 e2 3d 4f 76 89 3e 37 28 39 bd
       -0.06234511 0.11036096 0.26848075 -0.045204367
000340 f3 29 c5 bd 0d 74 93 bd 43 fe ef bd 35 26 42 be
       -0.09627142 -0.07199869 -0.117184184 -0.18959887
000350 de 3b 5d 3e 23 17 49 3d c5 07 da 3d 11 f4 d1 3b
       0.21604869 0.04909433 0.10646013 0.006407269
000360 4c af 9f bd 8f 0b c1 bc aa d5 97 3d 44 14 f1 bd
       -0.07797107 -0.023565082 0.074138 -0.117714435
000370 32 41 a1 3e 28 76 28 3e 8a 5a 38 3e ef 6d 01 3e
       0.31495053 0.16451323 0.18003288 0.12639593
000380 ad a6 3d 3e 31 46 85 bc e2 6b 9e 3e a6 fd 27 be
       0.18520613 -0.016268821 0.30941683 -0.16405353
000390 8a 0d 4f be af 2c 4d 3e 7f 81 8b 3e 25 1c 83 bd
       -0.20220008 0.20036577 0.27247235 -0.064018525
0003a0 37 b9 91 bc 92 a3 48 3e ef 2d 7d 3e bd 66 88 3e
       -0.017788513 0.19593647 0.24724554 0.26640883
0003b0 a1 79 3f be cc 40 52 be cd 72 36 be 5e 68 97 3e
       -0.18698741 -0.2053253 -0.1781723 0.29571813
0003c0 76 ac 42 be 88 6d a7 bb 36 f0 7d 3d 9c a9 6f 3d
       -0.19011101 -0.0051094927 0.06199666 0.05851136
0003d0 eb 91 53 be 34 fb ea bd ef bd 15 3e f7 73 28 bc
       -0.20661132 -0.114736944 0.14623235 -0.010281554
0003e0 94 fb 76 3e 97 72 3b 3e 5b dc bd bd f2 ff 16 be
       0.24119407 0.18305431 -0.09270545 -0.14746073
0003f0 92 9c e0 3c 6f 85 a3 bd 13 79 b9 3d 7a 0c 04 bd
       0.027418409 -0.07984435 0.09056296 -0.03223846

fc2.weight f4 [128, 256]
000000 30 5e 7a 3d bc 24 09 bd e2 27 a5 bc 07 d0 e9 bd
       0.06112498 -0.0334823 -0.02016062 -0.11416631
000010 93 20 a9 bd f0 ea 54 bd 4b 97 aa bd 58 40 de 3c
       -0.08258166 -0.051981866 -0.08329638 0.02713029
000020 36 3f 79 bd 9f 70 ca bd 18 79 8b bd 59 e7 a4 bd
       -0.0608513 -0.09884762 -0.06810206 -0.080519386
000030 26 36 21 bd 40 aa ff 3a 58 9a d6 bd 15 ce b0 bb
       -0.03935828 0.0019505695 -0.104786575 -0.0053956606
000040 c2 ab c9 bd c4 14 4b 3d 98 0a e5 bd 98 55 f9 bd
       -0.09847213 0.04958035 -0.11183661 -0.12174529
000050 fc 6e ed 3c 9e 2e 14 3d 10 a9 e5 bc 39 15 dc bd
       0.028983586 0.03617727 -0.028034717 -0.107462354
000060 2c 8f db bc 4e 7d 7d bd 5a aa 4e bd f2 1f 60 bd
       -0.026801668 -0.061887078 -0.05045543 -0.054717965
000070 7b 24 42 bd 91 28 81 bd 81 a5 83 bc 26 d1 0a bd
       -0.04739807 -0.063065656 -0.01607013 -0.033890866
000080 36 4e c9 bd 08 65 6e 3c d8 29 4c 3d 1a 87 2c bd
       -0.09829371 0.014550455 0.049844593 -0.04212103
000090 ce 00 e2 bd 03 12 96 bc fa 22 25 bd 70 cc 98 bb
       -0.1103531 -0.018319136 -0.04031656 -0.0046630427
0000a0 87 64 10 bb 80 bf fa bd f3 2d b1 bd 00 79 51 3b
       -0.0022032575 -0.12243557 -0.08651342 0.003196299
0000b0 12 17 ee bb 7b 02 ad bd df f4 7f bd 23 fa 15 bd
       -0.007265934 -0.08447739 -0.062489387 -0.036615502
0000c0 3f 28 2b bc f2 44 d2 bd ea cd 21 bd 56 62 6b 3d
       -0.010446607 -0.102670565 -0.039503016 0.057466827
0000d0 00 6a 93 bb 3e 4e d1 bd 3b 20 7e bd c2 e0 2f bd
       -0.00449872 -0.10220002 -0.062042456 -0.042938955
0000e0 69 4d c8 bd 46 8a 25 3d 5c 79 42 3d 7a 88 dd bd
       -0.0978039 0.04041507 0.04747902 -0.108170465
0000f0 a4 40 a6 bc 40 b5 25 bc d9 63 96 bc 77 c5 fe bb
       -0.020294495 -0.010114014 -0.018358158 -0.0077750045
000100 a1 75 97 bd ee 3b 08 3d 48 de 6a 3c 98 49 26 3c
       -0.07395483 0.03326028 0.014335223 0.010149382
000110 7a 00 9f bd 04 7b 15 bd 78 44 b2 bd 98 5f 89 bc
       -0.07763763 -0.03649427 -0.08704466 -0.016769215
000120 79 a7 a6 bd b6 6d 04 bd ef 7b 92 bc ae 89 f6 bc
       -0.081374116 -0.03233119 -0.017881362 -0.030094948
000130 d4 2d ea bd 36 73 be bd 40 88 f8 3c dc 9b 65 bd
       -0.11434522 -0.092993185 0.030338407 -0.056056842
000140 5c 6a 28 bd 28 e6 ff bc f0 fe 9d bc cc 48 e0 bb
       -0.041117057 -0.031237677 -0.019286603 -0.0068446156
000150 62 fc 3b bd c8 13 7c 3c d2 f0 a0 bd 37 61 f5 bc
       -0.045894988 0.015385576 -0.07858433 -0.029953582
000160 20 11 1c bc 4a 4b 48 3d ba 5c b2 bd 74 20 b1 bc
       -0.009525567 0.048899926 -0.087090924 -0.02162192
000170 4e e5 6c bd 38 87 78 bc 85 c9 34 bd c8 7a 2b bd
       -0.05783587 -0.015168957 -0.044137497 -0.04186514
000180 4a ab 7d 3d 83 5a c7 bd a0 1a 84 3c ee 02 f5 bd
       0.061930932 -0.097340606 0.016125977 -0.119634494
000190 ac ff b4 bc c8 2a 08 3d 26 a0 e3 bc 3b 82 c7 bc
       -0.02209457 0.033243924 -0.027786326 -0.02435409
0001a0 e0 6c 84 3c 65 dc 98 ba c2 c5 36 bd 98 3b 4c bd
       0.016165197 -0.0011662362 -0.04462219 -0.04986152
0001b0 68 ef 62 3d 1c c2 c7 bc a2 99 22 bd 68 51 7e bc
       0.055404097 -0.02438455 -0.039697297 -0.015522338
0001c0 3c 36 a4 bd f5 68 2e bd ce 82 a9 bd 6c 4f d8 bc
       -0.08018157 -0.042580564 -0.08276902 -0.026405059
0001d0 b1 02 c4 bd cf af 56 bc f4 5e d1 3c 4c 36 9f bc
       -0.09570826 -0.0131034395 0.025557972 -0.01943507
0001e0 4c e3 79 bd 04 ce 91 3c fe a6 11 3d 40 4a a7 3c
       -0.061007783 0.017798431 0.035559647 0.020421147
0001f0 04 35 b4 bc 54 58 d2 bb 10 ba 7d bc 74 a1 17 3d
       -0.021997936 -0.006419221 -0.015486255 0.037019208
000200 e1 5a 8f bc fc c6 b7 bd 0f 6e c4 bd 22 2b 2a 3d
       -0.01749939 -0.089735 -0.095913045 0.04154504
000210 c5 14 bd bd 90 1a fa bb fc 28 3a 3d e8 45 35 bd
       -0.09232477 -0.007632561 0.045449242 -0.04425612
000220 d0 28 15 bd cc fc 9a 3c 60 6a c3 3b 8a 0d 45 3d
       -0.036415875 0.018919371 0.0059636086 0.048108615
000230 f8 12 08 3d a4 5a f5 3c a5 c3 e5 bc ae 0a 44 3d
       0.033221215 0.029950447 -0.028047392 0.047861747
000240 1c da d6 bb de 77 58 3d 71 2b 68 bd ec d3 2f bd
       -0.0065567624 0.05284869 -0.056682054 -0.042926714
000250 00 9d 19 3a dd 5a c5 bd eb d4 f2 bb d2 92 1c bd
       0.00058598816 -0.096364714 -0.0074106357 -0.038225956
000260 61 81 0e bd 26 0a 43 3d 48 b2 2c 3d 10 0d 59 bc
       -0.034791354 0.0476171 0.04216221 -0.013247743
000270 19 0f 9d bd c7 64 f3 bd b8 cd c8 bd 40 c6 06 bd
       -0.07668895 -0.11884456 -0.09804863 -0.03290391
000280 8a e4 0b 3d 50 7d 9c bb 18 bb d7 bc 88 db df bd
       0.0341535 -0.0047756806 -0.02633433 -0.10930544
000290 0d 66 8a bc 00 19 8e bc 3a 7a 0b 3d c6 19 a7 bd
       -0.016894365 -0.017345905 0.03405211 -0.08159213
0002a0 28 30 48 bc 9d 86 c9 bd f9 36 35 bd b2 fb 08 bd
       -0.012218513 -0.098401286 -0.04424188 -0.03344316
0002b0 20 e1 d3 bc d2 9e 02 bc 47 51 ce bc fa 57 82 bc
       -0.025864184 -0.007972436 -0.02518524 -0.015911091
0002c0 62 70 74 bc 88 19 53 bd 43 92 b3 bd 42 af 65 bd
       -0.014919372 -0.05153802 -0.087681316 -0.056075342
0002d0 e6 ce b2 bd 8e f8 4c bd 58 4a 14 bc c4 01 eb 3c
       -0.08730869 -0.050041728 -0.009050928 0.028687365
0002e0 10 c9 68 bd 40 f0 25 3d 1e 03 76 3d 30 18 45 bc
       -0.056832373 0.040512323 0.060061567 -0.0120296925
0002f0 27 c3 e2 bd c3 4a da bd 65 6b 05 bd 80 be a2 ba
       -0.110723786 -0.10658791 -0.032573123 -0.0012416393
000300 0c 3f c1 3c 78 9a 6f bd 9a 7b 50 bd b0 5f 40 bd
       0.023589633 -0.058496922 -0.050899126 -0.046966255
000310 15 5b b2 bc d1 49 53 bd b7 44 5f bc 80 c4 bb bb
       -0.021771947 -0.05158407 -0.013627223 -0.0057302117
000320 84 4d 27 bd a6 d0 7b bd 98 a7 08 3c 90 91 38 bd
       -0.04084541 -0.06147828 0.008340739 -0.045060694
000330 14 37 50 3d a7 c0 77 bd f8 0b e3 bd 08 68 e2 bc
       0.050833777 -0.060486462 -0.11086267 -0.027637497
000340 f8 2a e5 bc b8 b8 a0 bc 18 f6 72 3d 74 52 6b 3d
       -0.02797459 -0.01961933 0.059316725 0.05745168
000350 e3 42 ca bd ed 4d bf bd c1 12 98 bd e4 53 46 bd
       -0.09876039 -0.09341035 -0.07425452 -0.048419848
000360 a6 68 97 bc 98 57 ea bd 64 ca 2f 3d e8 32 59 3c
       -0.018482517 -0.114424884 0.042917624 0.013256766
000370 fe 4e ee bd ef 88 a1 bd 54 e3 9d bd 07 48 09 bc
       -0.1163616 -0.07887446 -0.07709375 -0.008378989
000380 3b 17 14 bd 30 dd 9d bc ce 51 1d bd fc 5c 52 bd
       -0.036154967 -0.01927051 -0.038408093 -0.051358208
000390 dc ec 41 3d 9e eb aa bd 7c c7 a6 bd 2c f3 aa bd
       0.047345027 -0.08345722 -0.081435174 -0.083471626
0003a0 d6 fc 88 bd 72 41 a3 bd 05 cd 5c bd f9 fc 5d bd
       -0.0668885 -0.07971467 -0.05390646 -0.05419633
0003b0 ac 60 a4 bc 80 e4 a3 bb 0c 5f d6 3c ce d2 bc bd
       -0.020065628 -0.0050016046 0.026168369 -0.09219895
0003c0 42 58 50 3d 85 63 d3 bc b0 30 3d bd de 01 11 3d
       0.05086542 -0.02580429 -0.04618901 0.03540217
0003d0 12 50 8a 3a c0 fc bd bc ea 85 b8 bd a3 29 b8 bc
       0.0010552427 -0.02319181 -0.09009917 -0.022480791
0003e0 18 05 ec bd 40 d9 25 3d ab ad 65 bd c4 88 47 3d
       -0.11524409 0.04049039 -0.056073826 0.048714414
0003f0 70 2b 31 bc 8b 55 b0 bd 99 ac c5 bc 98 41 b7 bd
       -0.010813579 -0.08610066 -0.024130153 -0.08948058

fc2.bias f4 [128]
000000 aa ff 4d bd 69 76 97 bc a9 5b d9 bc 1b 8d d5 bd
       -0.05029265 -0.01848908 -0.026532965 -0.10427304
000010 41 54 16 3e 53 7d 27 3e 9a 8f 80 bd 66 7b 6c bc
       0.14680578 0.16356401 -0.0627739 -0.014433717
000020 1f 61 a5 bd 19 f4 c2 bc 29 28 eb bd 3b 1c a6 bd
       -0.08075165 -0.023798035 -0.11482269 -0.08110853
000030 ec 17 a5 bd fd 5c 3d bb 94 19 9c bd ad 53 80 3d
       -0.08061203 -0.0028894537 -0.07622066 0.0626596
000040 dd 99 20 bd 7b d4 69 bd 21 f6 31 bc 98 6c c9 bd
       -0.039209235 -0.057087403 -0.010861904 -0.09835166
000050 c0 45 82 bd 6d bb 2b bd f8 81 d3 bd 5b 66 c0 bc
       -0.0636096 -0.04192679 -0.10327524 -0.023486307
000060 a7 ef 0d bd 98 0e 80 bd cb b7 96 bd 24 1a ad bb
       -0.03465238 -0.062527835 -0.073592745 -0.005282657
000070 83 5a f5 bb f0 06 4c 3c c0 3a 78 3b be 31 34 3e
       -0.0074875965 0.012452826 0.0037876815 0.175971
000080 48 ef 80 bc da 5c 96 bd ba b6 c8 bc 67 83 0f 3e
       -0.015739098 -0.07341929 -0.024501193 0.1401497
000090 b3 d7 8d 3d cd 54 c5 3d d3 e9 e0 bd 6c d3 21 bd
       0.06925907 0.09635315 -0.109820984 -0.03950827
0000a0 a4 87 d9 bd 9c 35 74 bd df c7 3a bb e5 83 72 3d
       -0.106215745 -0.05962144 -0.002850048 0.059207816
0000b0 e5 7a bc bc ea 1d 16 3e 99 3f 06 3e dd 02 cb bb
       -0.02300782 0.14659849 0.13110198 -0.0061954097
0000c0 d9 2a 06 bd a4 d2 6b bd fc f4 99 bd 43 f7 93 3d
       -0.032755706 -0.05757393 -0.0751743 0.07224896
0000d0 c7 67 5f 3e d5 ab 80 3e f0 4d 52 bc a0 a8 25 3e
       0.21816932 0.25131097 -0.012835965 0.16177607
0000e0 55 ee 65 3d e6 f3 63 bd f9 db ab 3d 22 b1 8d bd
       0.056135494 -0.05565252 0.08391566 -0.06918551
0000f0 7a 87 11 bc ad 6e 9f bd 41 1a 97 3e 0b 43 29 bc
       -0.008882398 -0.077847816 0.29512218 -0.010330926
000100 61 74 b8 bd 0f c1 a3 bd 25 6e 07 bc 6c e9 a7 bd
       -0.090065725 -0.079958074 -0.008266007 -0.081988186
000110 b3 e4 22 3e 54 b6 19 bb 02 1b 0a 3e c5 15 18 3e
       0.15907554 -0.0023454623 0.13486865 0.14852054
000120 28 ea 92 bd 58 e0 65 bd 20 8b d7 bc ce 71 80 3d
       -0.07173568 -0.056122154 -0.026311457 0.062717065
000130 3f a7 c4 bd 38 14 cf bc b0 25 ad bd 72 5d b6 bc
       -0.09602212 -0.025278196 -0.08454454 -0.022261355
000140 c1 79 ae bc e7 39 6b 3d a9 c2 a0 bd 77 d2 01 bd
       -0.021298291 0.057428267 -0.078496285 -0.031694856
000150 7c 25 cb bc 42 7c d2 bd f1 bc f3 bd b4 c8 43 bd
       -0.024798147 -0.102776065 -0.11901272 -0.047798827
000160 10 56 d7 bd 4c 5f 94 bd d5 d1 72 bd 2a ce 22 3e
       -0.10514462 -0.07244739 -0.059282143 0.15898958
000170 ed 52 9d 3e 9f 3e a1 bd c9 87 72 bd 34 be c7 3d
       0.3072733 -0.07873272 -0.059211526 0.09753075
000180 5a 59 ab bd 9c 1b b9 3c ae 6f 29 bd bb 15 66 bd
       -0.08366652 0.022596173 -0.04136627 -0.056173068
000190 bf 92 d0 bd fb da e3 bd 57 24 b1 3d 23 e5 3c 3e
       -0.101842396 -0.111257516 0.086495094 0.18446784
0001a0 f7 f8 87 bd 64 2d 2e bd be 2f 59 3a 8c cb 5d bd
       -0.06639283 -0.042523757 0.0008285007 -0.054149196
0001b0 dd 40 c8 bb 46 cf c6 bd df 7a ed 3d 56 80 95 bd
       -0.006111248 -0.09707503 0.115957014 -0.07299869
0001c0 46 d4 ef 3d c2 00 87 3d 6e a5 7d bd df 59 62 ba
       0.1171041 0.065919414 -0.061925344 -0.00086346077
0001d0 5c a9 57 bd 56 dd 6f bc b4 2f d4 bd c5 b0 bb bd
       -0.052651748 -0.014640173 -0.10360661 -0.091645755
0001e0 76 8a 98 bd 50 60 c7 bb 7d b3 99 bd 34 93 1c 3d
       -0.07448284 -0.0060844794 -0.07504938 0.03822632
0001f0 8d e6 c1 3d 8c 7b 30 3e 85 97 9d 3d 8d 7b f0 3d
       0.09467802 0.1723463 0.07694916 0.117423154

fc3.weight f4 [2, 128]
000000 14 8f 13 3d f5 1f b8 bb e0 a4 d4 bc 13 03 f9 bc
       0.03602512 -0.005619044 -0.025957525 -0.030396974
000010 0a 81 8c bc 91 39 99 3d fd 28 1f bd bb 2d 93 3d
       -0.017151374 0.07481683 -0.03885745 0.07186457
000020 de 9a 08 bd 8a 5d b1 3c fc ee 1f bd 3a a9 ce 3c
       -0.033350818 0.021651048 -0.039046273 0.025227178
000030 2a 9c b7 bd 3e 24 96 bd 1a 2a 80 3b cf 01 a2 3d
       -0.08965333 -0.073311314 0.003911269 0.07910501
000040 52 53 9a 3c 7a c6 89 bd 7d a2 0d 3b 68 f4 cb 3c
       0.018838558 -0.067273095 0.0021611743 0.024896815
000050 4f a3 8a bc 35 25 73 3d b2 a3 32 3c 24 17 dd 3d
       -0.016923575 0.059361655 0.010903286 0.10795429
000060 f8 b5 e2 3d 7b 99 1e bd be 77 9c 3d a8 34 fb 3c
       0.11069864 -0.03872059 0.076400265 0.030664757
000070 06 6d fc 3d 00 f3 f8 bb 62 ff 81 bd 7d e7 83 3d
       0.12325482 -0.007597327 -0.063475385 0.06440637
000080 00 53 52 3d dc b7 36 bd db b1 b4 3d f6 49 0e 3e
       0.051348686 -0.044608936 0.08822986 0.13895401
000090 64 a2 44 bd 5c 4c e8 bc 28 e4 3e 3c f4 94 9d 3d
       -0.04800643 -0.028356723 0.011651076 0.07694426
0000a0 1f 9d b9 3b 12 59 d4 b9 50 81 20 3d 64 6b db 3c
       0.0056644822 -0.00040502154 0.039185822 0.026784606
0000b0 c9 c2 14 bb 99 bc 30 3d ce b3 ee bd 00 7a d6 bd
       -0.0022699109 0.04314861 -0.11655389 -0.104724884
0000c0 4d 4c 29 bc bb d5 f2 3d c8 7e 96 bd ba 30 39 be
       -0.010333133 0.11857172 -0.073484 -0.18084994
0000d0 af a1 45 3d 05 df 3b be e3 fc 5b 3d 90 ec a3 3d
       0.048249897 -0.18346794 0.05370797 0.08004105
0000e0 26 bc 12 be 47 8f d7 3d 9e 8b 18 3d ae f2 ce 3c
       -0.14329585 0.10525375 0.037242524 0.025262203
0000f0 d7 7f c6 3b af 80 98 bc b1 b1 a0 be 62 3e f9 3c
       0.00605772 -0.018616049 -0.31385568 0.030425254
000100 96 d5 27 3c f8 74 06 3d 73 3e 65 bc 5a 31 80 3d
       0.010243794 0.032826394 -0.01399194 0.06259413
000110 ff 56 9c 3c 5b b3 73 3c 49 a0 1f 3d a6 6c 14 3e
       0.019084452 0.014874305 0.03897122 0.14494571
000120 dd ba 3b bc c1 00 7f bc f7 ad 1f bb 14 42 7d 3d
       -0.011458126 -0.015564145 -0.0024365166 0.061830595
000130 f8 55 a7 bc be a4 07 3d 0b 82 86 3c 0f d7 93 3d
       -0.020426735 0.033116095 0.016419431 0.072187535
000140 ae 73 84 3b e9 66 b4 3c 5f 1c 26 3d 26 5b 5c 3d
       0.0040421104 0.022021728 0.0405544 0.053797863
000150 05 48 e4 3c 03 28 c6 bd 88 96 22 3c e2 07 47 3d
       0.027866373 -0.096756004 0.009923585 0.048591502
000160 f9 6c a4 3d a7 53 42 bd 29 aa 91 ba ab ae ae 3d
       0.080285974 -0.04744306 -0.0011113334 0.08529409
000170 83 f5 4b be e7 37 c2 3c 7e 8f 90 3d 4b cd 2f bd
       -0.19917874 0.023708297 0.07058619 -0.042920392
000180 d5 97 d0 3d 27 f1 12 3d 1e 36 97 bb be 04 b0 3a
       0.1018521 0.035874512 -0.0046146056 0.0013429148
000190 df 1f 03 3c 74 db 1e 3b 45 4a 23 3d b3 7f 30 be
       0.008003204 0.002423969 0.03986575 -0.17236213
0001a0 41 b2 b8 bc b7 39 bf bc 35 28 45 bc 45 15 82 bd
       -0.022545936 -0.02334295 -0.012033512 -0.06351713
0001b0 5f bc 08 bd 36 d1 8b bd 52 b7 a5 3d 89 3b 4f 3c
       -0.03338277 -0.06827013 0.08091606 0.012648472
0001c0 fd 56 8b 3d e9 75 33 bd 78 d0 b6 bd 8d 49 24 bc
       0.06803701 -0.04381362 -0.08926481 -0.0100273015
0001d0 47 25 7c 3c 56 40 09 bd ec 3d 97 bd f6 a3 20 3d
       0.015389747 -0.03350862 -0.073848575 0.039218865
0001e0 c5 7e b8 3c ad fc 29 3d 56 bc 03 bd 22 4d 2e bc
       0.022521386 0.041500736 -0.032162033 -0.010638507
0001f0 71 38 03 bc a1 e0 d3 3d 43 f1 08 3d 7a 67 00 be
       -0.008009062 0.10345579 0.03343321 -0.12539473
000200 d0 db 97 bd 83 99 e9 bd 24 c9 e7 3c f6 8d 94 bd
       -0.07414973 -0.11406233 0.028294154 -0.072536394
000210 26 5f e9 3d a8 8f d3 bd 01 ba 56 bb 2f ec 18 bc
       0.11395101 -0.10330135 -0.0032764676 -0.009333654
000220 76 3b 8e 3c cb ce 67 bd b4 9f 2b 3d be 22 8d bc
       0.017362338 -0.056593698 0.04190035 -0.01722848
000230 0d 37 91 bc fc f6 18 3d 8a 3f 9f 3d c0 cd 7d 3d
       -0.017726446 0.037344918 0.07775791 0.061963797
000240 24 da da bc 8d 03 4a 3c dd 59 40 bd 59 cf 11 bd
       -0.026715346 0.012329948 -0.0469607 -0.035598133
000250 9f 9e f5 bd e2 33 06 bc 21 ca 0b 3d 42 1e 55 3c
       -0.11993145 -0.008191081 0.034128312 0.013007702
000260 9e 28 65 3c ed be 82 bd 3e 05 08 bd 94 0b a8 3c
       0.013986735 -0.063840725 -0.033208124 0.020513333
000270 1d e5 c2 3c b7 78 c1 bc 6d 8e cc bc f5 4f 09 be
       0.02379089 -0.023617132 -0.024970258 -0.13409407
000280 48 ee 96 bd d1 58 4a bc 2f 8b 2e 3c 05 3c 15 be
       -0.07369667 -0.012350277 0.010653301 -0.14573677
000290 01 eb 4c bd 80 4a ae bd 42 aa ba bd 3d e0 91 bc
       -0.050028805 -0.085103035 -0.09114505 -0.01780712
0002a0 cf 6c 44 3d 79 65 2e 3b b5 bb de 3c 1d 16 1a bb
       0.04795533 0.0026610775 0.027189115 -0.0023511716
0002b0 52 50 c0 bd 08 c9 bf bd 8e 69 b5 3c 55 c8 bd 3b
       -0.0939032 -0.093645155 0.022145059 0.0057917037
0002c0 ce 0e 80 bd 8e 3c b4 3b e9 06 23 3c d4 f1 41 3d
       -0.06252824 0.0055003827 0.009950378 0.047349766
0002d0 f0 f7 cf bd 92 e2 80 3e 9d 5d 86 bc 27 72 9d bd
       -0.10154712 0.2517286 -0.01640206 -0.076877885
0002e0 a5 21 16 3e b8 1f 5e 3c d5 e7 17 3d aa 0e 25 bc
       0.14661272 0.013557367 0.037086327 -0.010074297
0002f0 19 04 19 bd 8e b0 7e bd 6d fb 85 3e fb 9a 85 bd
       -0.037357423 -0.062180094 0.26168385 -0.06523701
000300 14 ca 33 3d b6 89 76 bd cc e0 3d bc f8 ab 29 bd
       0.04389389 -0.060189925 -0.01158924 -0.041423768
000310 b3 be d3 bd c6 9f 6d bd 98 36 4f bd d8 0f 26 be
       -0.10339107 -0.0580137 -0.050589174 -0.16216981
000320 43 2c b2 bc 2b 0d b6 3b 57 4e 99 bc fb 7a 59 3d
       -0.021749621 0.005555769 -0.018714113 0.0530958
000330 0c 9b 54 bd a9 17 ff 3c a2 01 66 bc 7e 1b 6c 3b
       -0.051905677 0.031139212 -0.014038475 0.0036027129
000340 6e a1 d0 bd 1c bd 29 bd 1c c3 47 bc ee 35 b2 3b
       -0.1018704 -0.041440114 -0.012192514 0.005438558
000350 57 3a d0 3c 9f 4c 6e 3d 3d 36 c5 3c 1d 72 8c bd
       0.025418444 0.05817854 0.024073714 -0.06857703
000360 58 ed 4b 3c 22 2a 81 bb da f2 03 bd 4d 5e 91 bd
       0.012446724 -0.00394179 -0.032214023 -0.070980646
000370 41 44 72 3e 9e 73 74 bd 5f eb 49 bd 76 7a f7 bc
       0.2365885 -0.059680574 -0.049296733 -0.030209761
000380 aa 79 d0 3c dc da 40 bc ab 14 a3 bd 45 0e 9e bd
       0.025448639 -0.01177093 -0.079629265 -0.077175654
000390 77 4a c7 bd 54 fa d7 bc 94 11 02 3d a3 4b 12 3e
       -0.09731 -0.026364483 0.031755045 0.14286666
0003a0 9d 62 89 bd 9a 9d d9 bc 30 a9 bc bd 6c 6d b2 3d
       -0.06708262 -0.026564408 -0.092119575 0.08712277
0003b0 bf 73 3d bd bf b9 fc 3c 8c 4a 51 bd ea 7f b7 3c
       -0.046252962 0.03085029 -0.051096484 0.022399861
0003c0 e6 31 95 bc eb 8e 1a bd 34 7e 16 bd 58 6f 0f bd
       -0.01821227 -0.037733953 -0.03674145 -0.035018295
0003d0 4a 95 45 3c bd bd 91 3d 2e f7 c9 bb 71 61 b2 bc
       0.012059519 0.07116268 -0.0061634993 -0.02177498
0003e0 24 4d 10 bd 52 d9 3b 3c a7 7f 3a bd 22 81 9b bc
       -0.035229817 0.011465387 -0.045531895 -0.018982474
0003f0 9a da 5b ba 74 08 6d bd 9d 5c ab 3c bd 48 bc 3d
       -0.0008386761 -0.05786939 0.020918185 0.09193561

fc3.bias f4 [2]
000000 c5 2a 8e 3d 14 1f 25 be
       0.069417514 -0.16125137
