Project 3-Open set recognition/Project/Weights/2_weights.pth (torch, 387487 bytes, 10 tensors)

conv1.weight f4 [64, 1, 7, 7]
0	0xbd81afd3	-0.06332364
1	0xbd461924	-0.04836382
2	0x3e2e4142	0.17017081
3	0x3e473b19	0.19456138
4	0x3dcd82a3	0.100346826
5	0x3d8e6051	0.06951965
6	0x3dd361b1	0.103213675
7	0xbccbbdcd	-0.024870778
8	0x3e220300	0.15821457
9	0xbd1e2362	-0.038607962
10	0x3e35dcc7	0.17760001
11	0x3e2e9134	0.17047578
12	0x3dd2890e	0.10280047
13	0xbcd969a4	-0.026539631
14	0x3b5fad6f	0.0034130474
15	0xbdc44417	-0.095832996
16	0xbc4ccdc2	-0.012500228
17	0x3dfc76a8	0.123273194
18	0xbd52af77	-0.051436868
19	0x3e7035fa	0.2345809
20	0x3c09c98d	0.00840987
21	0xbd9dbdee	-0.07702242
22	0xbd80064a	-0.062511995
23	0xbb99e337	-0.0046962756
24	0xbd12ffd6	-0.035888515
25	0xbd691c3b	-0.05691169
26	0x3e6c1d96	0.23058161
27	0x3d430817	0.047615137
28	0x3e49cbdd	0.19706674
29	0xbc9cb871	-0.019130917
30	0xbe0520ee	-0.13000843
31	0xbd9fca2c	-0.07802233
32	0x3d4d18e3	0.050072562
33	0x3e3a7ead	0.18212385
34	0xbdadf813	-0.08494582
35	0x3da6003f	0.08105516
36	0x3e6fac85	0.23405655
37	0x3e3c202e	0.1837165
38	0x3db27eac	0.08715567
39	0x3dfd0e52	0.12356247
40	0x3dfff7f3	0.124984644
41	0xbe24b3ad	-0.16084166
42	0x3cbe7377	0.023248417
43	0x3e37f092	0.17962864
44	0x3cc9b925	0.024624417
45	0xbd6ea62d	-0.058263946
46	0x3c87bd91	0.016569884
47	0x3dc2ed9b	0.09517976
48	0xbd8d4a35	-0.068989195
49	0xbce591b9	-0.028023588
50	0x3bb2261f	0.0054366733
51	0x3e1ede05	0.15514381
52	0x3ebd3850	0.36957026
53	0x3ca96b6a	0.020681102
54	0xbe9140b0	-0.28369665
55	0xbdc46430	-0.09589422
56	0x3e7a1ebd	0.24425788
57	0x3e3ea8d5	0.18619092
58	0x3e94ff09	0.29100826
59	0x3e3306e5	0.17483099
60	0xbc87ac6c	-0.01656171
61	0x3c4900d0	0.01226826
62	0xbe247b46	-0.1606265
63	0x3e60c8a2	0.21951535
64	0x3e74bfa1	0.23901226
65	0x3c9a7c0c	0.018857978
66	0xbe74ebf4	-0.23918134
67	0xbe1390fa	-0.14410773
68	0x3dcfaee6	0.10140781
69	0x3e5bc0c0	0.21460247
70	0x3ee046e4	0.43804085
71	0x3e596743	0.21230797
72	0xbe1d8d06	-0.15385827
73	0xbe4c4a4d	-0.19950218
74	0xbe1de918	-0.1542095
75	0x3e31f32e	0.17377922
76	0x3e70d5ef	0.23519109
77	0x3ec75dc0	0.38938713
78	0x3ddf2fcf	0.10897791
79	0xbddea90f	-0.10872089
80	0xbd19745c	-0.037464485
81	0xbdaeefe7	-0.085418515
82	0xbd00bb51	-0.03142864
83	0x3e5a4e40	0.21318913
84	0x3e87f5ba	0.26554662
85	0x3c440aae	0.011965437
86	0x3c616a96	0.013758322
87	0xbd6dcf7f	-0.05805921
88	0xbe0cd7ac	-0.13754147
89	0x3e7778cf	0.24167179
90	0x3e804fb8	0.2506082
91	0x3e12a616	0.1432117
92	0x3c292836	0.010324528
93	0x3e0f20c1	0.13977338
94	0x3d8e2c9a	0.06942101
95	0x3da626af	0.08112847
96	0x3de37ee6	0.11108188
97	0x3e986b78	0.29769492
98	0xbc67e094	-0.014152665
99	0x3e82fab5	0.255819
100	0x3ec03554	0.37540686
101	0x3e84153b	0.25797448
102	0x3dc05604	0.09391406
103	0xbe8e7197	-0.27821037
104	0xbe2b6cf1	-0.16740777
105	0xbd7315ea	-0.05934707
106	0x3dc97351	0.09836448
107	0x3d6ef042	0.058334596
108	0x3e6737b6	0.22579846
109	0x3dbe4788	0.09290987
110	0xbdae5d92	-0.08513941
111	0xbd4b4f27	-0.049636032
112	0xbd67301b	-0.05644236
113	0xbdaeffe1	-0.08544899
114	0x3dd80bed	0.1054915
115	0xbd7c037f	-0.06152677
116	0x3e5c4c2f	0.21513437
117	0x3e02b867	0.12765656
118	0x3d0e17ff	0.034690853
119	0x3cbdf9e4	0.023190446
120	0x3d544952	0.051827736
121	0xbe5dbed5	-0.21654828
122	0x3dcd0548	0.10010773
123	0x3e094f58	0.13409173
124	0x3d855910	0.06511128
125	0xbd954e75	-0.07290355
126	0xbcb5dfb4	-0.022201397
127	0xbdcf07bf	-0.10108899
128	0xbd04b1d4	-0.032396153
129	0x3e20e63f	0.15712832
130	0x3d99a039	0.07501263
131	0x3cd287dc	0.025699548
132	0xbd22b171	-0.039720003
133	0x3d8e7db2	0.06957568
134	0x3dfeed39	0.124475904
135	0x3cae36bb	0.021266332
136	0x3e1226d0	0.14272618
137	0x3d38197b	0.044946175
138	0x3df38b52	0.118918076
139	0x3d80d883	0.06291296
140	0x3df89cbd	0.121392705
141	0x3ea7e0df	0.3278875
142	0x3e4f60d7	0.20251785
143	0x3e13ec73	0.14445667
144	0x3da49b0e	0.08037387
145	0x3dc11edf	0.09429716
146	0x3e116f2e	0.14202568
147	0x3e38b96e	0.18039486
148	0x3e317345	0.17329128
149	0x3e9e9022	0.3096934
150	0x3e76323b	0.24042599
151	0x3e492705	0.19643791
152	0xbeb732d9	-0.3578098
153	0xbf398f73	-0.7248451
154	0x3e8ffd8b	0.28123125
155	0xbcaf2145	-0.021378169
156	0xbe11c0a0	-0.14233637
157	0xbc4ea405	-0.0126123475
158	0x3e91c9e0	0.2847433
159	0x3e5e67f7	0.21719347
160	0xbef25be7	-0.4733574
161	0x3e03f261	0.12885429
162	0x3dc905e4	0.09815577
163	0x3d05cb34	0.032664493
164	0x3e330966	0.17484054
165	0x3eb69cb2	0.35666424
166	0x3efa51d7	0.48890564
167	0xbe36c07d	-0.17846866
168	0xbc8727a9	-0.016498404
169	0xbb40ced4	-0.0029420154
170	0xbe94e8d5	-0.29083887
171	0xbd20c08d	-0.03924613
172	0x3e43b647	0.19112502
173	0x3ea1f4c4	0.31632054
174	0xbd55714c	-0.05211
175	0x3c95dd7f	0.018294094
176	0xbde4c959	-0.111712165
177	0xbe1b2768	-0.15151751
178	0xbdc88508	-0.09790999
179	0x3d8ddb13	0.06926551
180	0x3e7ce636	0.24697194
181	0xbdc1c16b	-0.0946072
182	0x3e8efb73	0.27926216
183	0x3d3db00d	0.046310473
184	0x3da8e6b8	0.08247131
185	0xbdd41981	-0.10356427
186	0x3ddd3c49	0.10802514
187	0xbb5619ec	-0.003266926
188	0xbd1b32e2	-0.037890323
189	0x3cef642b	0.029222568
190	0x3e481cb8	0.19542205
191	0x3eac2348	0.33620667
192	0x3e49c340	0.19703388
193	0x3e784bdc	0.24247688
194	0x3e25ff76	0.16210732
195	0x3c5afa36	0.013365319
196	0xbd9ccd86	-0.07656388
197	0xbd1ed09c	-0.038773164
198	0x3d6ac6b9	0.057318423
199	0x3e13173d	0.14364333
200	0x3f0f92e4	0.5608351
201	0x3f803286	1.0015419
202	0x3f362e4d	0.711644
203	0xbd92c104	-0.07165721
204	0x3c8b9f6f	0.017043797
205	0x3db1749f	0.08664822
206	0x3dd793f5	0.105262674
207	0x3ef84583	0.48490533
208	0x3f2616d7	0.648786
209	0x3ec74e13	0.38926753
210	0xbe80ab74	-0.25130808
211	0xbdabb11e	-0.08383392
212	0xbdab4fbb	-0.08364817
213	0xbe685f7d	-0.22692676
214	0x3e25ece2	0.16203645
215	0x3eb6f09c	0.35730445
216	0x3f06de8f	0.5268335
217	0xbe90f49a	-0.28311616
218	0xbe932919	-0.28742293
219	0xbe8a51b0	-0.27015448
220	0xbec69ac2	-0.38789946
221	0x3d015e03	0.031583797
222	0x3e9a25c4	0.30106938
223	0x3f0bf250	0.54666615
224	0xbdc428f8	-0.09578127
225	0xbe2db453	-0.1696332
226	0xbec2dd5f	-0.38059518
227	0xbf09e30d	-0.53862077
228	0xbe7504d6	-0.23927626
229	0x3b1baa81	0.0023752751
230	0x3eab4110	0.33448076
231	0x3de5cacd	0.11220322
232	0xbb4a1032	-0.0030832407
233	0xbe61057c	-0.21974748
234	0xbe09a9e9	-0.13443722
235	0xbd6bcec9	-0.057570253
236	0x3d16735c	0.03673111
237	0x3f2fbedd	0.6865061
238	0xbd39fa8b	-0.045404952
239	0x3dbe86a0	0.093030214
240	0x3a49aad1	0.0007692995
241	0xbea96180	-0.330822
242	0x3dd50788	0.10401827
243	0x3ebb654d	0.36600724
244	0x3f5f8c6a	0.8732363
245	0x3edab717	0.4271781
246	0x3edc63d7	0.43044922
247	0xbc2aa6cd	-0.010415745
248	0xbdcfd04c	-0.10147151
249	0xbe1d9c87	-0.15391742
250	0x3d8d1bf2	0.06890096
251	0x3f08db0b	0.53459233
252	0x3e9a3097	0.30115196
253	0x3eca12da	0.39467508
254	0x3eac7828	0.33685422
255	0x3eb1ec37	0.3475053

conv1.bias f4 [64]
0	0x3d754233	0.059877586
1	0x3c2336bb	0.009961779
2	0x3bc7eba5	0.006101089
3	0xbe879b59	-0.26485708
4	0xbe48fd06	-0.19627771
5	0xbec31af9	-0.38106516
6	0xbe5e479b	-0.21707003
7	0xbe33fe11	-0.17577387
8	0xbe0e21e0	-0.1388011
9	0xbe164674	-0.14675313
10	0xbdd1b9f0	-0.10240543
11	0xbe1ab842	-0.15109351
12	0xbcdeb670	-0.027186602
13	0xbcd07875	-0.025448063
14	0xbce3018f	-0.027710704
15	0xbebe467a	-0.37163144
16	0x3baab903	0.0052100434
17	0xbe6c1528	-0.23054945
18	0x3e1bc78a	0.15212837
19	0xbdc17508	-0.0944615
20	0xbe2b38e8	-0.16720927
21	0xbe92348f	-0.28555724
22	0xbdf57487	-0.119851165
23	0xbe244b05	-0.16044243
24	0xbe417e4b	-0.18895833
25	0xbc91de36	-0.017806154
26	0x3d1c210e	0.03811746
27	0xbdfc603e	-0.12323044
28	0x3c9858c9	0.018597024
29	0xbe09c270	-0.13453078
30	0xbe5419bf	-0.20712946
31	0xbe907633	-0.2821518
32	0xbe077d3e	-0.1323137
33	0xbcde9246	-0.027169358
34	0xbd35df04	-0.044402137
35	0xbda9ef5d	-0.08297608
36	0xbd7e0393	-0.062015127
37	0xbe7ae2c3	-0.24500565
38	0xbdf2f15f	-0.11862444
39	0x3c4320dc	0.01190969
40	0xbdff5479	-0.12467284
41	0xbe8afad0	-0.2714448
42	0xbe4e034a	-0.20118442
43	0xbe161efc	-0.14660257
44	0x3d2eecef	0.042706426
45	0xbe2bfbe2	-0.16795304
46	0xbd6af508	-0.057362586
47	0xbea22c2d	-0.31674328
48	0xbc4e02e7	-0.012573934
49	0xbdb3a26b	-0.08771213
50	0xbe841856	-0.25799817
51	0xbe7eee6c	-0.24895638
52	0x3b29a3a2	0.0025884886
53	0xbbe11671	-0.0068691303
54	0xbd442260	-0.047884345
55	0xbe173372	-0.14765719
56	0xbdc1d692	-0.09464754
57	0xbc7300a7	-0.0148316985
58	0xbdeeb134	-0.116548926
59	0xbdc324cd	-0.095285036
60	0x3d1d70bf	0.0384376
61	0xbe582e6d	-0.2111146
62	0xbda98293	-0.08276858
63	0xbe6653fd	-0.22492976

conv2.weight f4 [32, 64, 5, 5]
0	0xbd443cdc	-0.047909603
1	0xbd34bad3	-0.044123482
2	0xbd8fa9b9	-0.07014794
3	0xbd1e1dd1	-0.038602654
4	0xbd883767	-0.06651192
5	0xbd8de1e3	-0.0692785
6	0xbd8cdc00	-0.06877899
7	0xbdab88cb	-0.083757006
8	0xbd9ff48f	-0.07810318
9	0xbd710f9f	-0.058852788
10	0xbda00312	-0.078130856
11	0xbd768c8c	-0.06019263
12	0xbd233f56	-0.039855324
13	0xbdad80ff	-0.0847187
14	0xbdad3169	-0.0845669
15	0xbd941253	-0.072300576
16	0xbda15096	-0.07876699
17	0xbd8a69cd	-0.06758461
18	0xbd9b6390	-0.075873494
19	0xbda146c8	-0.078748286
20	0xbd6422cc	-0.055697247
21	0xbd4fef12	-0.050765105
22	0xbd9ccb58	-0.07655972
23	0xbd8317d7	-0.064010315
24	0xbd61b4bc	-0.055104002
25	0xbd2c29ef	-0.04203218
26	0xbd9bce58	-0.07607716
27	0xbd5d4d2d	-0.05402868
28	0xbd9d01ae	-0.07666336
29	0xbdaa80e2	-0.08325364
30	0xbd9d8cb5	-0.07692853
31	0xbd311e1c	-0.043241605
32	0xbda24090	-0.079224706
33	0xbd189f4d	-0.037261296
34	0xbd2dce78	-0.042433232
35	0xbd94dfde	-0.07269262
36	0xbd8ade6a	-0.06780703
37	0xbd324df2	-0.043531366
38	0xbd71119d	-0.058854688
39	0xbd868349	-0.065680094
40	0xbd711196	-0.058854662
41	0xbd8698e9	-0.06572134
42	0xbd57366c	-0.052542135
43	0xbd22f4b2	-0.03978414
44	0xbd48378c	-0.0488811
45	0xbd575152	-0.052567787
46	0xbd23c50c	-0.03998284
47	0xbd688144	-0.056763902
48	0xbd9ebe37	-0.07751124
49	0xbd6d0bc0	-0.057872534
50	0xbd5e5820	-0.05428326
51	0xbd2fa2c5	-0.04287984
52	0xbd1387e6	-0.036018275
53	0xbd823ac2	-0.063588634
54	0xbd804b27	-0.06264334
55	0xbd174507	-0.036931064
56	0xbd173f39	-0.03692553
57	0xbd93cf80	-0.07217312
58	0xbd4bd26f	-0.049761232
59	0xbd3f89b3	-0.04676218
60	0xbd726471	-0.05917782
61	0xbd4298f4	-0.04750915
62	0xbd39fc9b	-0.04540692
63	0xbdac09fa	-0.084003404
64	0xbd43293d	-0.04764675
65	0xbd37cd26	-0.04487338
66	0xbd52acf7	-0.051434483
67	0xbda9951d	-0.08280394
68	0xbd40c50f	-0.04706293
69	0xbd10d365	-0.03535785
70	0xbd95be60	-0.07311702
71	0xbda022ac	-0.07819113
72	0xbd82c3c3	-0.06384995
73	0xbd95e1eb	-0.07318481
74	0xbd8a4198	-0.06750792
75	0xbd4934f5	-0.04912277
76	0xbda0dddf	-0.078548186
77	0xbda7d3ba	-0.081946805
78	0xbd3f4abe	-0.04670214
79	0xbd9c6159	-0.07635755
80	0xbd8de92c	-0.0692924
81	0xbd860a97	-0.065449886
82	0xbd4e7003	-0.05039979
83	0xbd877b23	-0.06615283
84	0xbd686a18	-0.056741804
85	0xbd5e4ca0	-0.054272294
86	0xbd9336aa	-0.07188161
87	0xbd6d8551	-0.05798847
88	0xbd85b034	-0.06527749
89	0xbd4f66f7	-0.050635304
90	0xbd8ecd5e	-0.069727644
91	0xbd54f9c4	-0.051996008
92	0xbd30ee69	-0.043196116
93	0xbda12c50	-0.0786978
94	0xbd2c0c03	-0.042003643
95	0xbd42fc87	-0.04760411
96	0xbd4d392e	-0.05010336
97	0xbd99a244	-0.07501653
98	0xbd89804f	-0.06713926
99	0xbd8644df	-0.06556105
100	0xbd93fac9	-0.07225568
101	0xbd898c23	-0.06716182
102	0xbd363abf	-0.04448962
103	0xbd79346e	-0.060841016
104	0xbd8d024b	-0.06885203
105	0xbd8926f6	-0.06696884
106	0xbd6688ed	-0.056282926
107	0xbda50928	-0.08058387
108	0xbd2fc700	-0.04291439
109	0xbd2ddaef	-0.04244512
110	0xbd2e00ba	-0.04248116
111	0xbd84eae2	-0.06490113
112	0xbda4350b	-0.0801793
113	0xbd35d51f	-0.0443927
114	0xbd31c959	-0.04340491
115	0xbd87c825	-0.066299714
116	0xbd5fc8d4	-0.054634884
117	0xbd2e8309	-0.042605434
118	0xbd345e3e	-0.04403519
119	0xbd67ebc9	-0.056621347
120	0xbd643a76	-0.055719815
121	0xbd6c28ae	-0.057655983
122	0xbd9e7474	-0.077370554
123	0xbd4f5095	-0.05061396
124	0xbd51d8b0	-0.05123204
125	0xbd858713	-0.06519904
126	0xbd142686	-0.03616955
127	0xbdad5067	-0.08462601
128	0xbd2a9825	-0.041649003
129	0xbd8db843	-0.06919911
130	0xbd661af9	-0.056178067
131	0xbda28760	-0.07935977
132	0xbd686147	-0.056733396
133	0xbd37063f	-0.04468369
134	0xbd3107eb	-0.04322044
135	0xbd3af2f9	-0.045641873
136	0xbd85cdf8	-0.06533426
137	0xbd29c3b2	-0.041446395
138	0xbd34d45f	-0.044147845
139	0xbd9c031d	-0.07617781
140	0xbd1b3d3f	-0.037900206
141	0xbd96fa03	-0.07371905
142	0xbd791491	-0.06081063
143	0xbda40648	-0.080090106
144	0xbd682361	-0.056674365
145	0xbd31d9b7	-0.04342052
146	0xbd9d7eaf	-0.076901786
147	0xbd578570	-0.05261749
148	0xbd8306ef	-0.06397807
149	0xbd2b90f5	-0.04188629
150	0xbd87b36a	-0.066260174
151	0xbd88aa05	-0.06673054
152	0xbd7730a4	-0.06034912
153	0xbd986c19	-0.07442493
154	0xbd8653fe	-0.06558989
155	0xbd90668e	-0.07050811
156	0xbd9c5d0a	-0.07634933
157	0xbd89819b	-0.067141734
158	0xbd700476	-0.058598004
159	0xbd4a750a	-0.049428023
160	0xbd3f2dad	-0.04667442
161	0xbd5030e6	-0.050827883
162	0xbd451030	-0.04811114
163	0xbd228a88	-0.039682895
164	0xbd25fccf	-0.0405243
165	0xbda0f4a1	-0.07859159
166	0xbdac0768	-0.0839985
167	0xbd22902d	-0.039688278
168	0xbd53c7da	-0.051704265
169	0xbd6e431f	-0.05816948
170	0xbd2be3be	-0.04196524
171	0xbd569834	-0.052391246
172	0xbd3c8dd8	-0.04603371
173	0xbd1be991	-0.038064543
174	0xbd39c271	-0.04535145
175	0xbd4cf639	-0.050039504
176	0xbd57b8ab	-0.052666347
177	0xbd8c6822	-0.06855799
178	0xbd851a5f	-0.064991705
179	0xbda830be	-0.08212422
180	0xbd13162f	-0.035909828
181	0xbd554060	-0.052063346
182	0xbd408ae3	-0.047007453
183	0xbda93c08	-0.08263403
184	0xbd8d86f6	-0.069105074
185	0xbd8b246e	-0.06794058
186	0xbd8d5cb9	-0.06902451
187	0xbd7b1b15	-0.061305124
188	0xbda7b762	-0.08189274
189	0xbdab9fb1	-0.08380068
190	0xbd8b1fc9	-0.06793172
191	0xbd56850e	-0.052372985
192	0xbd4d6c8a	-0.05015234
193	0xbd80cebc	-0.062894315
194	0xbd1e78f6	-0.038689576
195	0xbda130ee	-0.07870661
196	0xbda20ae1	-0.07912231
197	0xbd3a1699	-0.045431707
198	0xbd8ca853	-0.06868043
199	0xbd50992f	-0.050927337
200	0xbd48f58a	-0.04906229
201	0xbd67f7a5	-0.056632657
202	0xbd9bdb44	-0.07610181
203	0xbd8532e3	-0.065038465
204	0xbd8a183b	-0.06742903
205	0xbd20cf33	-0.0392601
206	0xbd1b4f9a	-0.03791771
207	0xbda31133	-0.07962265
208	0xbd68e32e	-0.05685728
209	0xbd9ad5e4	-0.07560328
210	0xbd69338b	-0.05693392
211	0xbd82da6f	-0.06389319
212	0xbd8585b9	-0.06519646
213	0xbd140c90	-0.036144793
214	0xbd4884d0	-0.048954785
215	0xbd852f66	-0.06503181
216	0xbd2d47d7	-0.04230484
217	0xbd416e89	-0.047224555
218	0xbd3a56f4	-0.04549308
219	0xbd9e0cef	-0.07717311
220	0xbd274111	-0.040833537
221	0xbd86d175	-0.065829195
222	0xbd849fdb	-0.064758025
223	0xbd5a16c8	-0.053244382
224	0xbd13667e	-0.035986416
225	0xbd1dea9e	-0.038553827
226	0xbd197d2d	-0.037472893
227	0xbd9da080	-0.076966286
228	0xbd3f7866	-0.04674568
229	0xbd41fa31	-0.04735774
230	0xbd475354	-0.048663452
231	0xbd110628	-0.03540626
232	0xbd74a851	-0.05973083
233	0xbda224e1	-0.0791719
234	0xbd58b42d	-0.052906204
235	0xbda63923	-0.08116367
236	0xbd2cd2d4	-0.04219325
237	0xbd53056f	-0.051518854
238	0xbdad07e0	-0.08448768
239	0xbd657dea	-0.056028284
240	0xbd994a05	-0.07484821
241	0xbd221cc2	-0.039578207
242	0xbd7c5edb	-0.0616139
243	0xbd933ace	-0.071889505
244	0xbd743961	-0.059625033
245	0xbda052dd	-0.07828305
246	0xbd9a88e4	-0.07545641
247	0xbd909f76	-0.07061665
248	0xbd2fb88c	-0.042900607
249	0xbda638c9	-0.081163
250	0xbd9bfa69	-0.07616121
251	0xbd98ba64	-0.07457426
252	0xbd5917b0	-0.053001106
253	0xbd3e2372	-0.046420522
254	0xbd9a7429	-0.07541687
255	0xbd941a8b	-0.07231625

conv2.bias f4 [32]
0	0xbd39c6e3	-0.04535569
1	0xbe88027d	-0.26564398
2	0xbda0b0fb	-0.07846256
3	0xbcb1886b	-0.021671494
4	0xbd37990f	-0.044823702
5	0x3d9cd93a	0.0765862
6	0xbd970c7e	-0.073754296
7	0xbd99d35e	-0.07511018
8	0xbda149e8	-0.078754246
9	0xbd512fe6	-0.05107107
10	0xbce351dc	-0.027748995
11	0x3d5a78ce	0.053337865
12	0xbd409341	-0.047015432
13	0x3dd5c4f2	0.10437955
14	0xbd731c28	-0.059353024
15	0xbd5b70c3	-0.053574335
16	0xbd950ab6	-0.072774336
17	0xbd4ac034	-0.049499705
18	0xbd295bac	-0.04134719
19	0xbda132dc	-0.07871029
20	0xbd7aefe5	-0.061263938
21	0x3e13d928	0.14438307
22	0xbd91d60b	-0.071209036
23	0xbd355f80	-0.04428053
24	0xbc2fc93c	-0.01072913
25	0xbd4964ff	-0.049168583
26	0x3e1b3399	0.15156402
27	0xbd9166f8	-0.07099718
28	0xbda643f6	-0.08118431
29	0xbd83d7cc	-0.06437644
30	0xbd1eff44	-0.03881766
31	0xbd72a1ef	-0.059236463

fc1.weight f4 [256, 32]
0	0xbd92eb70	-0.071738124
1	0x3e47421d	0.19458814
2	0x3d6f530c	0.05842881
3	0x3d15cf94	0.036574915
4	0x3e3171f0	0.1732862
5	0xbd61e9de	-0.055154674
6	0x3dab1c5e	0.0835502
7	0xbc8c0f20	-0.017097056
8	0xbde5be02	-0.11217882
9	0x3ca574d7	0.020197315
10	0xb9fadbe0	-0.00047847535
11	0xbdc2e673	-0.09516611
12	0xbdb00f06	-0.085966155
13	0x3dbabe48	0.091183245
14	0xbe0d6b78	-0.13810527
15	0x3ddc9e51	0.10772384
16	0x3df31642	0.1186948
17	0xbd14bac7	-0.036310937
18	0xbcfa4de2	-0.030554716
19	0x3de4e633	0.111767195
20	0xbe034349	-0.12818636
21	0xbe2530bf	-0.16131876
22	0x3dd646a2	0.10462691
23	0x3de78719	0.11305065
24	0x3d571bb4	0.052516654
25	0xbd9ba804	-0.07600406
26	0xbea6659e	-0.32499403
27	0x3e3fdcb1	0.18736531
28	0x3e6d108e	0.23150846
29	0xbcd90bb0	-0.02649483
30	0x3d52f5e3	0.051504027
31	0x3daec68c	0.085339636
32	0x3ce3ac61	0.027792158
33	0xbd1d47c9	-0.038398538
34	0xbd22f48e	-0.039784007
35	0xbe61b965	-0.22043379
36	0xbe07b2c8	-0.13251793
37	0xbd0463cb	-0.032321732
38	0xbd4553f9	-0.048175786
39	0xbdfd42f9	-0.1236629
40	0xbc065d63	-0.008200976
41	0x3d64fd8a	0.055905856
42	0xbe2bfead	-0.1679637
43	0xbdf2d431	-0.118568785
44	0x3e0bf132	0.13666227
45	0x3cb9c378	0.022676215
46	0x3d381320	0.044940114
47	0xbde83e18	-0.113399684
48	0xbdd37254	-0.10324541
49	0xbd419c54	-0.047268227
50	0xbe1ca2ed	-0.15296526
51	0x3d9770b3	0.073945425
52	0x3c96378a	0.01833703
53	0xbce68e64	-0.028144069
54	0x3bc1f0f9	0.0059186188
55	0x3e0fdfd8	0.14050233
56	0x3cb1e744	0.021716721
57	0xbe043a2f	-0.1291282
58	0x3ca2fc18	0.019895598
59	0x3dce5469	0.10074694
60	0x3dc81dee	0.09771334
61	0xbd9770c9	-0.07394559
62	0x3d910b34	0.07082215
63	0xbdc16dd6	-0.09444778
64	0x3dfc6189	0.12323291
65	0xbd1f3252	-0.03886635
66	0xbe347bae	-0.17625305
67	0xbd8d9892	-0.06913866
68	0x3da17eeb	0.07885536
69	0x3e2ef296	0.17084727
70	0x3e449474	0.19197255
71	0xbbabe96b	-0.0052463314
72	0x3e269434	0.16267473
73	0x3dce4d0d	0.1007329
74	0x3d3e5369	0.046466265
75	0x3e274e90	0.16338563
76	0x3e39f6d9	0.18160571
77	0x3e49d060	0.19708395
78	0xbdd7d1ba	-0.10538049
79	0x3cf24c6f	0.029577462
80	0x3e1751bb	0.14777271
81	0xbda2e4b7	-0.0795378
82	0x3b8e7c4b	0.004348313
83	0x3e3d26b7	0.184718
84	0xbddf37f7	-0.10899346
85	0x3e1b7f0f	0.15185188
86	0xbda3d644	-0.07999852
87	0x3dfb2466	0.12262802
88	0xbddd57e3	-0.10807779
89	0x3e1ac708	0.15114987
90	0x3e840181	0.25782397
91	0xbbb5e93f	-0.0055514867
92	0x3d98d3d5	0.07462279
93	0x3e0760e6	0.13220558
94	0xbd802a52	-0.06258072
95	0x3de2fe3f	0.1108365
96	0xbcc0d7d0	-0.023540407
97	0x3b430624	0.0029758299
98	0x3dff7e91	0.124753125
99	0xbd6b72b3	-0.057482433
100	0xbd69a2fc	-0.0570402
101	0xbdcd38ce	-0.100206
102	0xbdda0d01	-0.106470115
103	0x3e6d0777	0.23147379
104	0x3e2be99e	0.16788337
105	0x3c77aba1	0.015116603
106	0xbda79022	-0.08181788
107	0x3d4f06db	0.050543647
108	0x3e219b4b	0.15781896
109	0x3d0a31de	0.033738963
110	0xbe4cb485	-0.19990738
111	0xbb94e66f	-0.0045440714
112	0xbd9a2e78	-0.075283945
113	0xbe15202f	-0.14563058
114	0x3d9d2c74	0.076744944
115	0xbddee24c	-0.108830065
116	0xbe2122ad	-0.15735884
117	0x3e360e9f	0.17779015
118	0x3ddc0144	0.10742429
119	0x3db30de0	0.08742881
120	0xbcbb39eb	-0.022854766
121	0x3d4d7638	0.05016157
122	0x3dd0cf65	0.10195807
123	0x3e0043cc	0.12525862
124	0x3d4ad7f4	0.049522355
125	0xbdc6df5a	-0.0971057
126	0x3d9fe720	0.078077555
127	0xbda989d6	-0.08278243
128	0x3d285b27	0.041102555
129	0x3e5c680a	0.21524063
130	0xbd069b05	-0.032862682
131	0xbdbee1c9	-0.09320409
132	0x3dbf812f	0.09350812
133	0xbe5b6d38	-0.21428382
134	0x3c5e22cf	0.013558104
135	0xbca4b9ba	-0.020108093
136	0xbc1df172	-0.009640085
137	0x3da78828	0.081802666
138	0xbe1a0ac4	-0.1504317
139	0xbd245cf3	-0.040127706
140	0x3e70a61e	0.23500869
141	0xbc8e75e0	-0.017390192
142	0x3d62b7d2	0.055351086
143	0x3cf03287	0.029320968
144	0xbdea06bc	-0.11427066
145	0x3e05eb7b	0.1307811
146	0x3d34c497	0.044132795
147	0x3ca8b97e	0.020596262
148	0x3e0de314	0.13856155
149	0xbe047b63	-0.12937693
150	0xbda2b568	-0.07944757
151	0xbddca73d	-0.10774086
152	0xbd5a792e	-0.053338222
153	0x3e1f64f8	0.1556586
154	0xbdd4782a	-0.10374482
155	0x3daed741	0.0853715
156	0x3d93fc50	0.07225859
157	0xbd49d9ca	-0.049279965
158	0x3d994dd3	0.07485547
159	0x3e2a6da1	0.16643383
160	0x3e1cfb9a	0.15330353
161	0xbd00a793	-0.03140981
162	0xbccf482a	-0.025302965
163	0xbe212dff	-0.15740202
164	0xbe23ee13	-0.16008787
165	0xbccb384e	-0.024807122
166	0x3de97c4c	0.11400661
167	0x3dfb8837	0.1228184
168	0xbe0de0e2	-0.13855317
169	0x3a9dd634	0.0012041987
170	0xbe081b84	-0.13291746
171	0xbdcfeee4	-0.10152987
172	0x3e325e3b	0.17418759
173	0xbe7ae400	-0.24501038
174	0xbdb97c2d	-0.09056888
175	0xbe2ea0e3	-0.17053561
176	0xbd42651d	-0.04745971
177	0xbd8808ec	-0.06642327
178	0xbd9f2ce5	-0.07772235
179	0x3c9a801b	0.018859914
180	0x3d737913	0.059441637
181	0xbe1487c5	-0.14504917
182	0xbd896301	-0.067083366
183	0x3d13cae6	0.03608217
184	0xbd9f6b13	-0.07784095
185	0x3e0cbcfc	0.13743967
186	0xbdcbadd9	-0.09945268
187	0x3df1104a	0.11770685
188	0xbdd32f27	-0.10311728
189	0xbde37783	-0.111067794
190	0xbe2c0d51	-0.16801955
191	0xbd951888	-0.072800696
192	0xbd49d84b	-0.04927854
193	0xbdd684c9	-0.104745455
194	0x3dd77711	0.10520757
195	0xbd5119f9	-0.05105016
196	0xbe0bbb1e	-0.13645598
197	0xbf2d48d0	-0.6768923
198	0xbe0da0d8	-0.13830888
199	0x3ca8c0e9	0.0205998
200	0x3e137c7b	0.14402954
201	0x3d1e43bd	0.03863882
202	0x3e205f5b	0.15661375
203	0x3eda2186	0.426037
204	0x3dab1fd4	0.0835568
205	0xbf434aa6	-0.7628578
206	0xbd7ab678	-0.061209172
207	0x3d02206b	0.031769197
208	0x3c68af62	0.014201971
209	0xbe3340b5	-0.17505153
210	0xbdc5299a	-0.096270755
211	0x3e061b47	0.13096343
212	0xbdb51835	-0.08842508
213	0xbf2ede20	-0.68307686
214	0xbe29c046	-0.16577253
215	0x3e2ab6f4	0.16671354
216	0x3d3c7fa4	0.046020165
217	0xbd4305ac	-0.04761283
218	0xbec265f2	-0.37968403
219	0x3e26e483	0.16298108
220	0xbd274fcd	-0.04084759
221	0xbdd449b8	-0.10365623
222	0xbdac7973	-0.08421602
223	0xbd813212	-0.06308378
224	0x3db10aed	0.08644662
225	0x3d77c712	0.060492583
226	0x3dc60055	0.09668032
227	0xbe3aa7a3	-0.18228011
228	0x3d81c657	0.063366584
229	0x3d3e50d4	0.046463802
230	0x3dc99fab	0.098449074
231	0xbdd44692	-0.10365023
232	0x3dba6648	0.0910154
233	0x3e11fe1f	0.14257096
234	0xbe1ef5e7	-0.15523492
235	0x3dc5f8d9	0.096666045
236	0x3d043a7c	0.032282338
237	0xbe2dc052	-0.16967896
238	0xbd2a7539	-0.0416157
239	0xbe32a6b8	-0.1744641
240	0x3d6c5f91	0.057708327
241	0x3dc402f6	0.09570877
242	0xbd90579c	-0.0704796
243	0xbde1f744	-0.1103349
244	0x3dca86c3	0.09888985
245	0xbdbd0c2b	-0.092308365
246	0xbd0cd11f	-0.03437912
247	0x3e22e360	0.15907049
248	0xbd87131e	-0.06595443
249	0xbd1e24de	-0.038609378
250	0xbe50e665	-0.20400389
251	0xbd090879	-0.033455346
252	0xbd546ec9	-0.051863465
253	0xbdb12963	-0.08650472
254	0x3cdd438a	0.027009744
255	0xbe299a57	-0.16562782

fc1.bias f4 [256]
0	0x3e981443	0.29702958
1	0xbe2caebf	-0.16863535
2	0xbdea4b33	-0.11440124
3	0xbcf0caf9	-0.02939366
4	0x3e28b363	0.1647468
5	0xbd5edba3	-0.05440868
6	0x3d843a65	0.064564504
7	0xbe8d5d4e	-0.27610248
8	0xbe0441f7	-0.12915789
9	0x3ea0a929	0.3137906
10	0x3e9da58e	0.3079037
11	0xbe0bb55f	-0.13643406
12	0xbd84ff34	-0.06493989
13	0x3e028de2	0.12749436
14	0xbdf3082c	-0.11866793
15	0xbe6ac731	-0.22927548
16	0x3dd3eaec	0.10347542
17	0x3eae8a57	0.3408992
18	0xbdb3c085	-0.087769546
19	0xbd8f5746	-0.06999068
20	0xbc2bf7c3	-0.010496083
21	0xbd985f19	-0.074400134
22	0xbe148066	-0.14502105
23	0x3e9b8210	0.30372667
24	0xbdbf12db	-0.09329768
25	0x3cb48f81	0.022041084
26	0xbe30e273	-0.17273884
27	0xbbc2ff08	-0.0059508123
28	0xbd46ad18	-0.04850492
29	0xbd874945	-0.06605772
30	0xbe0de438	-0.1385659
31	0xbdee4bc4	-0.11635545
32	0xbde106f5	-0.10987655
33	0xbdfeabf3	-0.124351405
34	0xbe45c5e8	-0.19313776
35	0xbdc809fd	-0.0976753
36	0xbda6bbfb	-0.08141323
37	0x3ea1eefb	0.3162764
38	0xbe647cda	-0.22313252
39	0x3d4967ca	0.049171247
40	0xbe0637d6	-0.13107237
41	0x3f13a75b	0.5767724
42	0xbe525131	-0.20538785
43	0xbe7c9fcb	-0.24670331
44	0xbdc10d2c	-0.094263405
45	0xbdba03f1	-0.09082783
46	0x3c6954c6	0.014241403
47	0x3eb3b5ea	0.35099727
48	0xbea16761	-0.31524184
49	0x3ec6b33b	0.38808617
50	0x3eb28852	0.3486963
51	0x3df09ce4	0.117486745
52	0xbe653f2f	-0.22387384
53	0xbd7c6394	-0.061618403
54	0xbcef4e3e	-0.029212113
55	0xbd0aa241	-0.033846144
56	0xbdebd63f	-0.115154736
57	0xbde99ef8	-0.11407274
58	0x3df3c950	0.11903632
59	0x3ed5903d	0.41711608
60	0x3ea8999d	0.32929698
61	0x3e8670e2	0.26257998
62	0x3ebdc1ce	0.37061924
63	0x3d905f38	0.070494115
64	0xbe571a0a	-0.21006027
65	0xbda2e9c9	-0.07954747
66	0xbe10f7dd	-0.14157052
67	0xbe83736e	-0.25674003
68	0xbe48952c	-0.19588155
69	0xbe944e3f	-0.28965947
70	0x3d8d7b9f	0.069083445
71	0xbe337682	-0.17525676
72	0xbce95621	-0.028483452
73	0xbdb610d4	-0.088899285
74	0xbcee2f3b	-0.029075256
75	0x3e91a013	0.2844244
76	0x3e67eaaf	0.22648118
77	0xbd8b75e0	-0.06809592
78	0xbdd8616f	-0.10565459
79	0x3e9381fe	0.28810114
80	0x3eaa9da7	0.33323404
81	0x3e9aa201	0.30201724
82	0x3dac6039	0.084167905
83	0x3d8cd1a3	0.068759225
84	0x3dbf685a	0.09346075
85	0x3e4ff175	0.20306952
86	0xbd4b7c1a	-0.0496789
87	0xbd966c64	-0.073448926
88	0xbe4d6dec	-0.20061463
89	0xbd6499ef	-0.055810865
90	0xbcb7c996	-0.02243499
91	0x3d31cd01	0.043408398
92	0xbe0de3f3	-0.13856487
93	0xbdb58ee4	-0.08865145
94	0xbda86372	-0.08222093
95	0x3ea56452	0.323031
96	0xbd9bee30	-0.0761379
97	0x3bc4502f	0.005991004
98	0xbdc93a88	-0.09825617
99	0xbd9d960a	-0.07694633
100	0xbd74c2c1	-0.059756044
101	0xbe1a1d0e	-0.15050146
102	0xbda9fdfc	-0.08300397
103	0xbe19dfc6	-0.15026769
104	0xbe04a61b	-0.12953989
105	0xbd4d1b94	-0.05007513
106	0xbd23200e	-0.03982549
107	0xbdf7a5b4	-0.12092152
108	0x3e0cce1f	0.13750504
109	0xbdc9ee91	-0.09859956
110	0xbd4cf6e3	-0.050040137
111	0xbdca2edc	-0.09872219
112	0x3d587fe1	0.05285633
113	0xbde78cc8	-0.11306149
114	0x3d2581b6	0.040406905
115	0x3eb0a990	0.34504366
116	0x3e63cde3	0.22246508
117	0xbe2e5a31	-0.17026593
118	0xbd8091e0	-0.062778234
119	0xbe572a9f	-0.21012352
120	0xbda8934e	-0.08231221
121	0xbd8cb3e0	-0.06870246
122	0xbd0b6d00	-0.034039497
123	0xbe654312	-0.22388867
124	0xbe84e4c1	-0.25955775
125	0xbd8d373d	-0.068953015
126	0x3ea5550c	0.32291448
127	0xbdad2c4b	-0.08455714
128	0xbe18733a	-0.14887705
129	0x3e4cf6a0	0.20015955
130	0xbde40900	-0.11134529
131	0xbdad28f0	-0.08455074
132	0x3d4e3938	0.050347537
133	0xbc879e4c	-0.016554974
134	0xbdd8e731	-0.10590971
135	0x3e4a0791	0.19729449
136	0x3e891f88	0.2678187
137	0xbe81304a	-0.25232154
138	0xbdaeeab8	-0.08540863
139	0xbe8acba3	-0.27108487
140	0x3d05df67	0.032683756
141	0x3e3d6ef8	0.18499362
142	0x3c5be219	0.013420605
143	0xbe86932e	-0.26284164
144	0xbe197e64	-0.1498962
145	0x3e6066b3	0.21914177
146	0xbdf5189b	-0.11967584
147	0xbd0400c6	-0.0322273
148	0x3a81d917	0.0009906617
149	0xbd26ab2f	-0.040690597
150	0xbe158f6d	-0.14605494
151	0xbe911f8b	-0.28344378
152	0xbdb7e82d	-0.08979831
153	0xbe26720d	-0.16254444
154	0xbcadc621	-0.02121264
155	0xbe6cbd0c	-0.2311899
156	0xbec56940	-0.38556862
157	0xbe221b0c	-0.1583063
158	0xbc16f29c	-0.009213116
159	0xbda6de14	-0.08147827
160	0xbe125b19	-0.14292563
161	0xbe865c5e	-0.26242346
162	0xbe52859b	-0.20558779
163	0xbe3f5030	-0.18682933
164	0xbd64dd1a	-0.05587492
165	0x3edcf3e9	0.4315484
166	0xbe311ba4	-0.172957
167	0xbdca3d74	-0.098750025
168	0xbe403f53	-0.18774156
169	0x3ddae399	0.10687942
170	0x3c6aabbf	0.014323174
171	0xbe0dcbaf	-0.1384723
172	0x3ead5442	0.33853346
173	0xbc92b80f	-0.017910032
174	0xbe942192	-0.28931862
175	0xbe21f1a2	-0.15814832
176	0xbe4c4806	-0.1994935
177	0xbdf222dc	-0.11823055
178	0xbd965a18	-0.07341403
179	0xbd6e3671	-0.058157388
180	0xbe36fa2f	-0.17868875
181	0xbe65a3fb	-0.22425835
182	0x3db49348	0.08817154
183	0xbe1e53d5	-0.15461667
184	0xbbe1c94a	-0.0068904506
185	0x3e298514	0.16554672
186	0xbe0b7bd1	-0.13621451
187	0xbdf46edb	-0.119352065
188	0xbdb796c3	-0.089643024
189	0xbdbddbe9	-0.0927046
190	0x3ecf1bb1	0.40450814
191	0xbdd2aa97	-0.10286444
192	0xbe319150	-0.17340589
193	0xbe04c334	-0.12965089
194	0x3e423126	0.18964061
195	0xbe3b9acf	-0.18320774
196	0x3eb35b09	0.35030392
197	0xbe21c12e	-0.15796348
198	0xbcfaff5b	-0.030639341
199	0x3ea6491f	0.32477662
200	0xbd588727	-0.052863266
201	0x3eb78666	0.35844725
202	0xbe0203d2	-0.1269677
203	0x3db42201	0.08795548
204	0xbdd75024	-0.105133325
205	0xbe479fc9	-0.19494547
206	0xbe31bcf7	-0.1735724
207	0x3c1ae368	0.009453632
208	0xbe81763f	-0.25285527
209	0xbe2e5384	-0.17024046
210	0xbc5eee99	-0.013606691
211	0xbe4f15ce	-0.20223162
212	0xbe3e15c9	-0.18562998
213	0xbe38c9bb	-0.18045704
214	0xbd3d5dd3	-0.046232056
215	0x3ea1bf97	0.31591484
216	0xbe0d7a94	-0.13816291
217	0xbe3e3dba	-0.18578234
218	0xbe0f4853	-0.13992433
219	0x3ec1deda	0.37865335
220	0xbe0030ea	-0.12518659
221	0x3ea9d724	0.33171952
222	0x3ef105ae	0.47074646
223	0xbd6954f4	-0.056965783
224	0x3e665779	0.22494306
225	0xbe83681a	-0.2566536
226	0xbe84efcf	-0.2596421
227	0xbe5362e9	-0.206432
228	0x3d8360d4	0.06414953
229	0x3e9e4ce7	0.30918047
230	0xbe23b808	-0.15988171
231	0xbdb0691d	-0.08613799
232	0xbdfe547a	-0.124184564
233	0xbe1f462a	-0.15554109
234	0xbda0c17f	-0.078494065
235	0xbdf31139	-0.11868519
236	0xbcdafc9b	-0.02673178
237	0xbc90dccb	-0.017683407
238	0x3e8fba19	0.2807167
239	0xbd6035d7	-0.054738846
240	0xbd373da7	-0.04473653
241	0xbd36f593	-0.04466779
242	0xbdd5e5eb	-0.10444244
243	0xbc86fdcf	-0.016478447
244	0xbe11a801	-0.14224245
245	0xbe25b138	-0.16180885
246	0xbe023d69	-0.12718739
247	0xbda5ad1f	-0.08089661
248	0xbddcf0da	-0.10788126
249	0xbb4ac482	-0.0030939882
250	0xbd61596a	-0.055016913
251	0xbdf81b2d	-0.12114558
252	0x3ea208d6	0.31647366
253	0xbe355fff	-0.17712401
254	0xbe3b280f	-0.18277
255	0x3e56195a	0.20908108

fc2.weight f4 [128, 256]
0	0xbce88d84	-0.028387792
1	0xbbbb99b0	-0.005725108
2	0xbb576a20	-0.0032869652
3	0xbd2bb086	-0.041916393
4	0x3d1367e6	0.035987757
5	0xbd0b7c92	-0.034054346
6	0xbc8481a4	-0.016175099
7	0x3bd4e890	0.00649745
8	0xbd3c85ac	-0.046025917
9	0xbd47604a	-0.048675813
10	0x3d1b3d3e	0.037900202
11	0xbcd0d6ec	-0.025493108
12	0x3ca035e0	0.01955694
13	0xbc504718	-0.012712263
14	0xba082200	-0.00051930547
15	0x3cbbf6c8	0.022944823
16	0xbd2c484c	-0.042061135
17	0xbd50be72	-0.050962873
18	0x3c7dd768	0.015493251
19	0xbd427c00	-0.047481537
20	0xbd42a6e4	-0.04752244
21	0x3c90a7a4	0.017658062
22	0xbd33e844	-0.043922678
23	0x3ca7062c	0.020388685
24	0xbd7eeb00	-0.062235832
25	0xbd203bee	-0.039119653
26	0x3d546bc0	0.05186057
27	0xbc8a0c84	-0.016851671
28	0x3d76eef8	0.060286492
29	0x3c8d3b20	0.017240107
30	0x3cfa98d0	0.030590445
31	0x3b3855e0	0.0028127357
32	0x3d3f0974	0.046639875
33	0xbc9d4df8	-0.019202217
34	0xbc3f8db8	-0.011691503
35	0xbc0e81e0	-0.008697957
36	0x3d4d0d4e	0.050061516
37	0x3b363380	0.0027801692
38	0xbd28d2d2	-0.04121668
39	0x3b5ec4a0	0.003399171
40	0xbd76044e	-0.0600627
41	0x3cfda104	0.030960567
42	0x3bd8d0f0	0.006616704
43	0x3d72fdc8	0.059324056
44	0xbd5c6a02	-0.053812034
45	0xbd64cb96	-0.055858217
46	0xbccaccf8	-0.02475594
47	0xbc3f9f30	-0.011695668
48	0x3c799710	0.01523377
49	0xba13b080	-0.00056339055
50	0x3d4adf78	0.049529523
51	0x3c9a5560	0.018839538
52	0xbcf32738	-0.029681787
53	0x3c3f0350	0.011658505
54	0xbd0d985a	-0.034569122
55	0x3cdd125c	0.026986293
56	0x3c960ef4	0.018317677
57	0x3c326c38	0.010890059
58	0x3d0534e4	0.032521144
59	0xbd2fd82a	-0.04293076
60	0x3b9ec400	0.0048451424
61	0xbd2a8546	-0.041631006
62	0xbd5ef030	-0.05442828
63	0xb8a88c00	-8.036941e-05
64	0xbd4b3ba8	-0.04961744
65	0x3d13d01e	0.036087148
66	0x3c3f9e78	0.011695497
67	0xbd67ffb4	-0.056640342
68	0xbbb7f300	-0.0056136847
69	0x3c78e718	0.015191816
70	0xbd6edc5c	-0.05831562
71	0x3d529826	0.05141463
72	0x3d3c8776	0.046027623
73	0xbc001cb8	-0.007819347
74	0x3d454c9a	0.048168756
75	0x3d131efe	0.03591823
76	0x3b20f280	0.0024558604
77	0x3d067a28	0.03283134
78	0xbd738452	-0.059452362
79	0xbc1a0bf8	-0.009402268
80	0x3d07b0cc	0.03312759
81	0xbd671ffa	-0.05642698
82	0x3ceb9abc	0.028760307
83	0xbd610fe2	-0.054946788
84	0xbd1a6430	-0.037693202
85	0x3d0916ec	0.033469126
86	0xbbcfc390	-0.0063404515
87	0xbc3ba1b8	-0.011452131
88	0x3c7d9590	0.015477553
89	0xbb4052e0	-0.0029346272
90	0x3d0e0be2	0.0346793
91	0x3bf95f80	0.0076102614
92	0x3d49a272	0.049227186
93	0xbc593410	-0.013257042
94	0x3cb3f158	0.021965668
95	0xbd517c94	-0.051144198
96	0xbd315386	-0.043292545
97	0x3c5ae5a0	0.013360411
98	0x3c76af20	0.0150564015
99	0xbc26cff8	-0.01018142
100	0x3cab3e4c	0.020903729
101	0xbd2df3fa	-0.042469002
102	0xbcd0b600	-0.02547741
103	0xbd41919e	-0.047258012
104	0x3d26a3bc	0.040683493
105	0xbd1c3d34	-0.038144305
106	0x3bb7d410	0.0056099966
107	0x3d5bced2	0.053664036
108	0x3d57c9a4	0.052682534
109	0x3c622418	0.013802551
110	0xbccf58f0	-0.025310963
111	0xbd3323aa	-0.043735184
112	0xbbc665b0	-0.0060546026
113	0xbcde10e8	-0.02710767
114	0xbd1b02fc	-0.037844643
115	0x3d1c0d98	0.0380989
116	0xbc017e18	-0.007903598
117	0xbd4df4fa	-0.050282456
118	0xbc474b50	-0.012163952
119	0x3d272154	0.04080327
120	0x3d0acc12	0.033886023
121	0x3d141bc6	0.0361593
122	0x3d568442	0.052372225
123	0xbc0a1330	-0.008427426
124	0x3cc787b8	0.024356708
125	0xbd52b408	-0.051441222
126	0x3ce92134	0.028458215
127	0xb96c1e00	-0.0002251789
128	0xbd78a15e	-0.060700767
129	0xbbb10990	-0.0054027513
130	0xbd392b22	-0.04520715
131	0x3c573998	0.01313629
132	0x3a837900	0.0010030568
133	0xbc0db418	-0.008648895
134	0xbcdfb9cc	-0.027310275
135	0xbd7b7820	-0.061393857
136	0x3d0d1382	0.034442432
137	0x3d701fee	0.0586242
138	0xbc7fc958	-0.015611969
139	0xbc8b2bb4	-0.016988613
140	0x3c0af4b8	0.008481197
141	0x3cc758e4	0.024334379
142	0x3a90d2c0	0.0011049137
143	0xbd3b2414	-0.045688704
144	0xbd6ae002	-0.057342537
145	0xbd58df72	-0.05294747
146	0xbd1e6556	-0.03867086
147	0xbcc3b898	-0.023891732
148	0xbd6a9aea	-0.057276644
149	0xbb2985c0	-0.0025867075
150	0x3d459212	0.048235007
151	0xbc90dad0	-0.017682463
152	0xbcf6f0f0	-0.030144185
153	0x3d0e4776	0.03473612
154	0x3d7fbab8	0.06243393
155	0xbd17d43e	-0.037067644
156	0x3c95e680	0.018298388
157	0x3d214da8	0.0393807
158	0xbd467e6e	-0.048460416
159	0x3d4862ce	0.048922352
160	0xbd6bac3e	-0.05753731
161	0xbd7ce492	-0.06174142
162	0xbcf2b700	-0.029628277
163	0xbc086fb0	-0.00832741
164	0xbc956064	-0.01823444
165	0x3cd074c4	0.025446303
166	0xbcf7b7c4	-0.030238993
167	0xbd2864ba	-0.041111685
168	0x3d45e97a	0.048318364
169	0xbc3edce0	-0.01164934
170	0x3d13a90e	0.036049895
171	0x3c5252f8	0.012837164
172	0x3d1d7132	0.03843803
173	0xbcbdfdc0	-0.023192286
174	0x3af9d940	0.0019061938
175	0x3d573de0	0.052549243
176	0xbc170d70	-0.009219512
177	0xbca77378	-0.020440802
178	0xbcbc8388	-0.023011938
179	0xbc6b9ae8	-0.014380194
180	0x3d059a56	0.03261789
181	0x3d21f89c	0.039543733
182	0x3d773df4	0.060361817
183	0xbd1a4a14	-0.037668303
184	0xbc24dab8	-0.010061912
185	0xbce9e984	-0.028553732
186	0xbcbeec4c	-0.023306035
187	0x3c625278	0.013813607
188	0x3d5739e6	0.05254545
189	0xbb0723a0	-0.00206206
190	0xbd074f7c	-0.033034787
191	0xbcb9c954	-0.022679009
192	0x3cba6d88	0.022757307
193	0xbcd886b4	-0.026431419
194	0xbbeb38a0	-0.007178381
195	0x3c08e320	0.008354932
196	0x3c906a28	0.017628744
197	0x3d5cf424	0.05394377
198	0xbd05beb0	-0.032652557
199	0xbd12adee	-0.035810404
200	0x3cd8cfe4	0.026466317
201	0x3d649e8e	0.055815272
202	0xbd7dd5ba	-0.061971404
203	0x3ccef500	0.02526331
204	0xbcec3110	-0.028831989
205	0x3bf70940	0.0075389445
206	0x3d1bdcb0	0.03805226
207	0xbcba0d8c	-0.022711538
208	0x3ce4fd6c	0.027952872
209	0x3d0320f0	0.032013834
210	0xbd6a1aba	-0.057154395
211	0x3d36250e	0.04446893
212	0x3c452d00	0.012034655
213	0xbc287290	-0.01028122
214	0x3c400c70	0.011721715
215	0xbd7ef578	-0.062245816
216	0xbd6f2c44	-0.058391824
217	0x3c62c078	0.013839833
218	0x3cd1ad68	0.025595382
219	0xbd087cb6	-0.03332206
220	0x3d42a20c	0.04751782
221	0x3cff45ac	0.031161152
222	0xbd49eb60	-0.049296737
223	0x3d3e4b10	0.046458304
224	0x3ca753b8	0.020425662
225	0x3d4dbaf4	0.05022712
226	0xbd5aa49c	-0.05337964
227	0xbd05e55c	-0.032689437
228	0xbd5be9b2	-0.053689666
229	0x3ce61004	0.028083809
230	0xbcd88f10	-0.026435405
231	0x3bc51420	0.006014362
232	0x3d35b472	0.04436154
233	0xbd289b74	-0.041163877
234	0xbd7cb826	-0.061699055
235	0xbcbaf6fc	-0.02282285
236	0x3d403216	0.046922766
237	0xbc327dd0	-0.010894254
238	0x3bc2f4f0	0.005949609
239	0x3c93d588	0.018046156
240	0xbcc36650	-0.023852497
241	0x3cd7de28	0.02635105
242	0x3c81ad20	0.015829623
243	0xb9570000	-0.00020503998
244	0xbd799cea	-0.06094066
245	0x3d52a32a	0.051425137
246	0x3d5c9942	0.053857096
247	0x3c43edf0	0.011958584
248	0xbd004634	-0.03131695
249	0xbd63d0ba	-0.05561898
250	0x3c124ef8	0.00892996
251	0x3ce6b3b4	0.028161861
252	0x3cf56a60	0.02995795
253	0x3cdac70c	0.026706241
254	0xbd755770	-0.05989784
255	0x3cf332a8	0.02968724

fc2.bias f4 [128]
0	0xbd27d1f2	-0.040971704
1	0xbcad8300	-0.02118063
2	0x3d40734c	0.046984956
3	0x3d1a9829	0.037742767
4	0xbdcb2c66	-0.09920578
5	0xbdd6e799	-0.104933925
6	0x3d3bec10	0.045879424
7	0xbdb63900	-0.08897591
8	0x3d93d099	0.07217521
9	0x3d07d78e	0.033164553
10	0xbcd431e6	-0.0259027
11	0xb8bd9c5b	-9.041346e-05
12	0xbd8325b2	-0.06403674
13	0xbd85bc86	-0.065300986
14	0x3ed4401b	0.4145516
15	0xbc652e78	-0.01398813
16	0xbd5cf0ce	-0.053940587
17	0x3da2b454	0.07944551
18	0xbd0148b4	-0.031563476
19	0x3dbdbd8d	0.092646696
20	0xbd9f9d6c	-0.07793698
21	0xbdb2f4ef	-0.087381236
22	0xbd56b2ce	-0.052416615
23	0x3d39d6a2	0.045370705
24	0xbc94d308	-0.018167034
25	0xbcac8580	-0.021059752
26	0xbdeb873b	-0.115004025
27	0x3d202275	0.03909536
28	0x3c3bb568	0.011456825
29	0xbdb1474a	-0.086561754
30	0xbdb5457b	-0.08851143
31	0xbd6eec5d	-0.058330882
32	0xbc54206b	-0.012947182
33	0xbd6961a8	-0.056977898
34	0xbdac02f2	-0.08398999
35	0xbcccdddc	-0.025008135
36	0xbd61d316	-0.055132948
37	0xbce3395a	-0.027737308
38	0xbdc0e00d	-0.09417734
39	0xbc8fa2a3	-0.017533606
40	0x3c473b2c	0.012160104
41	0x3d185487	0.037189987
42	0xbe67af28	-0.2262541
43	0xbcee6e33	-0.029105281
44	0xbd12cdb1	-0.035840694
45	0xbe30fa7e	-0.17283055
46	0xbced028c	-0.028931879
47	0xbc8c86eb	-0.017154178
48	0xbd2cf11a	-0.04222212
49	0xbd42c581	-0.047551636
50	0xbd09b774	-0.03362222
51	0xbdbab344	-0.091162235
52	0xbbaae26e	-0.005214981
53	0xbb2e6070	-0.0026607774
54	0xbc9d3898	-0.019192025
55	0x3caf27e7	0.021381332
56	0xbd2aecb5	-0.041729648
57	0xbd027c74	-0.03185697
58	0xbd1b0e53	-0.037855458
59	0x3cf1172d	0.029429996
60	0x3d383840	0.04497552
61	0xbd002149	-0.031281743
62	0x3ce89016	0.028389018
63	0xbc3c80e6	-0.011505341
64	0xbcea5277	-0.028603775
65	0xbc154587	-0.009110815
66	0xbdce6514	-0.10077873
67	0xbdb56c10	-0.08858502
68	0xbd280765	-0.041022677
69	0xbc8e467c	-0.017367594
70	0xbc2f839a	-0.010712529
71	0xbdc76f61	-0.09738041
72	0xbcfb8c6b	-0.030706605
73	0xbde0f988	-0.10985094
74	0xbdae5a22	-0.08513285
75	0x3d81b5bc	0.06333491
76	0x3d6f344b	0.05839948
77	0xbd1fbeb0	-0.039000213
78	0x3ccd8f38	0.025092706
79	0xbd20772f	-0.039176162
80	0xbdf5e1d1	-0.12005962
81	0x3c1f68b9	0.009729558
82	0x3bccb93b	0.006247667
83	0xbd3e50e3	-0.04646386
84	0xbdaad898	-0.08342093
85	0xbdc0fbd0	-0.094230294
86	0xbca98fd1	-0.02069846
87	0xbd7b3a2d	-0.061334778
88	0xbb9d1536	-0.0047937883
89	0xbdb9dbc3	-0.09075119
90	0x3d941380	0.07230282
91	0xbb782d2c	-0.0037868721
92	0xbdbd5199	-0.09244079
93	0x3d2a5bcf	0.04159146
94	0xbd32226d	-0.043489862
95	0xbb3edd68	-0.0029123668
96	0x3cf7ba76	0.030240279
97	0xbc5d52f8	-0.013508551
98	0xbd19e9f5	-0.037576634
99	0xbd91c6ba	-0.07117982
100	0x3dacb93d	0.08433769
101	0xbd8ddbb4	-0.06926671
102	0xbdba09ca	-0.09083898
103	0xbda69526	-0.081339166
104	0x3d2ae656	0.04172357
105	0xbcc3ea09	-0.023915308
106	0x3bf651df	0.007517084
107	0x3d438dab	0.047742527
108	0xbd3fb379	-0.046802018
109	0xbd139006	-0.036026023
110	0xbd9e1d0a	-0.077203825
111	0xbde603f7	-0.11231225
112	0xbc92a883	-0.017902618
113	0xbd1697f0	-0.036765993
114	0xb9dfeafe	-0.00042708957
115	0x3d80291d	0.06257842
116	0x3c8fc7fb	0.017551413
117	0xbd4f31e1	-0.050584678
118	0x3c2d24e6	0.010567879
119	0x3d8d2e47	0.06893592
120	0xbd04a7f4	-0.032386735
121	0x3ccc7d07	0.024961961
122	0x3db3ef93	0.087859295
123	0x3d3397e4	0.043846026
124	0xb97169d0	-0.00023022969
125	0xbe0f18ea	-0.13974348
126	0xbc9f8cd4	-0.019476332
127	0xbd826498	-0.06366843

fc3.weight f4 [2, 128]
0	0x3d91f40f	0.071266286
1	0x3def108f	0.1167308
2	0x3d39a554	0.045323685
3	0x3ddbb40a	0.10727699
4	0x3e101a4b	0.1407253
5	0x3d2f4c53	0.042797398
6	0x3e010db7	0.12602888
7	0xbc8f4290	-0.017487794
8	0x3e042a2c	0.12906712
9	0x3c66bde7	0.014083362
10	0xbcc99684	-0.024607904
11	0x3d0509ce	0.032480054
12	0x38c5a611	9.424624e-05
13	0xbc63dfc8	-0.013908334
14	0xbec3f00e	-0.38269085
15	0xbd8167eb	-0.06318649
16	0x3cd72b05	0.02626563
17	0xba45fe60	-0.00075528584
18	0xbcc06e6e	-0.023490157
19	0xbda5b90a	-0.08091934
20	0x3c9bf282	0.019036535
21	0x3ce090f1	0.027412863
22	0xbd95836b	-0.073004566
23	0x3b65322f	0.0034972539
24	0x3cdb3e04	0.02676297
25	0xbb0eb209	-0.0021773598
26	0xbce21f05	-0.027602682
27	0x3d58609c	0.05282651
28	0xbda5b202	-0.08090593
29	0x3deb104e	0.11477719
30	0xbd9e5f4e	-0.07733022
31	0x3c6a5161	0.014301629
32	0x3c836f6a	0.016044337
33	0xbcbc9270	-0.023019046
34	0xb98b10ca	-0.00026524655
35	0x3d99c838	0.07508892
36	0xbcaf2a0f	-0.02138236
37	0x3db50ad2	0.088399544
38	0xbc7f2422	-0.01557258
39	0x3dba3a02	0.09093095
40	0x3e11ae3c	0.14226621
41	0x3d864ece	0.065579996
42	0x3c38ffb6	0.011291435
43	0x3833e178	4.288691e-05
44	0x3d5734dd	0.05254065
45	0xbd1a97b3	-0.037742328
46	0x3da07aed	0.07835946
47	0x3d9da75a	0.076979354
48	0xbb348750	-0.0027546473
49	0x3e000345	0.12501247
50	0x3db46044	0.08807424
51	0xbc9d94fd	-0.019236082
52	0x3d69f701	0.057120327
53	0xbca27dc1	-0.019835355
54	0xbce7cf8f	-0.028297214
55	0x3d2e8b3b	0.04261325
56	0xbd99559b	-0.07487031
57	0x3d06ad78	0.032880276
58	0xbd71fa12	-0.059076376
59	0x3d2defee	0.042465143
60	0x3db3cd06	0.087793395
61	0x3b8c00a5	0.004272538
62	0xbb454319	-0.0030099808
63	0x3c63fbd5	0.013915022
64	0x3d2358a4	0.039879456
65	0xbc02ee84	-0.007991437
66	0xbe15cd01	-0.14628984
67	0xbd8b57f6	-0.068038866
68	0x3d615b78	0.055018872
69	0xbbaf1e36	-0.0053441776
70	0x3d047fdf	0.03234851
71	0x3d0c270b	0.03421692
72	0x3d0b10d3	0.03395159
73	0xbd88c1b6	-0.066775724
74	0xbd6e4892	-0.058174677
75	0xbe553313	-0.20820265
76	0x3e32d476	0.1746386
77	0xbd4658be	-0.048424475
78	0x3db31bb3	0.087455176
79	0x3d9e2172	0.07721223
80	0x3d292b3b	0.041300993
81	0x3e034988	0.12821019
82	0xbd16eaad	-0.036844898
83	0x3d002272	0.03128285
84	0xbce4ccdd	-0.027929718
85	0x3c4278c4	0.011869613
86	0x3d92556d	0.071452
87	0xbc9e5360	-0.019326866
88	0x3d96ce3a	0.07363553
89	0x3dc27bd2	0.09496273
90	0x3df4f8a6	0.119614884
91	0x3c0dddeb	0.008658866
92	0x3ccac345	0.024751315
93	0xbd882426	-0.0664752
94	0x3d5ae4c1	0.053440813
95	0x3d9ec0c4	0.07751611
96	0x3d9986a3	0.07496383
97	0x38f99ca6	0.00011902423
98	0x3d34f7e1	0.04418171
99	0x3d611e8b	0.05496077
100	0xbd359c58	-0.044338554
101	0x3ddf3000	0.10897827
102	0x3c43b6c1	0.011945427
103	0x3db14c04	0.08657077
104	0x3d614f0d	0.05500703
105	0x3c9768b2	0.01848254
106	0x3dbf4661	0.093395956
107	0x3d1710ac	0.036881134
108	0x3d4cf2de	0.050036304
109	0xbba6c008	-0.00508881
110	0x3d9b6753	0.07588067
111	0x3db8b665	0.09019164
112	0x3c48bebf	0.012252509
113	0x3cf75701	0.030192854
114	0x3c2422c9	0.010018059
115	0x3dd66b72	0.10469712
116	0x3e0cb910	0.1374247
117	0x3d0c0150	0.03418094
118	0x3c9b7c0b	0.018980047
119	0x3e16815a	0.14697781
120	0x3c414f44	0.011798684
121	0xbc5b905c	-0.013401117
122	0x3dab39fe	0.083606705
123	0x3cc90c7c	0.024542086
124	0x3ddbd510	0.10733998
125	0xbd30e036	-0.043182574
126	0xbc53f77f	-0.012937426
127	0xbc7378ef	-0.014860376
128	0x3d946aea	0.07246955
129	0x3c22e28f	0.009941711
130	0xbe00311e	-0.12518737
131	0xbd80046b	-0.06250843
132	0x3ca58c55	0.020208517
133	0xbcedcc63	-0.029028123
134	0xbe098546	-0.13429746
135	0x3d000ba3	0.031261098
136	0xbdfc0e9a	-0.123074725
137	0xbdada988	-0.08479601
138	0xbe0f340a	-0.13984695
139	0xbcb187a1	-0.021671118
140	0xbcd4bb12	-0.025968108
141	0xbd31c2ab	-0.04339854
142	0x3ee927bf	0.45538136
143	0x3ce9c815	0.02853779
144	0x3ba4af90	0.0050258115
145	0xbce3d3eb	-0.027811011
146	0xbd2e7b6f	-0.042598184
147	0xbcf0e1d6	-0.029404562
148	0x3c48b03b	0.012249048
149	0xbdb35401	-0.08756257
150	0x3d1645fd	0.03668784
151	0x3ddb24e9	0.107003994
152	0x3c2607a7	0.01013366
153	0xbdac5f46	-0.084166095
154	0xbe09d50e	-0.1346018
155	0xbdd5e17d	-0.10443399
156	0xbc5e0d3e	-0.013552962
157	0x3c350746	0.011049097
158	0x3da550d5	0.08072058
159	0xbdfc1897	-0.12309378
160	0x3d8c1a6e	0.068409786
161	0xbd1ebea8	-0.038756043
162	0xbd900d05	-0.07033733
163	0xbd0da250	-0.03457862
164	0xbdb181b9	-0.08667321
165	0xbcaa7e8d	-0.020812297
166	0x3d3497b7	0.04409
167	0xbdc35395	-0.095374264
168	0xbd955617	-0.07291811
169	0xbd981489	-0.07425792
170	0x3c82eb28	0.015981272
171	0xbc8ef7dd	-0.017452175
172	0x3d924cf5	0.07143585
173	0x3d12270d	0.035681773
174	0x3d1f1ab2	0.038843818
175	0xbc58cea1	-0.013232858
176	0x3d4c38d7	0.049858894
177	0x3ca31a30	0.019909948
178	0xbd71974e	-0.058982186
179	0x3d9edb6b	0.077566944
180	0xba7a1f61	-0.0009541419
181	0x3db5410d	0.08850298
182	0x3deba731	0.115064986
183	0xbd6a7b55	-0.057246525
184	0x3d810fee	0.063018665
185	0xbc9d8773	-0.019229626
186	0x3d98a93a	0.074541524
187	0x3d80158f	0.06254112
188	0xbd20ba6f	-0.039240297
189	0xbd62fe3b	-0.055418234
190	0xbd11a3e2	-0.03555668
191	0xbab81180	-0.0014043301
192	0xbd4d8d62	-0.05018366
193	0x3df1da71	0.118092425
194	0x3d74ade9	0.059736166
195	0xbd3775a8	-0.04478994
196	0xbd02203d	-0.031769026
197	0xbccb3769	-0.024806695
198	0x3dbe7a50	0.09300673
199	0x3de659e7	0.11247616
200	0xbd9ba6c9	-0.07600171
201	0x3d1760a9	0.036957417
202	0xbcbf5be7	-0.023359252
203	0x3e2c3dd9	0.16820468
204	0xbe33c64d	-0.17556114
205	0xbda49f7c	-0.08038232
206	0xbbcd30ec	-0.0062619355
207	0x3c6fca62	0.014635654
208	0x3c45b09f	0.0120660355
209	0xbdffcbe8	-0.12490064
210	0xbbc4d83f	-0.006007224
211	0xbd417d07	-0.047238376
212	0x3d5ec34a	0.05438546
213	0xbd397864	-0.04528083
214	0x3c19a8ed	0.009378654
215	0x3d07a500	0.03311634
216	0xbdea371e	-0.11436294
217	0xbc88a632	-0.01668081
218	0xbdd9badb	-0.10631343
219	0x3bd9f0b2	0.0066510076
220	0xbc62f4b2	-0.013852285
221	0xbda24f22	-0.0792525
222	0x3d11ff4c	0.03564386
223	0x3cdef141	0.027214648
224	0xbdb4b5ff	-0.088237755
225	0x3c7e1df5	0.015510072
226	0x3d99f5bf	0.075175755
227	0x3c97cd71	0.01853058
228	0xbd19c231	-0.03753871
229	0x3d0dbfb4	0.03460665
230	0x3dcfb279	0.10141463
231	0x3d366987	0.044534232
232	0x3b3ac6ab	0.0028499763
233	0xbd82050f	-0.06348621
234	0xbcddcee7	-0.027076198
235	0xbdde04e3	-0.10840776
236	0xbd764c43	-0.060131323
237	0xbdf94851	-0.121719964
238	0x3a69136a	0.00088911375
239	0xbdd1fdb3	-0.102534674
240	0xbd850260	-0.064945936
241	0xbd85bd1c	-0.065302104
242	0xbbd515e3	-0.0065028532
243	0xbde1df1b	-0.11028882
244	0xbdebb1e7	-0.115085416
245	0xbd4a5de7	-0.04940596
246	0xbd2451c3	-0.040117037
247	0xbe14bd36	-0.14525303
248	0xbd91d32f	-0.07120358
249	0x3d84fd0e	0.06493579
250	0xbdfb1ed7	-0.122617416
251	0xbb3ef0e0	-0.0029135272
252	0xbbdef62a	-0.0068042474
253	0xbd4ec777	-0.050483193
254	0x3c95fb38	0.018308267
255	0xbda9b720	-0.082868814

fc3.bias f4 [2]
0	0x3de1f38b	0.1103278
1	0xbc5d0821	-0.013490708
