Project 3-Open set recognition/Project/Weights/3_weights.pth (torch, 387487 bytes, 10 tensors)

conv1.weight f4 [64, 1, 7, 7]
00000000: ec6d da3e 08e8 073f 8217 07bc 8b0b 0abe
00000010: d9fe 2cbe 4ab2 efbd a686 9dbd 2363 d53e
00000020: 06f1 453e 82f1 96be d93a 24be 7e77 7abe
00000030: afb9 03be 7f31 863d a72a db3e 7dc0 ee3d
00000040: f730 a8be 17c1 90bd e3a2 f1bc 5112 55ba
00000050: 38fa d93e d05a dd3e 38d3 143e eb30 4dbe
00000060: 83d7 ac3d 4650 213e bc0a ef3d 7b72 f83e
00000070: 36d0 c23e d052 9fbc 45d9 9bbe dbbb 30be
00000080: 2c24 83be 1774 563d dc57 5a3e f802 b73e
00000090: 1ba0 333e 80bf 4fbe c3cb 68bd fcf4 dfbd
000000a0: 7961 66be 95b7 b63d 9770 983e 693b ed3e
000000b0: fe75 213e 25e4 913c de4a b9bd 692b b5bd
000000c0: 100d d0bc 9980 673d ac54 81bd 7374 4f3e
000000d0: abe6 463e 57f8 353e 2233 b83d 9c0c 4d3d
000000e0: a234 0abe de0c 0a3e a8ed f23d 0a4b 3b3d
000000f0: 7e55 86bd 4019 c4bd 3fda a43d a546 163b
00000100: 49c9 d83d 8de4 123e 1fe5 30be 0924 f6bd
00000110: da7d ac3c 6b89 e03d d606 143d b88f c63d
00000120: e4ff f03d bb54 c5bd 13e3 3cbb 2b1c 8ebd
00000130: 3322 f03d e884 033e 2504 d93c 9551 fe3d
00000140: 8964 3dbd 7107 05be 9115 e63c 0937 b8bc
00000150: f54c 2c3d 5e4c 91bc 42ee df3d e6ce fe3d
00000160: 27f8 1fbb 52c4 f13c d407 913d 409b 9cbc
00000170: 914c 0f3d 2d90 7f3d 948e 173d 5ef7 3d3e
00000180: ede0 d73d a075 8bbc f399 2f3d a89c 573e
00000190: f512 9f3e 6e1c f63e 1219 903e 07db 8b3e
000001a0: b83a 073e 776e 113a d938 833e 372c ce3d
000001b0: 0bf2 f93d 104b 2ebe 37b6 31bd 9357 26be
000001c0: 33db df3c 5dc0 523e d1aa 213d a2e7 96be
000001d0: f916 e8bd 6fde 4ebd f888 66bd 8f43 863e
000001e0: cb4e cd3e 2cd0 a7bc e51e 51be 5114 36be
000001f0: 5a56 fcbd 3dd9 d1bd fc89 953e 7226 4d3e
00000200: 0aaf 97bd f26f 81be df5e a4bd abfb b3bd
00000210: 4d4f 153e ebc7 c23e c83e 1d3e d60e ec3c
00000220: d7d9 403e ac6e 953e 6023 983e 891a 843e
00000230: 4d66 cf3e 9dd4 8d3e 712a 113d 879e 3d3e
00000240: 3c7c 873e 7415 7c3d bcd1 8839 7584 a03c
00000250: 8bd6 ad3b 9a0b 43bd 48b6 543e bf0e 4fbc
00000260: 77b1 333d b3a2 2f3e bb4d 30bc ed28 ff3d
00000270: e996 16bd c024 b83d a820 753d f886 4c3e
00000280: 57c8 813e d31f 683e c206 183b 4f97 f2bd
00000290: c1ca 0d3d 04e6 523e 15f4 093d a19e f83a
000002a0: 92c6 023e 26d8 5d3b 2741 e93c 2765 66bd
000002b0: e049 413e 8b87 0c3d 53e6 acbd 8e04 d33d
000002c0: 0c80 71bd 686a 22bd 0dc2 de3d 5a56 853e
000002d0: 421e 393d 1f3e 46be 1944 7d3e eb75 cdbd
000002e0: 9282 bbbd 8a3c 383e f8ce 2e3e c7b9 1f3e
000002f0: 9ca6 25be c187 ca3c e0d3 713c 2213 40be
00000300: 7231 433c 6e8e 863e f07c 8d3e f1e5 893e
00000310: 52b3 cdbd 95e0 84bd 463f ddbd df3e 1ebd
00000320: c09f 043d 7251 423e 5fe8 913d f464 7ebd
00000330: 7c32 c0bd 83f3 c5bd a755 223d 62a1 a53e
00000340: 161e 233e e12a bf3d 519b 103c 6e22 13be
00000350: 5c96 36be 951b e63e 98ff 523e 6a2b 493d
00000360: 7000 cabc 2001 95bd 9f45 ffbd 02b7 50bd
00000370: 0c62 eb3e 6cf7 463e 7d65 6bbc 8e90 e0bd
00000380: bdb2 8a3c 6ba5 20be 5a8a 5b3e d28f e23e
00000390: 63a4 d73c 721c 8fbe 461e e3bd 5df7 07bd
000003a0: c198 48be 0649 993e 06ab be3e e19e eb3d
000003b0: fe58 13be 19b6 f3bd 1dbe 24be c746 7abd
000003c0: 7415 0c3e 2bc5 c33e 0572 b03e 8562 f7bc
000003d0: 6c7e 52bd f481 af3d b765 8abd dc40 513b
000003e0: 44f4 fc3c e1bd a4bc 65e0 1e3d 4a63 2dbc
000003f0: 130b 033e 44af 46bd e408 3abe 1937 a2bd
0.4266199 0.53088427 -0.008245351 -0.13480966 -0.16894092 -0.11703928 -0.07691698 0.41677198
0.19330224 -0.2948113 -0.16038074 -0.24459645 -0.12863801 0.065524094 0.4280598 0.11657808
-0.32849857 -0.07068079 -0.029496616 -0.00081280345 0.42573714 0.43233347 0.14533699 -0.20038192
0.08439543 0.15753278 0.11671969 0.48524842 0.38049477 -0.019448668 -0.304392 -0.17259161
-0.25613534 0.052356806 0.21322578 0.35744452 0.17541544 -0.20287895 -0.056834947 -0.10935399
-0.2249812 0.08921734 0.297734 0.4633439 0.15767667 0.017808983 -0.09047483 -0.088461705
-0.025396854 0.056519125 -0.06314978 0.20259266 0.1942393 0.17770515 0.08994128 0.050060853
-0.1349664 0.13481471 0.118617356 0.04572586 -0.06559275 -0.095751286 0.0804944 0.002293029
0.10585267 0.14344998 -0.17274903 -0.12018592 0.021056104 0.109637104 0.03613933 0.09695381
0.11767557 -0.09635302 -0.002882187 -0.06938966 0.11725273 0.12843668 0.026491234 0.12417904
-0.046238456 -0.1299112 0.028086456 -0.02248718 0.04206558 -0.01773661 0.10934116 0.124418065
-0.0024409385 0.029512558 0.07081571 -0.019116998 0.03498513 0.062393356 0.037001207 0.18551394
0.10540948 -0.017023861 0.042871427 0.21055853 0.3106915 0.48068565 0.28144127 0.27315542
0.13205993 0.00055477716 0.2562931 0.10067027 0.12204369 -0.17020822 -0.043386664 -0.16244344
0.027326202 0.20581193 0.039469544 -0.29473597 -0.11332507 -0.050505098 -0.056282967 0.26223418
0.40099177 -0.020485006 -0.20421942 -0.17781188 -0.12321158 -0.10246513 0.29206836 0.20034197
-0.07406433 -0.2528072 -0.08025908 -0.08788236 0.14581032 0.3804315 0.1535598 0.028815668
0.188331 0.29185998 0.2971449 0.25801495 0.40507737 0.27701274 0.035440866 0.18517505
0.2646197 0.061543897 0.00026096206 0.01959441 0.0053051165 -0.047618486 0.2077266 -0.012637793
0.043870416 0.17151909 -0.01076072 0.12458978 -0.036765013 0.089913845 0.059845597 0.19973361
0.2534816 0.2266839 0.0023197387 -0.11845266 0.03461719 0.20595556 0.03368004 0.0018968174
0.12771061 0.0033850758 0.02847345 -0.05624881 0.18875837 0.03430895 -0.08442368 0.10303603
-0.058960006 -0.03965226 0.10876856 0.26042444 0.04519487 -0.19359635 0.24733008 -0.10032257
-0.09155764 0.17991844 0.1707114 0.15598212 -0.16176838 0.024722936 0.014759988 -0.18757299
0.011913644 0.2628054 0.27634382 0.26933244 -0.10043968 -0.06488148 -0.10803084 -0.038634177
0.032378912 0.18976381 0.071243994 -0.062107995 -0.09384629 -0.09665587 0.039632466 0.32349688
0.15929446 0.093343504 0.008826093 -0.14368603 -0.17830795 0.44942918 0.20605314 0.04911367
-0.024658412 -0.07275605 -0.12464451 -0.05095578 0.4597324 0.19430321 -0.014367458 -0.109650716
0.016930932 -0.15688102 0.21439496 0.4425035 0.026323503 -0.2795139 -0.110897586 -0.03319489
-0.19589521 0.29938525 0.37239856 0.11504913 -0.14389417 -0.11899967 -0.16088147 -0.061102655
0.13680059 0.38236365 0.3446199 -0.030198345 -0.051390097 0.085697085 -0.06757682 0.0031929528
0.030878194 -0.020110073 0.038788218 -0.010582754 0.12797193 -0.04850699 -0.18167454 -0.07920665

conv1.bias f4 [64]
00000000: 12f1 65be 26b5 f3be 840a b9be 0105 92be
00000010: 260b 83be 40b2 91be 3689 c7be 776c 1ebe
00000020: f713 bbbe 7faa 41be d8e0 58be 07c7 4bbe
00000030: 9970 e9bd 15ae 7ebe 1848 c9bd 1ac7 a1be
00000040: 7884 7abe 170b 93be e066 0dbe 2eae 2cbe
00000050: f0aa 80be 658c 9dbe 1515 3abe 2bfd 31be
00000060: b1f9 e4be 0a49 a2be 7854 b1be c559 87be
00000070: d5b0 20be 100e e0be 8f33 43be 2a1c 8dbe
00000080: d9cd 0ebe 3ee7 e1bd cacd 4bbe be5f 86be
00000090: 52ac a3bd 4494 99be 5194 c6bd 7154 6ebe
000000a0: 4bf3 d6bd 30c3 95be 51ac 7abe e316 d0be
000000b0: 8a0f 9fbe 1221 57be 21e3 d5be 8de5 fdbd
000000c0: ca50 fabd 6b2a a5bd de7e 57be 42fc b4bd
000000d0: f708 86be 60a3 b3be 96fb 74be e478 33be
000000e0: 9472 aabe 5ea9 c7bd 37b0 c6bd 16f5 f5be
000000f0: 1134 96be 6b93 65be 22a6 4bbe 5868 d0bd
-0.22455242 -0.47599143 -0.36140835 -0.28519443 -0.25594443 -0.28456306 -0.3897187 -0.15471064
-0.3653867 -0.18912695 -0.21179521 -0.19900142 -0.113984294 -0.24871095 -0.09828204 -0.31597215
-0.24464595 -0.28719398 -0.13808775 -0.1686332 -0.25130415 -0.30771175 -0.18172105 -0.17381732
-0.4472175 -0.3169635 -0.34634757 -0.26435676 -0.15692456 -0.4376073 -0.19062637 -0.2756055
-0.13945712 -0.11030434 -0.19902721 -0.2624492 -0.07991852 -0.2999593 -0.09696258 -0.232744
-0.10495623 -0.2925048 -0.24479796 -0.4064246 -0.31066543 -0.21008709 -0.41774848 -0.12397299
-0.122224405 -0.08064731 -0.2104449 -0.08837177 -0.26178715 -0.35085583 -0.23924097 -0.17526585
-0.3329054 -0.09749101 -0.09701579 -0.48038548 -0.293366 -0.22419517 -0.19887593 -0.10176152

conv2.weight f4 [32, 64, 5, 5]
00000000: cfd1 92bd 6dc8 86bd f871 82bd 89fb 29bd
00000010: 39b3 3fbd 9c20 aebd 4470 9ebd 7349 33bd
00000020: bafa 99bd 5512 1abd f4e8 79bd 8170 86bd
00000030: 762d 79bd 0857 53bd 1da1 69bd b297 98bd
00000040: c541 90bd 2147 9abd 5541 37bd 80eb 94bd
00000050: 7bf4 8cbd e157 98bd 42ec a5bd 2948 54bd
00000060: 2957 46bd 0230 14bd 4619 16bd 6fd9 a8bd
00000070: d070 9abd 66de 6bbd e588 39bd 2770 41bd
00000080: 6d41 8dbd 11b3 9dbd 7902 24bd 632b 3dbd
00000090: 1710 87bd 8af2 52bd 47af 85bd c4f3 5bbd
000000a0: 4f32 4fbd 96b7 8bbd 9560 97bd 9744 a4bd
000000b0: 9af0 82bd 1088 4fbd 5a4a a8bd 558f 37bd
000000c0: 4091 40bd a0bb 9dbd 6dac a4bd 7b24 26bd
000000d0: 669a 1ebd 4503 a0bd 118e 1cbd 9616 51bd
000000e0: 6842 31bd dfcb a5bd 21da 78bd 74aa 5ebd
000000f0: 5d3a 92bd a0a7 12bd 3328 70bd 948e 11bd
00000100: ba26 abbd e2d1 11bd aab5 87bd 62f8 a3bd
00000110: a962 5fbd 052b 59bd b8fc 95bd 02de 3cbd
00000120: cd3d 9bbd b11a 33bd d20e 6dbd 6a68 a0bd
00000130: ec9e 3ebd 021b 2cbd e93e 81bd bb32 9dbd
00000140: 718a 4dbd 23ba 83bd 6f6c 11bd 5f8f 29bd
00000150: c572 a3bd b876 8bbd b7e1 8bbd c1c6 65bd
00000160: 6707 9cbd 3506 9bbd 3d07 8abd bdcd 9cbd
00000170: 570c 2dbd 7fb3 73bd 049c 8fbd 5cbb 82bd
00000180: 833b 29bd eab1 4cbd 1789 6dbd be05 90bd
00000190: 9fec 60bd 0c72 85bd 0a97 54bd 8b08 7ebd
000001a0: 965f 2cbd e4d3 27bd 8ad2 64bd 9ff8 50bd
000001b0: be18 11bd c20d 6abd 5433 a9bd 6e6a 52bd
000001c0: 119b 34bd 98ad 97bd addf 9ebd c370 54bd
000001d0: 65f3 70bd 6836 94bd 5274 9abd 1fcf a3bd
000001e0: 0308 89bd 5e75 61bd a1b6 86bd 255d 9dbd
000001f0: 1357 26bd 0422 80bd 3f75 73bd 43aa 87bd
00000200: 14fd 9cbd 1d9b adbd fa7a 9cbd 8def 31bd
00000210: e651 a1bd 41ee 22bd cab0 52bd caa1 23bd
00000220: d6d3 2abd 13ec 3abd db42 90bd 154a 29bd
00000230: 28c1 94bd e4e0 91bd 0901 2cbd f395 a4bd
00000240: 8a3a 10bd 592f 2ebd dee2 11bd da5e 4dbd
00000250: 5aa9 21bd a5e4 95bd 1eaf 30bd f7b3 abbd
00000260: 2e50 91bd 40c7 0fbd fe67 8fbd ec14 51bd
00000270: 78ff 32bd 8bb7 14bd ac1f 86bd 41d1 6bbd
00000280: 1c97 96bd 2bfd a8bd e0b6 82bd 6426 19bd
00000290: a233 86bd cf28 43bd cbc2 69bd e3fc 38bd
000002a0: 2363 94bd fc50 87bd 58f5 8fbd 72a1 43bd
000002b0: 0e7e adbd e0ae 12bd 387f 98bd 64d5 1cbd
000002c0: 5cbf 52bd 7f02 8dbd fa01 9ebd 2862 38bd
000002d0: 2fe1 1abd 303a 3fbd 350c a4bd dcde 8ebd
000002e0: 2e75 aabd fe40 a0bd 1b92 87bd 4f67 8ebd
000002f0: df7b 89bd e51e 1abd f954 9ebd eff4 a2bd
00000300: 26ae 7fbd 3802 4bbd 2068 78bd 3d91 39bd
00000310: b76d 96bd f685 a7bd 2570 7fbd dc25 80bd
00000320: 3c6f 23bd 2d34 90bd be4c 44bd cd4b 93bd
00000330: ff74 29bd a5f2 31bd 3cd5 a0bd 1157 3cbd
00000340: 63fb 2bbd 24c5 a5bd e3cf 87bd 3595 58bd
00000350: a54d 8abd ff2d 9cbd 16a6 1fbd b8f5 70bd
00000360: 9353 a7bd 9e11 acbd 41c3 a0bd e255 33bd
00000370: 25ec 13bd 28ec 52bd 08eb 37bd 6185 63bd
00000380: 7773 34bd 120e 95bd 654e a0bd 7156 aabd
00000390: fd33 44bd cfac 3abd 67ab 34bd 8640 46bd
000003a0: 0dab 5abd f8b8 90bd cd9e 21bd b838 70bd
000003b0: 3a77 60bd fec4 56bd cc2c 53bd 412c 5abd
000003c0: ac05 8abd c11a 96bd 4a84 4dbd ee2d 45bd
000003d0: 80f8 7ebd 1804 19bd 579e 84bd a8a7 8abd
000003e0: e78f 47bd 231c 30bd 87b3 4abd 71d9 70bd
000003f0: da2f a5bd 3024 abbd f4c1 74bd b033 8fbd
-0.07168924 -0.06581197 -0.06369394 -0.04149965 -0.04680178 -0.085023135 -0.07736257 -0.04377122
-0.075185254 -0.03761514 -0.061013177 -0.06564427 -0.06083437 -0.05159667 -0.057038415 -0.074508086
-0.070437945 -0.07533098 -0.04474004 -0.072714806 -0.068825684 -0.074386366 -0.08101703 -0.05182663
-0.048422966 -0.036178596 -0.036645196 -0.08244597 -0.075410485 -0.057585143 -0.04529657 -0.047226097
-0.068972446 -0.0770017 -0.04004142 -0.046183955 -0.06594866 -0.051500835 -0.06527572 -0.05369927
-0.050585087 -0.068221256 -0.073914684 -0.08020895 -0.06393547 -0.05066687 -0.082173064 -0.044814426
-0.04701352 -0.07701802 -0.080407 -0.040562134 -0.038721465 -0.078131236 -0.038221423 -0.05104693
-0.04327622 -0.08095526 -0.0607549 -0.054361776 -0.07140038 -0.03580439 -0.058632087 -0.035536364
-0.08356996 -0.03560055 -0.066264465 -0.0800636 -0.05453745 -0.053019542 -0.07323593 -0.04611016
-0.07580147 -0.043726627 -0.057875462 -0.078324154 -0.04653828 -0.042017944 -0.06310827 -0.07675692
-0.050180856 -0.06431987 -0.0355038 -0.041396495 -0.07980875 -0.06809753 -0.06830161 -0.05609775
-0.076185994 -0.07569543 -0.06739662 -0.07656429 -0.042248096 -0.059497353 -0.070121795 -0.06383392
-0.04131652 -0.04997436 -0.057992067 -0.07032345 -0.05491316 -0.06515893 -0.051901855 -0.062019866
-0.042083345 -0.04097356 -0.05586485 -0.051018354 -0.035423987 -0.057142027 -0.08261743 -0.05137103
-0.044093195 -0.07406157 -0.077575065 -0.05186535 -0.05882587 -0.0723694 -0.075417176 -0.079984896
-0.06690981 -0.05504357 -0.065778024 -0.076837815 -0.040610384 -0.06256488 -0.059437986 -0.06624272
-0.07665458 -0.08476851 -0.076406434 -0.043441344 -0.07876949 -0.039777998 -0.05143813 -0.039949216
-0.04170593 -0.045635294 -0.07044002 -0.041330416 -0.07263404 -0.071229726 -0.041993175 -0.08036413
-0.035212077 -0.042525623 -0.035616748 -0.050139286 -0.039468147 -0.07319001 -0.043135755 -0.08383935
-0.07095371 -0.03510213 -0.07002257 -0.051045343 -0.043700665 -0.036307853 -0.0654901 -0.057572607
-0.073530406 -0.08251413 -0.06382537 -0.037390128 -0.06552817 -0.04764634 -0.057070535 -0.045163047
-0.07245471 -0.066072434 -0.070292175 -0.047761388 -0.08471309 -0.035811305 -0.0744614 -0.038289443
-0.051452026 -0.06885242 -0.07715221 -0.045015484 -0.037812408 -0.04668635 -0.08010141 -0.06976101
-0.083231315 -0.07824896 -0.06619664 -0.06953298 -0.0671308 -0.03762712 -0.07731051 -0.079568736
-0.06242194 -0.049562663 -0.060646176 -0.045304526 -0.07345145 -0.08179848 -0.06236281 -0.06257221
-0.039901003 -0.07041202 -0.04792475 -0.07192192 -0.04137134 -0.043444294 -0.07853171 -0.04598147
-0.041987788 -0.08094242 -0.06631448 -0.05287667 -0.06753091 -0.076259606 -0.03897675 -0.058828086
-0.081702374 -0.08401798 -0.07849742 -0.043783076 -0.036113877 -0.051494747 -0.044901878 -0.055547122
-0.04405543 -0.07278074 -0.078274526 -0.08317269 -0.047901142 -0.04557496 -0.044108775 -0.048401378
-0.053385783 -0.0706653 -0.039458085 -0.05864784 -0.054801203 -0.05243396 -0.051556394 -0.05326486
-0.06739363 -0.07329322 -0.05017499 -0.048139505 -0.062248707 -0.03735742 -0.064755134 -0.06770259
-0.04872122 -0.042995583 -0.049487617 -0.05880112 -0.080657676 -0.083565116 -0.05975528 -0.069922805

conv2.bias f4 [32]
00000000: 5eb0 99bd 3ae8 95bd a9b0 67bd c0c2 9dbd
00000010: 27ba 80bd fea0 a7bd 2b25 e23c 53d3 5cbd
00000020: d5cc 4bbd 05cb b2bc cede f7bc c316 adbd
00000030: 77a0 19bd 8901 863d 82b1 73bd 2b77 f1bc
00000040: f8cc 6dbb c968 96bd 9cb4 8fbd 1796 a9bd
00000050: 2bdb 2bbd 61f1 44bd fb5b 0ebd 269d 7bbd
00000060: 43d9 8bbc d248 1dbd 6444 21bd d935 0c3d
00000070: 6787 a3bc 1192 a8bd 15b6 4ebd 57ef 9abd
-0.075043425 -0.07319684 -0.05656496 -0.07703161 -0.06285506 -0.08185004 0.027605614 -0.053912472
-0.04975589 -0.021825323 -0.030257609 -0.08451607 -0.037506547 0.065432616 -0.059495457 -0.029475769
-0.00362855 -0.07344205 -0.070168704 -0.082805805 -0.04195706 -0.04808176 -0.03475569 -0.061429165
-0.017071372 -0.038399525 -0.039371863 0.03423104 -0.019962026 -0.08230985 -0.050466616 -0.07565182

fc1.weight f4 [256, 32]
00000000: 6325 d7bd d647 203e 0d52 103e f0b5 26be
00000010: c2e5 f0bd 565c edbb 9365 8dbd 9dbd 56bd
00000020: 570b 0a3e dc0f a83d 89fb 323a ff84 47bd
00000030: 8333 28bd dad4 883d e800 353d 9822 363d
00000040: 32c0 b0bd fe30 05be e63f a8bc 9063 4cbe
00000050: 2d3b af3d 7c69 ed3d be7f f73d 406e d6bd
00000060: 2ae0 1ebe fb68 023e 9822 ec3d 63d3 fabd
00000070: a01c 34bb b573 2d3d eca0 9c3d 47ff f0bd
00000080: 8099 f8bd bf6a 9f3d 2d6d cbbc 9338 34be
00000090: 17af 64be a9a6 f5bd 2136 87bc 11d1 77bd
000000a0: ef0d 993c 65e6 61bd 98dc 8dbd 435e 253e
000000b0: de92 ffbc 6814 5bbe 73af 34be 31fb d0bd
000000c0: 1ce6 91bd 3eb3 3bbd eb26 ed3d b05c f23d
000000d0: ee8f ce3d dc95 6cbd 8b30 d33c f8f8 e8bc
000000e0: cb94 1fbe 2da1 0bbe c58f e63d fcc0 8fbe
000000f0: f44d e63d ff3c 2b3c 8c9f 90bd e146 7e3d
00000100: ec22 92bd fe76 c8bd c024 b03d f953 ebbd
00000110: ce21 3c3d efde 75bd 56a1 20be e77d 2ebd
00000120: e231 ddbd c341 03be af58 663d 31af b43d
00000130: e0b1 c1bd aef8 18be 2155 103e 8525 7dbd
00000140: f21a 093e 8fc7 a43c 65a2 0bbe e101 8dbd
00000150: f87b b63d 1a19 ecbd 92f0 13bd 7ea8 7fbc
00000160: 407b 21be a51c 24be 3e82 7c3d d2b1 a4bc
00000170: 29ae 88bc 7208 6f3d d6d0 d33c b623 97bd
00000180: 8057 2abe 2d9e b83d 7a80 2fbe 2f62 cb3d
00000190: 1ea7 ffbd b8ca a0bc 4924 22be bcdd f83d
000001a0: 375d 32be 17fb 933d 6d06 00be 6f73 203d
000001b0: 4d9a e83c 777c 03be 7e24 dbbd d621 a3bd
000001c0: 4bd9 37bc 6c46 d33d 6830 2bbe b813 293e
000001d0: 276b e73d ac94 97bd 74b9 b63d 3587 8cbd
000001e0: dee4 f53d 3f6d 063e d767 e2bd 850d b83d
000001f0: fd15 cebc f019 d1bd daa9 dabd eb9f a63d
00000200: bcdd 2bbe f88e b5bc d3b1 ee3c 2b65 fdbd
00000210: fb71 f43d 368e 4b3d 3ed1 b33a e15b 8b3c
00000220: e17c 023e be26 00be 5cac 523c 9418 2bbd
00000230: 6a21 0abd 4ff0 3cbe e294 2abd 9bef 83bc
00000240: c593 f63d b86b 28be 6fcc 04be a773 c43d
00000250: 3f30 2fbb 1cc8 bebd 4251 663d 7d41 483d
00000260: cc85 ce3d 25bc 8d3d 6011 a33d 3fb5 20be
00000270: 6f57 22be b5c1 063d 76c2 10be c585 b83d
00000280: cfbc d03d b4ff 8abd 5229 c93d 9c7b 493e
00000290: 1c7f cb3d dac8 8fbd 2822 b03c cb57 d0bc
000002a0: e4a6 673d 96f8 d73b b06a e03d 7455 b53d
000002b0: faaa 57be e3f2 6b3e 93dc 1d3e 4059 0cbe
000002c0: b412 54be 8a12 113e 491a 493d 905c 09be
000002d0: e00d 5c3e db92 503d f1fa 63be 7c91 62bd
000002e0: f118 e0bc e9f9 bfbb 136f 283d 5ac4 863c
000002f0: 78a5 59be 9e95 59be 1075 0b3e ed74 a33d
00000300: 8115 e0bd f6b5 5dbe f71b 57be 22e6 a3bc
00000310: 8ae4 d0bd a20f b0bd 3f96 0ebe 0676 7f3d
00000320: b1a7 f0bd 3b90 18bd daa2 153c 0a16 c9bd
00000330: f450 3abe 0522 cebb 0138 30bd ed41 5ebd
00000340: bafc 5a3d 57df 20be 3a6f eebc ab35 203d
00000350: 614a ee3d bc03 c23d 5b11 80be ac93 d53c
00000360: 467e 18be babc ac3c 918f 0dbe 823f a13d
00000370: 51c5 a4bd 123b a4bd bb98 b7bc d2d2 91bd
00000380: 6aaa 1abe fdd7 a63d 3fcc df3d 8cb8 04bd
00000390: 36e7 c3bd 6d85 063c ec94 e4bd 3beb 9a3d
000003a0: 4383 c53d 4cd2 183e 1c8d 483e e5d3 d13c
000003b0: 9473 4a3e 1570 3cbe 6393 0e3e 0588 5e3d
000003c0: e32f ec3d c05d c7bd 781a 27bd 8770 9bbd
000003d0: 1515 21be 9df4 f23d a7c1 133e 1d36 05bd
000003e0: b2c7 adbd e3f1 263e d98e 323e 1441 973d
000003f0: b184 0dbb 7dd9 4b3e d43c 1d3e 7420 9d3d
-0.10505178 0.15652403 0.140938 -0.16280341 -0.11762573 -0.0072436733 -0.06904139 -0.052426923
0.13480888 0.0820615 0.0006827643 -0.04871082 -0.04106475 0.06681223 0.044190317 0.044466585
-0.08630408 -0.1300697 -0.020538282 -0.19959855 0.08556209 0.11592385 0.12084912 -0.10470247
-0.155152 0.1273536 0.11530036 -0.1224735 -0.0027482882 0.042346675 0.07647881 -0.1176744
-0.12138653 0.07784032 -0.024832333 -0.17599706 -0.22332416 -0.119946785 -0.016505303 -0.060502116
0.018683402 -0.055151362 -0.069268405 0.16149239 -0.031197961 -0.21394503 -0.17645054 -0.10204161
-0.07123968 -0.045825236 0.11579689 0.11834085 0.10086046 -0.057760105 0.025779983 -0.02843903
-0.15584104 -0.13635702 0.112578906 -0.28076923 0.11245337 0.010451554 -0.07061681 0.062079314
-0.07135567 -0.09788321 0.086007595 -0.11490626 0.045930676 -0.06002706 -0.15686545 -0.04260054
-0.1080053 -0.12818055 0.05623692 0.088224776 -0.09457755 -0.14938614 0.14094974 -0.06180336
0.13389185 0.020114688 -0.13636167 -0.06885124 0.08910364 -0.11528225 -0.036118098 -0.0156041365
-0.15769672 -0.16026552 0.061647646 -0.020104323 -0.016684609 0.058357663 0.025856417 -0.07379858
-0.16634941 0.09014545 -0.17138854 0.099308364 -0.12483047 -0.019627914 -0.15834154 0.121516675
-0.17418371 0.07225626 -0.12502451 0.039172586 0.028393889 -0.12840448 -0.1070032 -0.07965438
-0.01122124 0.10316166 -0.16717684 0.16511428 0.112997346 -0.07401404 0.08922091 -0.06861726
0.120065436 0.13127612 -0.11054962 0.08986954 -0.02515697 -0.10210025 -0.10676928 0.08135971
-0.16783804 -0.0221629 0.029137528 -0.12372812 0.119358025 0.04969617 0.0013718975 0.017011585
0.1274295 -0.12514779 0.0128584765 -0.041771486 -0.033723272 -0.18451045 -0.041645892 -0.016105464
0.120399036 -0.16447341 -0.1296861 0.095923714 -0.0026731638 -0.093155116 0.056229837 0.04889058
0.100841135 0.06920651 0.079622984 -0.1569414 -0.15853666 0.032899577 -0.14136681 0.090098895
0.101922624 -0.06787053 0.09822334 0.1967606 0.099363536 -0.07020731 0.021500662 -0.025432488
0.056555644 0.006590913 0.10957849 0.088541895 -0.21061316 0.23041873 0.15416174 -0.13705921
-0.2071026 0.14167228 0.049097333 -0.13414216 0.21489668 0.050921302 -0.22263695 -0.055314526
-0.027355643 -0.005858649 0.041121554 0.01645105 -0.21254528 -0.2124848 0.13618875 0.07981286
-0.109416015 -0.21651444 -0.21006761 -0.020007197 -0.1019984 -0.08596732 -0.13924502 0.062368415
-0.117507346 -0.037246924 0.009133065 -0.09818657 -0.18194944 -0.0062906765 -0.04302216 -0.05426209
0.053463675 -0.15710197 -0.029105771 0.03911368 0.116352804 0.094733685 -0.2501324 0.026071392
-0.1489192 0.021086086 -0.13824297 0.07873441 -0.080454476 -0.08019079 -0.022411695 -0.07120289
-0.1510407 0.08146665 0.10927629 -0.03240256 -0.09565584 0.008210522 -0.11161217 0.07564398
0.09644177 0.14923972 0.19585079 0.025613734 0.19770652 -0.18402131 0.13923411 0.054328937
0.11532571 -0.09734678 -0.040796727 -0.07589822 -0.15730698 0.118630625 0.14429341 -0.03252231
-0.084853545 0.1630321 0.17437305 0.073854595 -0.0021593983 0.19907184 0.15355235 0.076722056

fc1.bias f4 [256]
00000000: eaae 14be daee aabd 1ad5 0ebe 91f9 f8bd
00000010: 6cf4 e3bd 61f8 193c ece8 16be ebcb e7bd
00000020: 5d02 6d3d c044 5bbc 7d08 5abd d4cb a13d
00000030: eb38 19be 24c1 19bd 53ec aa3d 82fd 32be
00000040: e9e9 903d 6025 bcbd e413 f4bd 52ee 0fbe
00000050: d9aa ba3c 874c 63be cc77 e63d 1620 efbd
00000060: 551c 0ebd 948e 533d d285 a43e 0b70 1c3e
00000070: a237 72bd 66c0 6ebd fd86 dd3e 03f8 c93d
00000080: 9867 acbb 159d 36be 8c1a 393e ae78 ad3c
00000090: 5fe6 5c3c 3baa 70be b00f 3ebd 67fe 14be
000000a0: 8a4e 28be dc8e 3b3e 8b2a c13b 5f00 7fbe
000000b0: 5ae2 683d ccb2 5ebd b735 07bd b8b6 313e
000000c0: d76c 28be 35f5 133e 68a7 2d3e cfe3 a4bd
000000d0: 2664 f0bd 13a4 1cbc f874 8cbc dc3f dbbc
000000e0: ed5e 7dbe b1d8 a3bd 2f04 bdbd ac92 37be
000000f0: 13ab e73d a8bb 963e 9998 f5bc 5a09 20be
00000100: 51ef 1fbe 2b79 a3bd ed9c 0b3d 52c3 0bbe
00000110: 5127 4abe 08df e03d 2390 e73d 0e3c b6bd
00000120: af65 90bd 96a1 a03e 1e3f bebd c76d a43e
00000130: d3fb b6bd 7869 54be c445 0fbc 6a91 803e
00000140: f3da d5bd 8f95 333d f7af debd d6c8 bcbd
00000150: 65ba 223d 4b47 14bc 3f13 88bd 5c3a 02be
00000160: 705b 9f3d 99fc 93bd 2d23 a8bd 455d 203e
00000170: f5d9 4ebe 0b78 0fbd 1c51 9f3e 51e2 eabd
00000180: d2e3 4a3e 0800 85bd 07c4 ddbc e455 23be
00000190: cbc6 78be d87e 8f3d c712 793b a2a0 123d
000001a0: 8ba8 cf3d d249 e3bb caa4 f0bd 2fcd 82bd
000001b0: 3bb3 ed3b 77e2 eebc 276c 883b a801 153e
000001c0: 27c3 d6bd 33d1 883d f055 f8bd 39bc aebc
000001d0: e75f d2bd 1890 debc e091 5f3b 5def c23d
000001e0: c6dd 81bc 5602 76bc af98 0d3b 770e 2dbe
000001f0: bdc3 40bc fb66 073e 927e 56be 7602 1cbc
00000200: 4bf1 033e 003e b8bc b04b 42bc 4850 a93d
00000210: c9e0 09be 518b 6a3e 6a18 97be 6af1 4a3d
00000220: 6034 2cbd e831 8abe aabc 8fbe d554 d4bd
00000230: 9096 8a3b 6c8f 1a3d e280 433d bf26 a53e
00000240: 4ec0 49be 7733 0dbe 23c6 a1bd df5d c3bd
00000250: 5923 753e bf7e 0cbb bdb7 d4b7 cc47 b43e
00000260: 48db a5bd dcc8 21be 8289 2ebe 5994 d5bd
00000270: 6850 08be 7c5e eebd 2700 24be a85c d13e
00000280: 4a17 b73d d7ab ccba f035 84be 21a0 9f3d
00000290: cbe5 263d b424 293c 0885 52bd 1e92 86bc
000002a0: fee3 433d ab22 123d a61f 94bd 1682 5fbc
000002b0: 4f97 2cbe 6b2a 04be d9cb 573e cf25 0f3e
000002c0: d3cf 4e3e 8d8f 63bc f0e7 c63d aa72 3bbd
000002d0: d1d4 6ebc c040 88bd 4688 a9bc 76ce f8bc
000002e0: 6c7c 9abd 9fd7 583e eafa ab3e 0c64 003e
000002f0: 82df 843d 5466 1d3e 2121 2c3e ab85 1dbe
00000300: 3f51 16be fccc 0fbe 8a91 89bd e60b c8bc
00000310: d1ce e33d 81ed 2abe ef76 abbc 52ed 04be
00000320: f297 2d3e 7bf8 0a3e b2af 1a3e b3ad 62bd
00000330: 2b0b b5bd 19da 38be 805a 25be 8ac2 76be
00000340: e7b8 243d eeb9 793d 1a8e 29be 7a6e 0f3e
00000350: 2c0e 21be e269 21be 6f82 21bd 8eb1 beb9
00000360: e69a 243d 9043 1e3d fa6f 56bd 8145 85be
00000370: c12f 533d 7bb1 57bc ab2d 243b 9c5b 363e
00000380: 7492 c33d ddb3 0dbe 6c10 e83d b5ba 23bd
00000390: b5b8 fd3d cca7 04be 3642 43be d472 c6bc
000003a0: 6903 183d 4342 473e 7ed8 0fbe 3162 18be
000003b0: 9b82 57bd c914 263d b5e8 06bd 4be2 0b3e
000003c0: b786 153d 7c06 643e a96e 7c3d 1a58 fdbc
000003d0: 5a3e 1dbe 1d34 00be 65be 08be ea37 48bd
000003e0: 6eff 483a a80e 8d3d 4c34 9e3d a1f8 8fbc
000003f0: 861c 793e 7aa3 59be 4c97 43be 2dc9 a2bd
-0.1451985 -0.083463386 -0.1394848 -0.12156976 -0.11130604 0.009397597 -0.1473729 -0.11318191
0.057863582 -0.0133830905 -0.05323075 0.07900205 -0.14963119 -0.03753771 0.083458565 -0.17479518
0.07075865 -0.09186816 -0.11917856 -0.14055756 0.022786545 -0.22197162 0.11253318 -0.11676042
-0.03469499 0.051649645 0.32133347 0.15277116 -0.059135087 -0.058288954 0.4326705 0.098617576
-0.005261373 -0.1783336 0.18076533 0.021175709 0.013482659 -0.23502438 -0.04640168 -0.14550172
-0.1643621 0.18316215 0.005894964 -0.24902485 0.05685649 -0.054369733 -0.03301021 0.17354858
-0.16447769 0.14449008 0.16958392 -0.080512635 -0.11737852 -0.009560603 -0.017145619 -0.026763849
-0.24743243 -0.08000315 -0.092293136 -0.17927045 0.11311927 0.29440045 -0.02997999 -0.15628567
-0.15618636 -0.07982095 0.034085203 -0.13648728 -0.1974156 0.1098004 0.11306789 -0.08898173
-0.070506446 0.3137328 -0.092893824 0.32115003 -0.089347504 -0.20743358 -0.008744661 0.25110942
-0.10442152 0.043843802 -0.108734064 -0.09217994 0.03972854 -0.009050201 -0.06644296 -0.12717575
0.07781112 -0.072259136 -0.08209834 0.1566058 -0.20200332 -0.03502659 0.3111657 -0.11468948
0.19813469 -0.064941466 -0.027071012 -0.15950733 -0.24294583 0.070066154 0.0038005577 0.035797723
0.10139569 -0.0069362903 -0.11750181 -0.06386792 0.007254032 -0.029160721 0.0041632834 0.14551413
-0.10486441 0.066805266 -0.12125766 -0.021329986 -0.10272198 -0.027168319 0.0034114048 0.09518311
-0.01585282 -0.015015205 0.00216059 -0.16900049 -0.011765418 0.13222878 -0.2094672 -0.009522071
0.12885015 -0.022490501 -0.011858866 0.082672656 -0.13464655 0.22904707 -0.29510814 0.049546637
-0.042042136 -0.269912 -0.28073627 -0.10367743 0.004229374 0.037734434 0.047730334 0.32256123
-0.19702265 -0.13789164 -0.0789912 -0.09539389 0.23939265 -0.0021437851 -2.535793e-05 0.35211027
-0.08098465 -0.15799278 -0.17044643 -0.10428686 -0.13311923 -0.11639115 -0.16015683 0.40891004
0.08939989 -0.0015615177 -0.258224 0.07794214 0.04074649 0.010323692 -0.0513964 -0.016427096
0.047824852 0.035677593 -0.07232599 -0.013641855 -0.16854595 -0.12906806 0.21073855 0.13979267
0.20196466 -0.013889206 0.09712207 -0.04576365 -0.014577107 -0.06652975 -0.020694863 -0.030371886
-0.07543263 0.21176003 0.3358987 0.12538165 0.06487943 0.15371066 0.16809513 -0.15383022
-0.1467943 -0.14043039 -0.067172125 -0.024419736 0.111234315 -0.16692163 -0.020930735 -0.12981156
0.16952494 0.1357135 0.15106085 -0.055341434 -0.08840021 -0.18051948 -0.16147804 -0.24097648
0.0402154 0.060968332 -0.16558114 0.14006987 -0.15728062 -0.15763047 -0.03943103 -0.00036371913
0.040186785 0.03863865 -0.052352883 -0.2602959 0.051559214 -0.013164873 0.0025051634 0.17808384
0.09549418 -0.13838144 0.11331257 -0.03997298 0.12388746 -0.12954634 -0.19068226 -0.024224676
0.037112627 0.1945887 -0.14047429 -0.14881207 -0.05261479 0.040547166 -0.03293677 0.13660543
0.036505427 0.22268099 0.06162897 -0.0309258 -0.15355816 -0.1251988 -0.1335388 -0.04888145
0.00076674565 0.06887561 0.077248186 -0.01757461 0.24327287 -0.21253768 -0.19100684 -0.079485275

fc2.weight f4 [128, 256]
00000000: 3e46 6d3c d65e 623c ec35 3bbb d8f0 68bc
00000010: 1483 8fbd 2f8d 6c3b bbea 963d 2313 883a
00000020: 1558 f63d 156b 893a 8d8e 0f3d 92a4 abbd
00000030: 3f07 89bb 4019 64bb 637c 843d db45 3abd
00000040: 98e1 2e3e 221d 60bd a1c7 563d 2c08 fc3c
00000050: d7ad b23d 63c6 0fbc f1da 943d 1e2b d23d
00000060: 2982 cc3d f14f 9ebb b1ad 313c 026e 073e
00000070: 9191 843d be41 c53c dcf2 cb3e 115b 14bd
00000080: 62ee b73d 8749 eb3b 33d4 3fbe 4b26 cc3d
00000090: 247d b63d b729 6cbd 2a9e ffbd b554 8b3d
000000a0: 4f28 8a3d 0a78 123e d52d 8b3c b60c 8b3d
000000b0: 1038 9cbc 9d8e 87bd 9b21 83bd 1f64 e2bd
000000c0: ba03 40bd 74bd 4dbd 3eba 2cbe 3eae 183d
000000d0: 30ba 713d a46b d53c 8702 f73d 3020 aa3d
000000e0: f0bb 923d eef2 3a3d 8b41 ce3d c467 543d
000000f0: 1234 e5bc fc08 91be 58b4 b93d bc3d 98bc
00000100: 5ded ebbc 0d14 78bc 98de 99bc 2176 513c
00000110: 06d2 663b 49aa 323e c011 c53d ee72 c23d
00000120: 7229 a6bd 4636 083d 8089 06ba 2703 8cbd
00000130: 4dae 14bd b1bc abbc 63bd 863d 5ee7 e73d
00000140: c312 863d 648f 3fbb e0fa 47bc 124f 3c3d
00000150: de38 b63c b2fa 3d3d 47bb da3d d423 7fbd
00000160: 4973 753d f389 a23a 2399 303b ed51 283c
00000170: 6aa9 77bd 2cab b83d d3b5 c33d 26a5 3d3d
00000180: a383 f93d 094b 39bd 8781 153d 45cf 433d
00000190: f107 083d 869b 9e3c 954f 9b3d cc30 6b3c
000001a0: 8445 e33d fbee 973d 8042 a9bc b366 eb3d
000001b0: 4432 883d 66ea 7a3d bfa8 dd3d ff7c b1bd
000001c0: 51da f73b 1249 403d 364f 5a3c 3953 0a3c
000001d0: 79ba 073c 4356 0dbd 6a6c 513c e848 8d3d
000001e0: 958d 703d 9761 843b c25c 583c a318 73bc
000001f0: d2aa 39bd 8232 563d 1ae5 8b3a 413d 913d
00000200: 654e 69be 04c3 003d a8d3 4bbd f5c6 c03c
00000210: 9b42 16ba 3587 583d c530 7a3d dac1 ac3c
00000220: c1ab b13c 8c5e 1e3d 0bfd 8f3d 1d0c 8a3d
00000230: 21a8 763c 2d04 953c 4364 4b3d 6aa7 ad3d
00000240: 87bf 3d3b d20d 633d 06a6 503d 8c37 fe3c
00000250: f690 cfba ac26 68bd 3465 143d 7242 f93c
00000260: 74fe 70bc 28a4 d03b a2fe a0bd 02a9 a0bd
00000270: b1b7 5a3b 5d08 ddbd 8043 07bd 1367 933d
00000280: 6594 d73d 5c9e 6ebb 9922 05bc 47b7 cb3d
00000290: 9931 033c b372 9c3c 47d5 043d f4d3 813d
000002a0: 1584 073e c797 dd3d 50b5 8d3d aacc 6d3d
000002b0: 6750 823d fe31 483d 97e9 b1bd d316 1c3d
000002c0: df64 443e 2608 bb3d 57df 6fbb 3c9c 62bd
000002d0: 2298 e5bc 9469 b1bc 88bd f43b 7bcf 193d
000002e0: aea1 453d 36ac 08be fb80 663d a9c3 b8bb
000002f0: 83db 813d b5bb 073e ae8c bc3b bfd3 b8ba
00000300: 960b 5bbd bc98 9c3d 1479 8b3d 78f8 103c
00000310: 08ca d73c 15db 723b 4578 02be 61af c33c
00000320: f28a 2e3e b796 d43c 164e cb3c c76e 5cbd
00000330: e07b d5bb c1e0 09bc 50fb 713d fd96 cc3c
00000340: b62b 173d 09e0 f23c 1c60 35bc 7a49 a6bc
00000350: ef0c 95bc db0b d8bd c707 53bc 02ee 163d
00000360: 513d 9abc ab91 b83d 5970 06bd 8dbe 4a3b
00000370: c54b e53b 89c5 393d 4823 453d 9dc5 94bd
00000380: ea4d 053c 80dd 3e3a 0829 6f3d 5275 b33d
00000390: c8b2 d13d 9a9a dc3c e29c 23bc 29ed a03d
000003a0: 2b31 ad3d 0a7f 1fbe c452 7c3d f343 76bd
000003b0: 75c4 cd3d 6703 b53c 9efd 393d 3d5d 4ebd
000003c0: 18d4 973c 167e d03d 322c 883e 4522 a43c
000003d0: 560f 2c3d 4586 5cbc 7e95 4e3c e21f 043e
000003e0: 5380 923d fc5a 6a3d 03cf 583d 73f4 1a3d
000003f0: 9604 65be cd9a a0bd 013a 5abd 48ae d63d
0.014482079 0.013816556 -0.0028566075 -0.014217578 -0.07007423 0.0036094894 0.0736899 0.001038168
0.12028519 0.0010484183 0.035048056 -0.08380999 -0.004181772 -0.003480509 0.064690374 -0.045476776
0.17078245 -0.054715283 0.052436475 0.030765615 0.087245636 -0.008775326 0.07268322 0.1026213
0.099857636 -0.004831307 0.010844634 0.13225558 0.06473077 0.0240792 0.39833724 -0.03621966
0.08981015 0.007180396 -0.18733291 0.09968241 0.089105874 -0.05765697 -0.12481339 0.06803266
0.067459695 0.14303604 0.016989628 0.06789534 -0.019069701 -0.06618998 -0.06402894 -0.11054253
-0.046878554 -0.050229505 -0.16867921 0.037275545 0.059015453 0.026052304 0.12061029 0.083069205
0.071647525 0.045641832 0.10071095 0.05185677 -0.02797893 -0.28327167 0.09067601 -0.018584125
-0.028799707 -0.015141499 -0.018782899 0.012784512 0.0035220399 0.17447771 0.09622526 0.09494577
-0.08113374 0.033254884 -0.00051321834 -0.06836539 -0.03629904 -0.020963999 0.065790914 0.11323427
0.06546547 -0.0029229755 -0.012205809 0.045973845 0.022243913 0.04638166 0.106802516 -0.062290028
0.059924398 0.0012400731 0.0026946745 0.010273439 -0.0604643 0.090170234 0.095561646 0.046300076
0.12183311 -0.045237575 0.03650048 0.04780509 0.0332107 0.019361269 0.075835384 0.014354896
0.110972434 0.07418629 -0.020661592 0.11494198 0.066502124 0.061258696 0.108232014 -0.08666419
0.007563867 0.046944685 0.013324549 0.008442693 0.008284205 -0.034506094 0.012782196 0.068986714
0.058728773 0.004039954 0.013205709 -0.014837417 -0.045328923 0.05229426 0.0010673136 0.070917614
-0.22783811 0.03143598 -0.049762398 0.02353237 -0.0005731971 0.05286332 0.061081666 0.02108853
0.021688344 0.038664386 0.07030686 0.06740592 0.0150547335 0.018190468 0.049656164 0.08479197
0.002895327 0.055433102 0.050939582 0.031032346 -0.0015836048 -0.056677505 0.036229327 0.030427191
-0.014709104 0.006367225 -0.07861067 -0.07844736 0.0033373649 -0.10792611 -0.033023357 0.07197394
0.10526351 -0.0036410308 -0.0081259245 0.09947067 0.0080074305 0.019097662 0.03242996 0.06339255
0.13233979 0.10819965 0.06919348 0.05805651 0.06362992 0.0488758 -0.08687132 0.038107704
0.19179104 0.091324136 -0.0036601627 -0.055324778 -0.028026644 -0.021656789 0.007468883 0.037551384
0.048249893 -0.13346943 0.05627535 -0.005638559 0.06340697 0.13255198 0.005754075 -0.0014101191
-0.053477846 0.07646319 0.06810203 0.008848302 0.026341453 0.0037056853 -0.12741192 0.023887338
0.17045191 0.025950773 0.024817508 -0.053816583 -0.006515011 -0.008415402 0.05907756 0.02497434
0.03690692 0.029647844 -0.011070278 -0.020298708 -0.018194644 -0.10549136 -0.012880272 0.036848076
-0.018828066 0.09012159 -0.032821987 0.003093633 0.006997558 0.0453544 0.04812935 -0.07264254
0.008136252 0.0007280931 0.05838874 0.087626114 0.10239178 0.026929189 -0.009986134 0.07857735
0.08456644 -0.15575805 0.06160237 -0.060123395 0.10047237 0.022096349 0.045407884 -0.050381888
0.018533751 0.10180299 0.26596218 0.020035872 0.042006813 -0.013459747 0.012608884 0.12902787
0.07153382 0.057215676 0.052931797 0.03783078 -0.2236503 -0.07842026 -0.053277973 0.1048246

fc2.bias f4 [128]
00000000: 2e10 ff3d 0a84 eabd c57a 21be 6e80 d7bd
00000010: 0437 32bd 6b56 dbbd fe75 0ebe 9d5a 06be
00000020: 9a9c 163d 0eaf 143e 3cee ca3d dbdb b23d
00000030: a542 3fbd fcc5 97bc 82a2 6ebd ca25 f03d
00000040: 72c2 dd3d c709 053e 9028 9abd 0669 2cbe
00000050: 51e5 f4bd d032 043e c19e e0bc 635f ec3d
00000060: 1696 3fbd f799 50bc 98ba 9cbd 6ee8 8ebd
00000070: f3be 5fbd 6e95 d3bc b7d0 7cbe 121d fdbd
00000080: bd77 d7bd 6027 f7bd 5b12 bdbd 11be cb3d
00000090: 4985 bcbd 94c8 25bd 868e 533e 343e f5bc
000000a0: 5f8e d33d 98d0 6abd fe8b dfbc adff f63c
000000b0: 28d0 56bd 2fcb fb3d d8de c1bd cb22 a23d
000000c0: 50f6 a63d c5b0 f93c 7cb2 61bd 7e6a c9bd
000000d0: 958a f0bc 301b 98bd 0885 a3bd e1a1 92bd
000000e0: ca2e d8bd 86fb fa3d 4a82 dbbd 9ae2 90bd
000000f0: e782 d5bb daca b4bd c7c1 0d3e b751 5abd
00000100: 59bb b0bc 5ae0 4c3d b55a b9bb c428 bbbc
00000110: 8c45 debc 8480 87bd d46a 91bd 546e e5bd
00000120: 6733 3bbd 4708 51bd 9202 b6bc 90e7 34bd
00000130: 0d14 313d 88fe 81bc c74e fdbc 0dfa 383e
00000140: 040a b83d d279 f8bc 4c64 4cbd a92c abbd
00000150: 207a 9cbd eda1 543d a71c a03d e2a4 ebbd
00000160: 410d 73bd f8ed 583d de82 6fbb 2d7d 46bd
00000170: 3f03 0fbd 4329 203d 794f b6bd 6bc6 f93d
00000180: 46d8 9abd ca8e d0bd 0a52 ddbd 505a a7bd
00000190: af58 e9bc 4420 a0bd 9ceb 58bd 9e01 103e
000001a0: de83 a73d 0608 d93c de97 9dbd d42e a7bd
000001b0: 4288 723d a77a 033e 6cad 53bc e2f1 fabd
000001c0: 4ba3 353d 94d6 f53d 0cb8 053e dad9 293d
000001d0: 7db6 c03d 0272 75bd d01f bcbd b51b 04bc
000001e0: 6f7c a7bb c2a8 d73d 8cd2 f2bd a360 573d
000001f0: b3f7 243b 86af afbd 0ecf dbbd eacb 38bd
0.12454258 -0.11450966 -0.15769489 -0.10522543 -0.0435095 -0.10709842 -0.13912198 -0.13120504
0.03677044 0.14519903 0.09908721 0.0873334 -0.046694417 -0.018527023 -0.05826045 0.11725958
0.10828103 0.12992011 -0.07527268 -0.16836938 -0.11957801 0.12910008 -0.02741945 0.11541631
-0.046773992 -0.012732021 -0.076527774 -0.06977926 -0.054625463 -0.02582809 -0.24688993 -0.1235906
-0.10520885 -0.12068057 -0.09232017 0.09948362 -0.092051096 -0.04047449 0.20659837 -0.029936887
0.103298895 -0.057327837 -0.027288433 0.030151213 -0.052444607 0.122946136 -0.09466332 0.079167925
0.08152449 0.030479798 -0.055101857 -0.09834765 -0.029362956 -0.074270606 -0.07984358 -0.07159782
-0.10555799 0.122550055 -0.1071821 -0.07074471 -0.006515849 -0.08827753 0.13843451 -0.053300586
-0.02157371 0.050018646 -0.005656565 -0.022846587 -0.027132772 -0.06616309 -0.07100454 -0.11202684
-0.045703318 -0.051033285 -0.022218022 -0.044166148 0.043232013 -0.01586844 -0.030921353 0.18064137
0.08986285 -0.030331526 -0.049900338 -0.083581276 -0.07640481 0.051912237 0.07817965 -0.11506058
-0.05933881 0.05296132 -0.0036546509 -0.04845922 -0.034915205 0.03910185 -0.08901877 0.12196048
-0.07560782 -0.10183485 -0.10806663 -0.081715226 -0.02848467 -0.07818654 -0.05295907 0.14063117
0.081794485 0.026493084 -0.07694982 -0.08163229 0.059211977 0.12839757 -0.012919765 -0.12253167
0.04434518 0.12003818 0.1305849 0.041467525 0.09409807 -0.05992318 -0.09185755 -0.0080632465
-0.005111269 0.10530235 -0.11856565 0.052582394 0.0025172054 -0.085784 -0.10732852 -0.045116343

fc3.weight f4 [2, 128]
00000000: 449f da3d 23c4 5d3c c23a 113e 49cf 2c3d
00000010: e838 c03c c71d a43d 1279 073d 13c4 11bd
00000020: 996c 48bc 32be a03d 13e6 773d b17d 0ebe
00000030: fd3b b53d 4513 8b3c e4ad cf3c 76e1 a83d
00000040: 1d5c dfbc f7ad dc3d 14c1 4dbd f7bc b1bd
00000050: efd5 2c3d 8ebd af3d f7f1 95bc e503 26bb
00000060: d4a6 a13d 7eba e63b 5506 e13d bc52 4fbd
00000070: 6750 173d 31fc 59bc 224d 2cbe e6e5 f83c
00000080: 8535 d8bd 9cce 463d d291 343d 2d3e 5f3d
00000090: 6e06 0fbd 4ef9 973d 9587 2ebe 2dcf 42bc
000000a0: e490 fc3c 990d 15bc ecc6 693d 523f 25bc
000000b0: 1201 8b3d 3edb 61be bfa5 9c3d e3c4 403d
000000c0: 1ebb 8e3d c1b3 e03c 88bc 5f3a d3a9 07bd
000000d0: 2f55 acbc 9f7d ff3c c971 c9bb f41c 4a3d
000000e0: fadd a53d a6b7 bb3d 9123 31bd 1111 c03c
000000f0: 7e72 6bbd 6958 463d cf25 a53d 59c5 69bd
00000100: d946 583b dbb7 49bd b6c4 d1bc 2554 aabb
00000110: 6eaf 4abd 7f12 773d 0b8d 223d 11eb 013d
00000120: 15da 123d 2692 f3bd 5ebc a9bd c2a0 2dbd
00000130: b3db b93d 7fbf 753d a3d9 5fbd 9ad3 12be
00000140: 06b0 843d 5016 f03d 82a4 98bc abd4 00bc
00000150: aa35 943d 67f8 1f3d 0ead aebc f27f 98bc
00000160: 5246 52bd b5e4 563d dea2 b6bc a041 1d3c
00000170: f724 9a3d c117 b7bc 4f27 0dbe 6989 003e
00000180: f3ce 0cbd 1259 02ba f57e 90bd b1f6 793c
00000190: a503 a6bc 4043 95bc 60fa 29bd 1fdd f63d
000001a0: 67d9 883d a494 11be 7a70 003d 20fb 3fbc
000001b0: a021 b43d 99ca f13d 6306 8abd 3cd5 64bc
000001c0: 3e42 c43d a0ad ee3d fb91 c43d a3ca b5bd
000001d0: f074 d53d d22b a63c 0592 79bd 8c11 c83d
000001e0: c59f 8f3d 327b ca3d 279f 023e ff54 f6bd
000001f0: 3993 ee3d 7d3d 8ebc cdc1 573d 0d26 093d
00000200: 2230 f2bd ab30 72bc c04b 64bd 01df bdbd
00000210: 3396 d9bc a47e a3bc dba4 62bd 74f2 203c
00000220: 5a8f b53d fe86 ebbd 5002 c63c 409c 6dbb
00000230: 23eb f7bc a098 20bd 0823 03bd c70e d4bd
00000240: 7c05 bbbd 1e2e 0dbd 3399 8cbc 2130 ff3d
00000250: 9f10 8d3c c566 a9bd 1025 4bbd 1638 46bd
00000260: 8243 803d 1cda c43c 146a e43b 9143 5f3d
00000270: d72c 163d 5787 00be be34 903d 2a44 87bd
00000280: a513 46bd c242 40be cd16 2a3d d188 ff3c
00000290: d029 813d 3b69 843c e03a 353e 653c d8bc
000002a0: 4436 d4bd e11f 46bd 6f6c 723d 1e67 b53d
000002b0: f319 60bc f26c 353e 6bd4 0cbd e6c9 6abc
000002c0: 7ca8 33bb 3a45 fabb 5c01 7d3b 95c1 56bd
000002d0: 090d e3bc e0e2 d3bc eff1 87bc 92ff 803c
000002e0: e7f2 b1bb 3c1f 74bc 9d90 023d 3d43 97bc
000002f0: 3112 d63c 4c0d 513b 2fe8 fabd 3d7c c73a
00000300: fd89 0b3c cf5c fa3c ae26 a2bb 729e 3f3c
00000310: e6dd a23d ca54 333d 4ee1 063d a8d9 dcbb
00000320: cc45 6abc 0b7d 13bd 9da9 7b3d 9ca7 a7bb
00000330: 7175 323d b63d 30bd 3a8f 013d 1672 213e
00000340: 9b39 a53c c549 093c 307b 393c 61ce bcbd
00000350: 810c a73c 37ee dcbc b6d9 8abd ecdc 47bc
00000360: 50da a73b fc09 c3bc 51af 0dbc ffa6 61bd
00000370: 5bf1 5f3c 67ab 67bd 9afc 733a 9529 acbd
00000380: be56 4d3d 6500 c7bb 1f0f 763c ea9d 4cbc
00000390: cbaa edbc cc1a 02be 8658 acbd 984d a3bd
000003a0: 8bc9 b8bb c263 48bc 5997 99bd 0607 323d
000003b0: a9aa 1ebd b31f 4fbd b09c 253d 0213 d3bd
000003c0: 29ab 44bd 83cf 83bc 5c9b 68bd ffdc 3cbc
000003d0: a26d a7bd 87b6 5e3c 86b8 cfbc fa56 c13c
000003e0: 0229 87bc 30c0 9dbd 2c25 a53c 3c55 2f3d
000003f0: f764 223d 1203 1e3c c9a8 62bd 465c ab3d
0.10674909 0.013535532 0.1418257 0.04218987 0.023464635 0.08013492 0.033074446 -0.03558738
-0.012232923 0.07848777 0.06052215 -0.13915135 0.088493325 0.016976962 0.025351472 0.08246128
-0.027265603 0.10775369 -0.05023296 -0.0867862 0.04219621 0.085810766 -0.018303854 -0.0025331911
0.07893148 0.0070412746 0.10987536 -0.05061601 0.036941912 -0.013304756 -0.16826299 0.030383062
-0.10557083 0.04853688 0.044084378 0.054502655 -0.03491824 0.07420598 -0.17043908 -0.011890215
0.030830808 -0.00909748 0.057074472 -0.0100858975 0.067873135 -0.2205629 0.07648801 0.047062766
0.069692835 0.027429463 0.0008534868 -0.03312094 -0.021036712 0.03118783 -0.0061475975 0.049344018
0.08098979 0.091658875 -0.04324681 0.023445638 -0.057482235 0.04842416 0.08063852 -0.05707297
0.0033001213 -0.049247604 -0.025606494 -0.005198019 -0.04948371 0.060320374 0.03968529 0.031718317
0.03585251 -0.1189311 -0.08287881 -0.04238964 0.090751074 0.059997078 -0.054650914 -0.14338532
0.06478886 0.11723006 -0.018633131 -0.007863204 0.07236798 0.039055254 -0.021322753 -0.018615697
-0.051336594 0.052464206 -0.022294458 0.009598166 0.07526582 -0.022350194 -0.13784526 0.12552418
-0.03437705 -0.0004972379 -0.07055465 0.01525657 -0.02026541 -0.018220544 -0.04149854 0.12053894
0.06682091 -0.14216858 0.031357266 -0.011717588 0.08795476 0.118062206 -0.067394994 -0.013966855
0.09582947 0.1165421 0.09598156 -0.088765405 0.10422695 0.020284567 -0.06093027 0.09768972
0.070128955 0.09886779 0.12756024 -0.120279305 0.11649174 -0.017363304 0.052675057 0.033483554
-0.11825587 -0.014782111 -0.055736303 -0.0927105 -0.026560878 -0.019957848 -0.055333 0.00982343
0.08865233 -0.11500357 0.024171025 -0.0036256462 -0.03026349 -0.039208055 -0.03201583 -0.10354381
-0.091319054 -0.03446781 -0.017162895 0.12460352 0.01721984 -0.08271555 -0.049595892 -0.04839333
0.06262876 0.024029784 0.0069706533 0.054507796 0.036663856 -0.12551628 0.0704131 -0.06604798
-0.04835858 -0.18775466 0.04152565 0.031193169 0.06306803 0.016163459 0.1769824 -0.026395986
-0.10361913 -0.048370246 0.05918544 0.08857559 -0.013678062 0.1771734 -0.034382265 -0.014330363
-0.0027413657 -0.007637647 0.0038605547 -0.052430708 -0.027716177 -0.025865018 -0.016594855 0.015746865
-0.0054305675 -0.014900025 0.031876195 -0.018464679 0.026131721 0.0031898795 -0.12251317 0.0015219521
0.008516786 0.030561833 -0.0049484586 0.011695491 0.0795248 0.043782033 0.03292971 -0.006739814
-0.014298867 -0.036007922 0.061441053 -0.005116416 0.043569032 -0.043027602 0.031630732 0.15766177
0.02016907 0.008379404 0.011320874 -0.09219051 0.020391705 -0.026969058 -0.06779806 -0.012198668
0.0051224604 -0.023808472 -0.008647756 -0.0550909 0.0136683835 -0.056559946 0.0009307355 -0.08406369
0.050131552 -0.006073045 0.015018254 -0.0124888215 -0.029012104 -0.12705535 -0.08415322 -0.07973784
-0.00563926 -0.012230815 -0.074995704 0.04346373 -0.038736973 -0.05056734 0.040432632 -0.1030636
-0.048014794 -0.01609016 -0.056788787 -0.011527299 -0.08175208 0.013593323 -0.025356542 0.023601044
-0.016499046 -0.077026725 0.020159326 0.042805895 0.03964707 0.009644287 -0.055336747 0.08367209

fc3.bias f4 [2]
00000000: 2582 873c 4196 f3bd
0.01654155 -0.11893893
