Project 3-Open set recognition/Project/Weights/4_weights.pth (torch, 387487 bytes, 10 tensors)

conv1.weight f4 [64, 1, 7, 7]
0.0971035 0.2799638 0.33217096 0.15350623 0.05440436 0.00048951985 -0.06379335 -0.106286824
-0.008302757 0.3527026 0.13006267 0.21533644 -0.011029405 -0.042377226 -0.20244712 0.14610958
0.2652098 0.05647736 0.088006765 0.040308923 0.018721357 -0.22301519 0.05452647 0.086007304
0.20290576 -0.03592211 -0.14962675 0.024361834 -0.19250911 -0.012193002 0.2949366 0.19487226
-0.032334443 -0.1481328 -0.027230525 -0.0665049 -0.042594705 0.19580407 0.07591908 0.043490082
0.0025368084 -0.11758967 -0.028428202 0.15476276 0.4613633 0.24045375 0.3797044 0.118315235
-0.00069450476 0.0467708 -0.053824387 0.1089397 -0.03751249 0.18978867 0.09368404 0.050622407
0.09921093 0.011584123 0.13540258 0.059119787 0.10451056 0.07344079 0.07452776 0.00076221774
-0.110921234 -0.14510809 -0.10635045 0.14370444 0.15458271 0.06439508 0.09230144 0.122148134
-0.11756093 0.06991625 0.075951606 0.11017029 -0.028815873 -0.0073006917 -0.07470258 -0.04603279
0.118485115 0.15431249 -0.014716003 -0.06318286 0.061951306 0.19967172 -0.12921093 -0.01181879
0.089166574 -0.11270522 -0.102206014 0.15290031 -0.06715764 -0.021668058 0.09284894 0.13711281
0.17080644 0.15525891 0.11096261 0.102634504 0.0043580756 -0.14279881 -0.2272733 -0.116337284
0.052471768 0.13507703 0.12984186 0.102445416 0.12810762 0.07064893 -0.03297803 0.16769357
0.2106255 0.053086843 0.23725069 0.16537988 0.08909524 0.08549225 0.05366265 -0.0694808
-0.18348147 -0.0822336 -0.02851962 0.034812663 0.07009056 -0.025157377 0.023700599 -0.046469662
-0.05824317 -0.059761427 -0.07842244 0.1856951 0.16360638 -0.09319429 0.049567603 -0.078613915
0.038589977 0.11555463 0.016549757 -0.006889591 0.15535374 0.06628498 0.10371306 0.07233437
0.17596444 0.02396402 0.028412798 0.026091602 -0.23674986 -0.1541653 -0.3034517 -0.22509985
0.22037739 0.34045675 -0.08244094 -0.195114 -0.25141194 -0.4033878 -0.12026234 0.1758153
0.35824734 -0.026702654 -0.22567993 -0.20871817 -0.21936925 0.047213703 0.37276784 0.6244497
-0.12746781 -0.098251835 -0.30624974 -0.34797746 0.29844266 0.761277 0.64005375 -0.12972283
-0.24595647 -0.21641387 -0.12285492 0.35753438 0.47000542 0.23261385 -0.09250105 -0.1883106
-0.30125183 -0.06492851 0.49031398 0.3847042 -0.06951794 -0.051116616 -0.11612611 -0.16158362
-0.18235481 0.39337233 0.18266732 0.054861322 -0.16562454 -0.09748124 0.1699951 0.21823832
0.1871509 0.17429642 0.02208344 -0.0037968624 0.007954166 -0.04098067 0.11638372 0.2090465
0.17787108 0.25621787 0.15800531 -0.0948075 -0.19395863 -0.2516166 -0.12533003 0.26473355
0.19240317 0.1717987 0.00795765 -0.12671107 -0.30560997 0.13153312 -0.021275656 0.15126923
0.30749667 -0.00047248614 -0.0063103777 0.053505443 0.054142177 -0.06693758 0.06010711 0.23442765
0.040301118 0.17615914 0.32660136 -0.00095645385 -0.017204823 -0.15591642 0.23834771 0.0844186
-0.021832462 0.05914181 0.028694535 -0.122454636 -0.17792174 -0.05883582 0.2777789 0.56245285
-0.11772452 -0.13518706 -0.25371215 -0.14940615 -0.10237779 0.5472573 0.4353223 -0.24431185
00000000: 33de c63d 6a57 8f3e 5012 aa3e bd30 1d3e
00000010: 1bd7 5e3d 1f53 003a 16a6 82bd e8ac d9bd
00000020: 4908 08bc 6f95 b43e 262f 053e 2881 5c3e
00000030: adb4 34bc be93 2dbd 4c4e 4fbe c09d 153e
00000040: 94c9 873e ce54 673d e43c b43d f81a 253d
00000050: 885d 993c 185e 64be 2657 5f3d 9924 b03d
00000060: 87c6 4f3e 1023 13bd c137 19be 7892 c73c
00000070: 1c21 45be 28c5 47bc ee01 973e 988c 473e
00000080: 1f71 04bd 20b0 17be 8d12 dfbc b933 88bd
00000090: c977 2ebd dd80 483e 767b 9b3d a822 323d
000000a0: 9540 263b dad2 f0bd 43e2 e8bc 217a 1e3e
000000b0: cf37 ec3e 8239 763e 9d68 c23e 424f f23d
000000c0: 6d0f 36ba bd92 3f3d f676 5cbd c71b df3d
000000d0: b2a6 19bd f657 423e 6bdd bf3d 7159 4f3d
000000e0: 1a2f cb3d 55cb 3d3c f9a6 0a3e 9727 723d
000000f0: a209 d63d 2068 963d 03a2 983d 91cf 473a
00000100: ac2a e3bd 3797 14be 44ce d9bd 4227 133e
00000110: ee4a 1e3e 91e1 833d 8a08 bd3d cd28 fa3d
00000120: c9c3 f0bd 4030 8f3d 848c 9b3d f6a0 e13d
00000130: 440f ecbc a43a efbb abfd 98bd e18c 3cbd
00000140: 53a8 f23d 1804 1e3e 641b 71bc 0466 81bd
00000150: a7c0 7d3d be76 4c3e df4f 04be 99a3 41bc
00000160: f79c b63d ffd1 e6bd 6351 d1bd e691 1c3e
00000170: f289 89bd 3681 b1bc 9627 be3d 4d67 0c3e
00000180: e2e7 2e3e 31fc 1e3e 5d40 e33d 0a32 d23d
00000190: 30ce 8e3b da39 12be 55ba 68be 3e42 eebd
000001a0: a3ec 563d a251 0a3e 44f5 043e e7ce d13d
000001b0: a52e 033e 63b0 903d f913 07bd ddb7 2b3e
000001c0: 36ae 573e 9771 593d d8f1 723e 5859 293e
000001d0: 9177 b63d 9016 af3d 5ecd 5b3d f34b 8ebd
000001e0: 91e2 3bbe 176a a8bd faa1 e9bc b997 0e3d
000001f0: a48b 8f3d d816 cebc c227 c23c f956 3ebd
00000200: 6490 6ebd 66c8 74bd f29b a0bd db26 3e3e
00000210: 6e88 273e a6dc bebd 6607 4b3d 5500 a1bd
00000220: 8610 1e3d e8a7 ec3d 5b93 873c 14c2 e1bb
00000230: 0d15 1f3e 6bc0 873d 8367 d43d 0b24 943d
00000240: 0630 343e 3150 c43c f5c1 e83c 0ebe d53c
00000250: 8e6e 72be 82dd 1dbe 055e 9bbe 9380 66be
00000260: 9caa 613e 5950 ae3e ccd6 a8bd f7cb 47be
00000270: 11b9 80be d988 cebe 1a4c f6bd ed08 343e
00000280: 326c b73e 86bf dabc a418 67be 37ba 55be
00000290: 55a2 60be 2863 413d 6ddb be3e efdb 1f3f
000002a0: ec86 02be 4238 c9bd c4cc 9cbe 1a2a b2be
000002b0: 7acd 983e 0de3 423f 90da 233f 10d6 04be
000002c0: 03dc 7bbe 999b 5dbe 5c9b fbbd bf0e b73e
000002d0: 8da4 f03e 5332 6e3e 3171 bdbd 7ed4 40be
000002e0: ae3d 9abe 3df9 84bd 6f0a fb3e f3f7 c43e
000002f0: 6c5f 8ebd a85f 51bd 87d3 edbd 2d76 25be
00000300: 38bb 3abe 1968 c93e 240d 3b3e 44b6 603d
00000310: 7b99 29be 3fa4 c7bd 3213 2e3e de79 5f3e
00000320: 7ca4 3f3e c37a 323e 55e8 b43c c8d4 78bb
00000330: 3152 023c 59db 27bd 965a ee3d 4910 563e
00000340: d623 363e fd2e 833e 25cc 213e 6f2a c2bd
00000350: 179d 46be e4d3 80be 8456 00be 288b 873e
00000360: 5605 453e 00ec 2f3e ce60 023c 8cc0 01be
00000370: e978 9cbe 9eb0 063e 494a aebc 52e6 1a3e
00000380: 3470 9d3e 04b8 f7b9 49c7 cebb 8628 5b3d
00000390: 30c4 5d3d 9216 89bd df32 763d cd0d 703e
000003a0: c912 253d 1063 343e 4b38 a73e 88ba 7aba
000003b0: 21f1 8cbc 8ea8 1fbe 6c11 743e a9e3 ac3d
000003c0: fed9 b2bc af3e 723d cd10 eb3c 7fc9 fabd
000003d0: 1e31 36be d4fd 70bd 0939 8e3e e9fc 0f3f
000003e0: 8e19 f1bd 7a6e 0abe 8fe6 81be edfd 18be
000003f0: 72ab d1bd 0e19 0c3f 91e2 de3e e32c 7abe

conv1.bias f4 [64]
-0.2205463 -0.06736893 -0.36643633 0.04724111 -0.27874365 -0.18591653 -0.15369262 -0.0014569403
-0.26832715 -0.27664864 -0.1763579 -0.12875575 -0.13638791 -0.056641113 -0.24484684 -0.39337426
-0.031019215 -0.27564138 -0.087391935 -0.25082883 -0.14968623 -0.3544985 -0.3111828 -0.30895764
-0.30278018 -0.07070179 -0.046624005 -0.2336671 -0.20210508 -0.046949644 -0.097325146 -0.2594985
-0.30833265 -0.13579851 -0.2901263 -0.183985 -0.04809438 -0.11483598 -0.2368502 -0.0037903616
-0.4735939 -0.089210615 -0.17131735 -0.15205686 -0.34011415 -0.37170804 -0.23355184 -0.37431225
-0.2276861 -0.3396268 -0.18862687 -0.41020605 -0.31469065 -0.16003361 -0.14555566 -0.09679566
0.027452307 -0.23126276 -0.10886132 -0.27076805 -0.22292617 -0.25300777 -0.28745803 -0.09610781
00000000: e4d6 61be b9f8 89bd 8b9d bbbe e57f 413d
00000010: 7db7 8ebe e760 3ebe 9961 1dbe cef6 beba
00000020: 2d62 89be e4a4 8dbe 2a97 34be 8cd8 03be
00000030: 46a9 0bbe 8300 68bd 21b9 7abe 5a68 c9be
00000040: 021c febc de20 8dbe 8bfa b2bd a36c 80be
00000050: 5947 19be d480 b5be 5a53 9fbe b22f 9ebe
00000060: 0106 9bbe 1acc 90bd d0f8 3ebd 6e46 6fbe
00000070: a2f4 4ebe 454e 40bd 6852 c7bd fddc 84be
00000080: c7dd 9dbe c40e 0bbe 6f8b 94be 9066 3cbe
00000090: 9dfe 44bd 202f ebbd dc88 72be b767 78bb
000000a0: e67a f2be 0eb4 b6bd d16d 2fbe cbb4 1bbe
000000b0: 7123 aebe 8450 bebe 3728 6fbe dba5 bfbe
000000c0: 8c26 69be 90e3 adbe 6727 41be 8706 d2be
000000d0: 221f a1be dadf 23be 8b0c 15be ce3c c6bd
000000e0: a9e3 e03c 25d0 6cbe aff2 debd 1ca2 8abe
000000f0: c246 64be 3c8a 81be b32d 93be 2cd4 c4bd

conv2.weight f4 [32, 64, 5, 5]
-0.056522083 -0.08815743 -0.067945816 -0.08829559 -0.06662457 -0.06733193 -0.04474504 -0.056415685
-0.059468362 -0.08658568 -0.05293737 -0.05355624 -0.050786436 -0.08468795 -0.081261806 -0.08003175
-0.043819554 -0.07026587 -0.07985615 -0.046139773 -0.082157575 -0.065111995 -0.08277143 -0.08844465
-0.05377761 -0.08114582 -0.07374375 -0.054850016 -0.07723089 -0.08010122 -0.047349244 -0.06407933
-0.082248904 -0.06694644 -0.07809462 -0.04795887 -0.05937714 -0.047680646 -0.040497776 -0.07788249
-0.052255236 -0.060082715 -0.07499248 -0.034926772 -0.05518906 -0.078427106 -0.040810775 -0.040269136
-0.053311035 -0.052632086 -0.015923742 -0.04667739 -0.051076338 -0.039556816 -0.056189287 -0.043235492
-0.016418088 -0.03336335 -0.029472318 -0.040459454 0.0034185713 -0.012183444 -0.024844358 -0.040274974
-0.037535954 -0.018248774 -0.010910907 -0.042324487 -0.05868617 -0.06051126 0.008243193 -0.0020885596
-0.0006016593 -0.045782845 -0.051490244 -0.056608964 -0.06375233 -0.07585143 -0.06289493 -0.03802512
-0.03963481 -0.053615555 -0.043488394 -0.039241184 -0.020637851 -0.0682055 -0.062388964 -0.054417484
-0.014513266 -0.03461825 -0.06839131 -0.05932797 -0.032266203 -0.025156377 -0.0064449757 -0.07351643
-0.052499816 -0.026523318 -0.020854738 -0.0070997127 -0.03775852 -0.08699963 -0.06480823 -0.07407015
-0.07837547 -0.03776735 -0.051198684 -0.041337404 -0.07677241 -0.08661443 -0.037552394 -0.039839327
-0.05948437 -0.06146445 -0.05168778 -0.046316434 -0.085508585 -0.07302393 -0.07627401 -0.08491749
-0.037744638 -0.07931818 -0.04204546 -0.04400699 -0.074028715 -0.0398669 -0.048415 -0.061703444
-0.03991803 -0.068836495 -0.07645914 -0.058973007 -0.06514664 -0.04041971 -0.07210387 -0.0693114
-0.07079264 -0.038377326 -0.06871431 -0.074322365 -0.042079415 -0.04701467 -0.04309214 -0.0676651
-0.0543228 -0.08448705 -0.08352625 -0.072664805 -0.02381445 -0.031297803 -0.02760985 -0.05233405
-0.033085857 -0.03686766 -0.050978985 -0.03155054 -0.057363417 -0.016198726 -0.05100364 -0.034550656
-0.014635621 -0.010246669 -0.031876963 -0.014052834 -0.060001567 -0.04468082 -0.03260585 -0.01324341
-0.014103945 -0.04231388 -0.020964721 -0.06244654 -0.023888506 -0.021244558 -0.03620103 -0.045818802
-0.07511471 -0.051948942 -0.061454426 -0.045057885 -0.042042527 -0.06867357 -0.045710083 -0.080007695
-0.0681691 -0.08231019 -0.06418406 -0.044535983 -0.088987656 -0.07698129 -0.036599763 -0.058595907
-0.050205432 -0.037974697 -0.03894265 -0.063682415 -0.06342778 -0.047860008 -0.05298668 -0.051046178
-0.05689774 -0.044808414 -0.077184275 -0.076792896 -0.07902587 -0.072108224 -0.07401505 -0.058242463
-0.07735973 -0.05011922 -0.06289788 -0.053712524 -0.03794949 -0.05306413 -0.061095897 -0.04759718
-0.08528872 -0.049206454 -0.05513739 -0.048924047 -0.05276675 -0.06212476 -0.07793036 -0.056655582
-0.022015413 -0.04117692 -0.016510028 -0.049053364 -0.077985935 -0.0571356 -0.02993532 -0.036915995
-0.027134787 -0.053412024 -0.025708614 -0.06712685 -0.05840332 -0.07690172 -0.035117723 -0.026323296
-0.060781043 -0.073690176 -0.038201947 -0.049593683 -0.059870303 -0.021231707 -0.07297096 -0.051754206
-0.06582545 -0.026804065 -0.0552487 -0.06161945 -0.034206536 -0.027231015 -0.06456064 -0.028194943
00000000: b383 67bd e28b b4bd 2d27 8bbd 51d4 b4bd
00000010: 7672 88bd 53e5 89bd 9346 37bd 2214 67bd
00000020: 1995 73bd d553 b1bd dbd4 58bd ca5d 5bbd
00000030: 7005 50bd e070 adbd 976c a6bd b0e7 a3bd
00000040: 227c 33bd 8de7 8fbd 9f8b a3bd 0ffd 3cbd
00000050: 3b42 a8bd 7059 85bd 1184 a9bd 7822 b5bd
00000060: e945 5cbd c82f a6bd f706 97bd 69aa 60bd
00000070: 3b2b 9ebd 1c0c a4bd 48f1 41bd 063c 83bd
00000080: 1d72 a8bd 371b 89bd 12f0 9fbd 8570 44bd
00000090: 7235 73bd c84c 43bd ffe0 25bd db80 9fbd
000000a0: 9609 56bd 4b19 76bd a895 99bd 600f 0fbd
000000b0: ec0d 62bd 649e a0bd 3329 27bd 40f1 24bd
000000c0: ac5c 5abd be94 57bd 8272 82bc ca30 3fbd
000000d0: 6c35 51bd 5406 22bd bd26 66bd b317 31bd
000000e0: 3a7f 86bc 02a8 08bd ee6f f1bc d0b8 25bd
000000f0: 1c0a 603b 119d 47bc 6586 cbbc 5ff7 24bd
00000100: 4dbf 19bd 747e 95bc a9c3 32bc 715c 2dbd
00000110: e960 70bd a8da 77bd 750e 073c 37e0 08bb
00000120: acb8 1dba cb86 3bbd 6fe7 52bd cdde 67bd
00000130: 9590 82bd ff57 9bbd 0fcf 80bd 3ac0 1bbd
00000140: 1c58 22bd fc9b 5bbd e320 32bd 5dbb 20bd
00000150: b610 a9bc 53af 8bbd 928b 7fbd dee4 5ebd
00000160: 0dc9 6dbc decb 0dbd be10 8cbd e301 73bd
00000170: 9129 04bd bf14 cebc 6030 d3bb c88f 96bd
00000180: 0c0a 57bd 6e47 d9bc 8ed7 aabc b5a4 e8bb
00000190: aea8 1abd dd2c b2bd 2dba 84bd 17b2 97bd
000001a0: 5283 a0bd f0b1 1abd b6b5 51bd 6951 29bd
000001b0: da3a 9dbd e862 b1bd 8ad0 19bd 902e 23bd
000001c0: e2a5 73bd 26c2 7bbd 91b6 53bd 4db6 3dbd
000001d0: 201f afbd 928d 95bd 8c35 9cbd 39e9 adbd
000001e0: 1f9a 1abd 9271 a2bd dc37 2cbd ac40 34bd
000001f0: 5e9c 97bd 794b 23bd cf4e 46bd c0bc 7cbd
00000200: 1781 23bd 26fa 8cbd 9c96 9cbd ae8d 71bd
00000210: 9a6b 85bd 238f 25bd 32ab 93bd 23f3 8dbd
00000220: bbfb 90bd 8b31 1dbd 17ba 8cbd 5336 98bd
00000230: 775b 2cbd 7492 40bd 6281 30bd 0094 8abd
00000240: 9681 5ebd 8c07 adbd d00f abbd 49d1 94bd
00000250: 8516 c3bc 2032 00bd 0d2e e2bc 3b5c 56bd
00000260: 0985 07bd 8b02 17bd 57cf 50bd 243b 01bd
00000270: e7f5 6abd 31b3 84bc 31e9 50bd fd84 0dbd
00000280: 3eca 6fbc a5e1 27bc 6b91 02bd dc3d 66bc
00000290: 34c4 75bd 3c03 37bd b68d 05bd e3fa 58bc
000002a0: 3c14 67bc 5251 2dbd 35be abbc f1c7 7fbd
000002b0: d4b1 c3bc 1109 aebc 8847 14bd 7fac 3bbd
000002c0: bed5 99bd 6ac8 54bd a3b7 7bbd 9e8e 38bd
000002d0: c934 2cbd bba4 8cbd 7f3a 3bbd 13db a3bd
000002e0: 3e9c 8bbd 3f92 a8bd ef72 83bd 5d6b 36bd
000002f0: 293f b6bd 5ea8 9dbd a2e9 15bd 4302 70bd
00000300: 36a4 4dbd 5b8b 1bbd 5482 1fbd ed6b 82bd
00000310: 6de6 81bd db08 44bd 9008 59bd cc15 51bd
00000320: 9b0d 69bd 0789 37bd ca12 9ebd 9845 9dbd
00000330: 51d8 a1bd 7aad 93bd 3495 97bd a68f 6ebd
00000340: c76e 9ebd d049 4dbd 9bd0 80bd aa01 5cbd
00000350: ed70 1bbd c659 59bd b13f 7abd 43f5 42bd
00000360: daab aebd b58c 49bd bed7 61bd 9564 48bd
00000370: f321 58bd 8876 7ebd f499 9fbd af0f 68bd
00000380: ab59 b4bc 21a9 28bd 0a40 87bc 2eec 48bd
00000390: 17b7 9fbd 0507 6abd eb3a f5bc 3a35 17bd
000003a0: c649 debc 91c6 5abd df9a d2bc cd79 89bd
000003b0: 5238 6fbd a67e 9dbd 9ad7 0fbd f4a3 d7bc
000003c0: 8bf5 78bd e0ea 96bd a579 1cbd bf22 4bbd
000003d0: 903a 75bd 1eee adbc cc71 95bd 38fc 53bd
000003e0: 7ecf 86bd 3394 dbbc 764c 62bd ad64 7cbd
000003f0: 271c 0cbd 9413 dfbc 5e38 84bd 15f9 e6bc

conv2.bias f4 [32]
-0.042664923 0.16442874 -0.07051731 -0.07581526 -0.03756182 -0.071810596 -0.07175173 -0.06972882
-0.018209746 -0.057673447 -0.050341338 -0.053895153 -0.07635722 -0.07702952 -0.037563052 -0.06006046
-0.081010334 -0.052206837 -0.06519563 -0.03195469 -0.057528447 -0.0558566 -0.0477429 -0.09634306
-0.06237008 -0.08138082 -0.08070706 -0.0397311 -0.062493864 0.0024421697 -0.1313702 -0.060304638
00000000: 6ac1 2ebd 0260 283e 616b 90bd 0845 9bbd
00000010: 6cda 19bd 6f11 93bd 92f2 92bd fccd 8ebd
00000020: 9b2c 95bc fe3a 6cbd b832 4ebd 2ac1 5cbd
00000030: 2d61 9cbd a7c1 9dbd b7db 19bd f501 76bd
00000040: bfe8 a5bd d6d6 55bd 4985 85bd ece2 02bd
00000050: f3a2 6bbd e4c9 64bd 0f8e 43bd 834f c5bd
00000060: c577 7fbd fdaa a6bd be49 a5bd 14bd 22bd
00000070: 91f9 7fbd cf0c 203b e985 06be ff01 77bd

fc1.weight f4 [256, 32]
0.027097834 -0.33466008 -0.02583084 0.09701784 0.001991279 0.0033821182 0.20079309 0.04626806
-0.16613312 -0.08220709 -0.038345437 0.03926779 0.047024574 0.13351724 0.04484519 0.020920925
0.12031605 -0.046191033 -0.020092586 0.11773082 0.052104056 0.22963397 -0.053709738 0.15157299
-0.19226792 -0.19512749 -0.03887091 0.16273338 -0.1262094 -0.062797576 -0.13369085 -0.018910214
-0.028823502 -0.24199982 0.084171236 -0.06376926 0.074309506 0.040737335 0.17049022 -0.078062534
0.034107886 0.15386535 0.100513384 -0.03572706 -0.16574469 -0.06496469 0.016314222 -0.15294258
-0.15442795 -0.084157854 -0.04866725 -0.04073969 -0.09551752 0.048700564 -0.03213971 0.02731086
-0.19072479 0.09406413 -0.1679581 0.040364332 0.06150331 0.09379202 -0.23190491 -0.09430389
0.010761019 -0.03348644 0.18030612 -0.020245641 -0.088818625 0.09892843 0.17605437 0.22062202
-0.05327929 0.02427169 0.12047248 0.027267171 -0.010065308 -0.063241266 0.0495793 -0.011960308
0.010766508 0.18407476 -0.004609703 0.16488339 0.13100648 -0.04089277 0.23037286 -0.006536679
-0.08148084 -0.19018388 -0.0066910195 0.0782964 -0.123155154 -0.06804835 -0.08346004 0.08185171
0.013280778 0.12005706 0.0059039304 -0.13339502 0.07508113 -0.19406134 0.09517743 0.11677549
-0.011248385 -0.00068387476 -0.19594358 0.13152006 0.04464367 -0.05704835 -0.19777265 -0.14164731
-0.10604669 -0.00596831 0.008094656 -0.07893268 -0.03322022 -0.011185131 -0.075958736 -0.2170502
0.044594254 0.09737701 0.1269116 0.017015655 0.0730144 0.011195348 -0.20031726 0.025308045
0.018303107 -0.08910612 -0.062363796 -0.019631604 0.011817983 -0.2024836 -0.21398242 -0.037772212
-0.09706782 -0.04206074 -0.033198815 -0.20179106 -0.114041515 -0.15392478 0.021176115 -0.12070125
0.04532443 -0.010758588 -0.1298079 0.027746888 -0.21028382 0.13951215 -0.10210525 0.0074730986
-0.16279493 0.04885481 -0.21787116 -0.18528545 0.11755407 -0.11962547 -0.5585344 -0.01954406
-0.11466671 -0.09098357 -0.22682698 0.1433601 -0.08130512 -0.061680872 0.008597976 -0.21181034
0.011201684 -0.22893809 0.16083075 0.026673473 -0.22359084 -0.08576331 -0.06070603 -0.08212702
-0.026897356 0.030824129 -0.1307757 -0.10709566 -0.025265286 0.13412905 -0.02298379 0.0851378
-0.033519156 -0.048133537 0.099937126 0.18353917 0.21935089 0.1916218 -0.039923344 -0.21204212
0.026706899 -0.23636715 -0.06815832 -0.17693077 0.11070369 0.082977906 0.00073200115 0.064518034
-0.12328617 0.10410647 -0.015528067 0.053910278 -0.115633756 -0.020683039 -0.14115483 -0.2144699
0.010117978 0.084447086 -0.1979889 -0.089393586 0.05056934 -0.002317828 0.012648475 -0.10710518
-0.04594272 0.019504173 0.10691515 -0.15121436 0.009752695 -0.122758575 -0.02503956 -0.05923591
0.0691979 0.057033066 0.10001359 0.14528057 0.14272484 -0.112365104 -0.07644126 -0.0060962113
-0.13200444 0.002422653 -0.04796904 -0.06243607 -0.06722376 0.05520491 -0.05834762 0.14500415
0.23407087 0.22044294 -0.03210725 -0.04313212 -0.033066653 0.13302755 0.19096768 -0.11636166
0.2089738 -0.08109549 -0.004731577 -0.06602963 0.23962055 0.07531299 -0.39130476 0.037670568
00000000: 47fc dd3c 9158 abbe 339b d3bc 4ab1 c63d
00000010: 1e80 023b 87a6 5d3b b49c 4d3e 9483 3d3d
00000020: cd1e 2abe 315c a8bd 1b10 1dbd 43d7 203d
00000030: d79c 403d beb8 083e 97af 373d 5c62 ab3c
00000040: 4368 f63d cf32 3dbd 3599 a4bc db1c f13d
00000050: 106b 553d 2b25 6b3e befe 5bbd f335 1b3e
00000060: e2e1 44be 80cf 47be 1a37 1fbd 94a3 263e
00000070: 093d 01be 049c 80bd 41e6 08be 98e9 9abc
00000080: 441f ecbc cdce 77be f861 ac3d 7599 82bd
00000090: 952f 983d 31dc 263d fd94 2e3e 40df 9fbd
000000a0: b6b4 0b3d e18e 1d3e f6d9 cd3d 8a56 12bd
000000b0: fab8 29be 350c 85bd 67a5 853c fb9c 1cbe
000000c0: 5c22 1ebe f45a acbd 4f57 47bd a9de 26bd
000000d0: b19e c3bd 3e7a 473d eea4 03bd 06bb df3c
000000e0: 5c4d 43be b2a4 c03d 35fd 2bbe 1255 253d
000000f0: e5ea 7b3d 0816 c03d 7b78 6dbe 6622 c1bd
00000100: fc4e 303c 1429 09bd 2ba2 383e 30da a5bc
00000110: 8ae6 b5bd fd9a ca3d 9947 343e bdea 613e
00000120: 633b 5abd 6cd5 c63c 47ba f63d 675f df3c
00000130: f6e8 24bc a384 81bd aa13 4b3d 2bf5 43bc
00000140: 0266 303c 187e 3c3e fe0c 97bb 31d7 283e
00000150: 9026 063e 2d7f 27bd dde6 6b3e a331 d6bb
00000160: 6ddf a6bd 90bf 42be 5740 dbbb dd59 a03d
00000170: c538 fcbd ef5c 8bbd 19ed aabd dfa1 a73d
00000180: 9f97 593c 7ae0 f53d c275 c13b b498 08be
00000190: 23c4 993d 04b8 46be 62ec c23d fd27 ef3d
000001a0: 254b 38bc 0f46 33ba 6fa5 48be 32ad 063e
000001b0: 48dc 363d 88ab 69bd ea84 4abe fe0b 11be
000001c0: 022f d9bd d091 c3bb 739f 043c 75a7 a1bd
000001d0: ed11 08bd d741 37bc 4190 9bbd 6842 5ebe
000001e0: 77a8 363d 996d c73d 1df5 013e 6a64 8b3c
000001f0: 9388 953d b16c 373c f81f 4dbe d152 cf3c
00000200: 66f0 953c 457d b6bd 2e71 7fbd 75d2 a0bc
00000210: 37a0 413c dc57 4fbe 351e 5bbe 09b7 1abd
00000220: 7ecb c6bd e247 2cbd 7bfb 07bd 51a2 4ebe
00000230: 998e e9bd 759e 1dbe 8879 ad3c 3832 f7bd
00000240: 1ca6 393d ca44 30bc 5dec 04be 714d e33c
00000250: a454 57be 46dc 0e3e 8f1c d1bd e5e0 f43b
00000260: b7b3 26be fb1b 483d 9e19 5fbe 78bb 3dbe
00000270: 30c0 f03d 33fe f4bd 1cfc 0ebf dd1a a0bc
00000280: 61d6 eabd 9855 babd 5545 68be fdcc 123e
00000290: 4c83 a6bd 15a5 7cbd 86de 0c3c cfe4 58be
000002a0: 4587 373c bf6e 6abe d1b0 243e 5482 da3c
000002b0: fff4 64be ada4 afbd e3a6 78bd 3632 a8bd
000002c0: d857 dcbc e282 fc3c 11ea 05be f854 dbbd
000002d0: 25f9 cebc 2059 093e 8048 bcbc ba5c ae3d
000002e0: 624b 09bd ac27 45bd d6ab cc3d b1f1 3b3e
000002f0: 859d 603e 8138 443e a986 23bd 9221 59be
00000300: 6dc8 da3c 3b0a 72be 9796 8bbd 572d 35be
00000310: 9eb8 e23d 52f0 a93d c4e3 3f3a 0822 843d
00000320: 767d fcbd c635 d53d 6f69 7ebc 06d1 5c3d
00000330: 64d1 ecbd 7a6f a9bc e48a 10be ff9d 5bbe
00000340: e0c5 253c 98f2 ac3d 9abd 4abe fc13 b7bd
00000350: cc21 4f3d b3e6 17bb 8d3b 4f3c f659 dbbd
00000360: 6f2e 3cbd 37c7 9f3c 55f6 da3d f0d7 1abe
00000370: c5c9 1f3c d968 fbbd c31f cdbc 5ba1 72bd
00000380: a1b7 8d3d 819b 693d edd3 cc3d 6ec4 143e
00000390: 7626 123e ad1f e6bd 3c8d 9cbd bac2 c7bb
000003a0: 2c2c 07be 5fc5 1e3b 2f7b 44bd f7bc 7fbd
000003b0: 9cac 89bd 8b1e 623d eafd 6ebd f87b 143e
000003c0: 46b0 6f3e cbbb 613e e482 03bd 4eab 30bd
000003d0: e670 07bd 6038 083e 088d 433e 064f eebd
000003e0: 3afd 553e 6415 a6bd 580b 9bbb 8b3a 87bd
000003f0: 175f 753e b23d 9a3d 1959 c8be 744c 1a3d

fc1.bias f4 [256]
0.23263663 0.18613128 0.1974453 -0.14435904 0.11571464 0.036625415 -0.2067081 0.112764165
-0.12847571 -0.2146605 -0.15277968 0.13086297 -0.13932972 -0.16921051 0.13466656 0.11374357
-0.15465887 -0.10236887 -0.20109658 0.18151994 -0.044773318 0.0025380317 0.06858318 -0.11853996
-0.13346273 -0.14655407 -0.17123587 -0.09835466 0.09627159 0.15519422 0.14079717 0.19840105
0.22477363 -0.17919779 -0.08369665 0.04880303 0.11564111 0.24696863 -0.10292801 -0.25175956
-0.066348046 0.18342301 -0.040450346 -0.04570693 0.14624149 -0.05636624 -0.14396352 -0.21374401
-0.21193565 0.035422765 0.31878573 -0.18804944 0.13215965 -0.23443906 -0.23067924 0.062069025
0.09296902 0.1883451 -0.14727192 -0.01819444 0.07789708 0.04423125 -0.14068092 -0.15951948
-0.17013267 -0.055519685 0.18749498 -0.16775608 0.14091103 0.19622853 0.19386066 0.29752818
-0.14667755 -0.15842617 0.18713626 -0.11833994 -0.0975783 -0.15215686 0.14800726 -0.2216495
0.15377143 -0.045611102 -0.14680894 0.25479472 0.088012695 -0.08518207 0.17911987 -0.119211376
0.08420821 0.13484904 -0.15174313 -0.11828544 0.26597342 0.11179513 -0.16715623 -0.07626504
-0.10337943 -0.13338481 -0.13790509 0.023201933 0.22362562 0.07692109 -0.18189049 -0.17716831
0.32516247 -0.3097365 0.3010105 -0.09588446 0.14052513 -0.070222825 -0.11802277 0.12207372
-0.11835185 -0.12858123 -0.073527135 0.19293119 0.114531055 -0.09372184 0.16664752 -0.1559225
0.105646454 -0.043111417 0.1965042 -0.14363179 0.19635515 0.11661501 0.07633294 -0.0022451014
0.16802873 -0.06554957 0.028956406 0.24467415 0.124848925 0.10463153 0.26256016 -0.17716998
0.30476496 -0.09527654 -0.06842006 -0.18572693 -0.10562086 0.13194397 -0.108644135 0.27709466
0.19287279 0.11968555 -0.07763155 0.14830935 0.107759155 0.260894 0.07084683 -0.09607804
0.0019814074 0.2182115 0.049445298 -0.16345638 -0.15507935 0.2910579 0.30508703 -0.04741907
-0.111683264 0.09819445 -0.0984151 0.077655844 -0.038010985 0.06081685 0.20983385 -0.20055005
-0.037287336 0.0019988245 -0.16818516 -0.13069457 0.18459928 0.18849486 -0.032062333 -0.0022279753
-0.047099862 0.0026101326 -0.08748919 0.17092402 0.0059652054 0.20698094 -0.16543962 0.025598317
-0.04654624 0.084788375 0.19558294 0.20539725 -0.17332228 -0.20448957 0.12967797 -0.14862435
-0.26219565 0.084444635 -0.029601965 -0.31299838 -0.15238978 -0.025012562 -0.17108527 -0.1767763
0.047891088 -0.19845456 -0.13435765 -0.2877292 -0.20703113 -0.054439522 -0.19682701 0.13056749
-0.18798865 0.29651898 0.18075553 -0.05252802 0.24246693 0.31035382 0.10889078 0.26362732
-0.020948652 -0.23368897 -0.036363643 -0.037286796 0.15789123 -0.07048942 0.08552368 -0.0484991
-0.035678003 -0.08589652 -0.10456677 0.15542151 0.108510405 0.09296204 -0.023501294 -0.23499028
0.0249306 -0.078125596 -0.09601709 -0.16731659 0.23928916 0.16500562 -0.04631182 0.16378108
-0.006606314 -0.039228246 0.032257706 -0.2362578 0.13773982 -0.066048056 -0.16179696 -0.08539209
-0.19529255 -0.027441544 -0.11501579 0.023370245 0.19507357 0.18340677 0.13991773 0.12336623
00000000: 4c38 6e3e 3399 3e3e 1a2f 4a3e dbd2 13be
00000010: ccfb ec3d 8804 163d 4aab 53be e6f0 e63d
00000020: 238f 03be f6cf 5bbe 4772 1cbe f100 063e
00000030: 73ac 0ebe 8545 2dbe 08e6 093e 64f2 e83d
00000040: e55e 1ebe c5a6 d1bd 43ec 4dbe 5de0 393e
00000050: 3a64 37bd 1b55 263b 5775 8c3d 14c5 f2bd
00000060: 74aa 08be 4512 16be 7558 2fbe 2b6e c9bd
00000070: 0a2a c53d 3ceb 1e3e 222d 103e a529 4b3e
00000080: 0f2b 663e a07f 37be 2669 abbd b0e5 473d
00000090: 3fd5 ec3d 58e5 7c3e eccb d2bd a1e6 80be
000000a0: 7ce1 87bd 3ed3 3b3e 43af 25bd 3137 3bbd
000000b0: 54c0 153e 49e0 66bd 2c6b 13be b6df 5abe
000000c0: a905 59be 7617 113d e237 a33e 0890 40be
000000d0: dc54 073e cb10 70be 2e37 6cbe 173c 7e3d
000000e0: 8b66 be3d 8add 403e 73ce 16be 820c 95bc
000000f0: 8188 9f3d d42b 353d a90e 10be 1359 23be
00000100: 4237 2ebe 9c68 63bd affe 3f3e 40c8 2bbe
00000110: fb4a 103e 22f0 483e 6983 463e 9d55 983e
00000120: a432 16be 783a 22be a6a0 3f3e 365c f2bd
00000130: 22d7 c7bd 02cf 1bbe 378f 173e 16f8 62be
00000140: 4276 1d3e b5d2 3abd 1555 16be 7474 823e
00000150: 0040 b43d f073 aebd 336b 373e 1825 f4bd
00000160: 5b75 ac3d de15 0a3e 8d62 1bbe a33f f2bd
00000170: ab2d 883e d8f4 e43d 012b 2bbe d830 9cbd
00000180: 98b8 d3bd 0796 08be fe36 0dbe fb11 be3c
00000190: 1dfe 643e ce88 9d3d 8041 3abe 9c6b 35be
000001a0: b27b a63e c895 9ebe 0c1e 9a3e 125f c4bd
000001b0: d2e5 0f3e fcd0 8fbd ecb5 f1bd c901 fa3d
000001c0: 7462 f2bd ccaa 03be 6595 96bd c18f 453e
000001d0: 428f ea3d 3cf1 bfbd a6a5 2a3e 26aa 1fbe
000001e0: 2b5d d83d 9995 30bd 6638 493e 3614 13be
000001f0: 5311 493e dad3 ee3d 7254 9c3d 8d22 13bb
00000200: b90f 2c3e da3e 86bd fc35 ed3c dc8b 7a3e
00000210: cbb0 ff3d 0e49 d63d 496e 863e 0c6c 35be
00000220: 270a 9c3e 5920 c3bd d11f 8cbd 332f 3ebe
00000230: c04f d8bd 521c 073e d180 debd 5adf 8d3e
00000240: 7280 453e b31d f53d 4afd 9ebd 68de 173e
00000250: d5b0 dc3d e693 853e 2518 913d 90c4 c4bd
00000260: 80da 013b d672 5f3e 2787 4a3d 1c61 27be
00000270: 1fcd 1ebe 8b05 953e 5e34 9c3e 803a 42bd
00000280: 32ba e4bd 2c1a c93d db8d c9bd 070a 9f3d
00000290: 68b1 1bbd 171b 793d afde 563e fe5c 4dbe
000002a0: 9bba 18bd b6fe 023b bb38 2cbe ccd4 05be
000002b0: 9807 3d3e cc04 413e cb53 03bd 3903 12bb
000002c0: c9eb 40bd c20e 2b3b 882d b3bd b506 2f3e
000002d0: c577 c33b d0f2 533e 0169 29be 90b3 d13c
000002e0: 45a7 3ebd 87a5 ad3d e546 483e a853 523e
000002f0: 657b 31be b765 51be 4dca 043e fb30 18be
00000300: 823e 86be 4ff1 ac3d d27f f2bc 5341 a0be
00000310: 110c 1cbe 25e7 ccbc fa30 2fbe d904 35be
00000320: 7229 443d ac37 4bbe 0d95 09be 3e51 93be
00000330: f8ff 53be fafb 5ebd 058d 49be 7cb3 053e
00000340: 1980 40be 56d1 973e fa17 393e 9f27 57bd
00000350: 4049 783e b2e6 9e3e 2102 df3d 29fa 863e
00000360: 829c abbc 294c 6fbe 0bf2 14bd 0aba 18bd
00000370: 3dae 213e c25c 90bd 0a27 af3d fea6 46bd
00000380: 1923 12bd 84ea afbd 1a27 d6bd d126 1f3e
00000390: b43a de3d e262 be3d c985 c0bc 4ba1 70be
000003a0: 423b cc3c 5000 a0bd 9ca4 c4bd 0a55 2bbe
000003b0: 3808 753e 3cf7 283e 77b1 3dbd 3ab6 273e
000003c0: c779 d8bb ccad 20bd a820 043d 91ed 71be
000003d0: ab0b 0d3e 3444 87bd 1aae 25be 0ce2 aebd
000003e0: c5fa 47be 17cd e0bc 668d ebbd f572 bf3c
000003f0: 5ec1 473e fcce 3b3e 9846 0f3e 6fa7 fc3d

fc2.weight f4 [128, 256]
-0.06091992 0.054300956 -0.063354254 0.038110882 -0.09829148 -0.07826001 -0.062351722 -0.083511844
0.05480954 -0.0044036806 -0.018573731 -0.107724905 -0.11093863 -0.042571418 -0.08774049 -0.06684542
0.0053367466 -0.015650973 0.0023511723 -0.05553119 -0.06788725 -0.039181057 -0.095300674 -0.048945487
-0.0021768436 -0.0042420626 -0.042744964 -0.1121813 0.020744637 -0.039713927 -0.08227743 -0.090373054
-0.11611109 -0.01562681 0.038010396 -0.011572372 -0.04463231 -0.02678486 -0.016281893 -0.018340714
-0.016740436 -0.06777812 -0.042378563 -0.10997928 -0.057090312 -0.06157592 -0.012216286 -0.039225273
-0.023188844 -0.104218 -0.08102026 -0.098183736 -0.09904847 0.00051059574 0.006186314 0.005876623
-0.0022688163 -0.058739934 -0.032369353 -0.036188945 -0.009013894 -0.033281963 -0.048052132 0.03065937
0.00030422956 -0.029675055 -0.024144467 0.0015334785 -0.046271164 -0.019408805 -0.03356527 -0.048199564
-0.012573866 -0.022429906 -0.005159462 -0.015112162 -0.0152576445 -0.04261963 -0.046983257 0.005699776
-0.07188012 -0.06458134 0.02370198 -0.0024088344 -0.02351522 -0.024820074 -0.1104773 -0.06747157
0.008001357 -0.065959305 -0.013321646 0.057966188 -0.09313459 -0.074132085 -0.010932766 0.05419244
-0.015132164 -0.041557197 -0.027486682 -0.06435813 -0.0009045924 -0.03983223 -0.006307721 -0.029152282
-0.07746761 0.0023523793 -0.044781104 -0.01294289 -0.09619037 0.056931123 -0.061383016 -0.016803104
0.0018442795 0.0012500435 -0.047460653 -0.029686293 -0.027332354 -0.021639965 -0.049766988 -0.0293325
-0.034476187 -0.024987563 0.00034736434 0.03477653 -0.0825524 -0.06714519 -0.05493119 -0.008750521
-0.031211853 -0.061746575 -0.035508882 -0.11485526 -0.0481414 -0.0503322 -0.047182627 0.05235248
-0.12120755 0.051923163 -0.035609685 -0.04486817 -0.045554027 -0.034382038 0.032779947 -0.0021051394
-0.05525065 -0.0018847787 -0.038061243 -0.09664329 -0.051121704 -0.057552736 -0.121901765 -0.002640769
-0.04992838 -0.052112177 -0.07035336 -0.011054337 -0.003397271 -0.04986105 0.009362385 0.009765595
-0.035883173 -0.10516772 -0.018815137 -0.12095871 -0.04890752 -0.045924157 -0.03867063 0.043311268
-0.051899098 -0.06600762 0.0076228157 -0.051315114 -0.019096745 -0.105674595 -0.042327028 -0.023407448
-0.005339369 -0.07587193 -0.005988704 -0.05920101 -0.08905299 -0.03589748 -0.036414288 -0.07611903
-0.04375907 -0.051833723 -0.02002169 -0.064576775 -0.007538654 0.060629897 -0.09212902 0.039875597
-0.05385048 -0.075130254 -0.020035371 -0.02057793 -0.049600944 -0.08862739 0.039537683 -0.040784743
-0.103029 0.0154925585 -0.048637465 -0.017336681 0.025203608 0.007331826 0.04103875 -0.056873858
-0.032873042 -0.10082869 -0.089542575 0.031185478 -0.084016055 -0.0068335105 -0.058577046 -0.042845853
-0.04938175 -0.0612866 -0.011493958 -0.062324442 0.00031996245 -0.029403776 -0.056939375 -0.024454497
0.013591163 0.010567166 -0.03287632 -0.08087982 -0.0068843607 -0.041130856 -0.11556014 -0.038230672
-0.0042795064 -0.06137634 -0.03111051 -0.045259222 0.10440251 -0.08900072 0.023589231 -0.023720333
-0.052348547 -0.028800137 -0.057532005 0.001527138 -0.09078431 0.05506088 0.003314875 -0.026499184
-0.06050863 -0.035202447 -0.011827689 -0.11286471 -0.10836783 -0.069457024 -0.069434635 -0.05524686
00000000: 2b87 79bd ae6a 5e3d e0bf 81bd 281a 1c3d
00000010: 0b4d c9bd c946 a0bd 8564 7fbd 4208 abbd
00000020: f87f 603d c04c 90bb f027 98bc e09e dcbd
00000030: cb33 e3bd 5e5f 2ebd 49b1 b3bd 40e6 88bd
00000040: e0df ae3b 7836 80bc 2016 1a3b ac74 63bd
00000050: 7808 8bbd 517c 20bd 002d c3bd 107b 48bd
00000060: 60a9 0ebb 0001 8bbb 5815 2fbd 4fbf e5bd
00000070: a8f0 a93c 12ab 22bd 1281 a8bd 8215 b9bd
00000080: a7cb edbd cc03 80bc cab0 1b3d 0c9a 3dbc
00000090: 5ed0 36bd ec6b dbbc 9b61 85bc 443f 96bc
000000a0: 3d23 89bc 41cf 8abd 2595 2dbd d13c e1bd
000000b0: 88d7 69bd 0837 7cbd d126 48bc aeaa 20bd
000000c0: 88f6 bdbc 3f70 d5bd f3ed a5bd 8e14 c9bd
000000d0: edd9 cabd 80d9 053a 90b6 ca3b b090 c03b
000000e0: 6cb0 14bb 4999 70bd ba95 04bd dc3a 14bd
000000f0: 03af 13bc ab52 08bd 50d2 44bd 5c29 fb3c
00000100: 0081 9f39 1a19 f3bc 9eca c5bc 00ff c83a
00000110: d586 3dbd 37ff 9ebc bd7b 09bd e86c 45bd
00000120: 9e02 4ebc ecbe b7bc b410 a9bb 0099 77bc
00000130: 33fb 79bc ec91 2ebd 8471 40bd 30c5 ba3b
00000140: e235 93bd 3943 84bd a82a c23c 89dd 1dbb
00000150: fea2 c0bc 7853 cbbc ec41 e2bd 892e 8abd
00000160: 2018 033c ac15 87bd 0843 5abc f46d 6d3d
00000170: 59bd bebd 90d2 97bd 581f 33bc e4f8 5d3d
00000180: e5ec 77bc e137 2abd c02b e1bc 32ce 83bd
00000190: 2b22 6dba 1f27 23bd 00b1 cebb c4d0 eebc
000001a0: 57a7 9ebd 602a 1a3b 646c 37bd 6a0e 54bc
000001b0: 75ff c4bd 9c30 693d c26c 7bbd aaa6 89bc
000001c0: c0bb f13a 80d8 a33a 1a66 42bd ab30 f3bc
000001d0: 1ae8 dfbc 4c46 b1bc 78d8 4bbd b64a f0bc
000001e0: e736 0dbd b8b2 ccbc 741e b639 d671 0e3d
000001f0: 3c11 a9bd 6b83 89bd 87ff 60bd 585e 0fbc
00000200: 00b0 ffbc fae9 7cbd c371 11bd 3c39 ebbd
00000210: eb2f 45bd 2329 4ebd 9242 41bd 8e6f 563d
00000220: aa3b f8bd 62ad 543d 76db 11bd b0c7 37bd
00000230: dc96 3abd 2ed4 0cbd 4444 063d 61f6 09bb
00000240: 814e 62bd ae0a f7ba 1be6 1bbd ebec c5bd
00000250: fe64 51bd 6bbc 6bbd a2a7 f9bd c010 2dbb
00000260: b381 4cbd 9473 55bd 6c15 90bd 401d 35bc
00000270: c0a4 5ebb 1a3b 4cbd b064 193c e0ff 1f3c
00000280: 3cfa 12bd 2c62 d7bd 3422 9abc 33b9 f7bd
00000290: 4053 48bd f81a 3cbd 1865 1ebd 2867 313d
000002a0: 2694 54bd 012f 87bd d0c8 f93b cc2f 52bd
000002b0: c770 9cbc ec6b d8bd 1b5f 2dbd fac0 bfbc
000002c0: e0f5 aebb be62 9bbd e43c c4bb c27c 72bd
000002d0: 6a61 b6bd 3c09 13bd 2627 15bd 4be4 9bbd
000002e0: b63c 33bd 994f 54bd 8704 a4bc d440 84bd
000002f0: d006 f7bb 0e57 783d 24ae bcbd 9854 233d
00000300: 5292 5cbd e4dd 99bd 3821 a4bc 0c93 a8bc
00000310: 5c2a 4bbd 4782 b5bd 44f2 213d e70d 27bd
00000320: de00 d3bd 80d4 7d3c 1438 47bd a805 8ebc
00000330: cc77 ce3c d03f f03b 4018 283d 90f4 68bd
00000340: e2a5 06bd 467f cebd 1962 b7bd b078 ff3c
00000350: 9c10 acbd a4eb dfbb 7cee 6fbd 227f 2fbd
00000360: 8544 4abd a807 7bbd 2751 3cbc ea47 7fbd
00000370: a2c0 a739 30e0 f0bc 4339 69bd cc54 c8bc
00000380: 78ad 5e3c e821 2d3c 52a9 06bd 52a4 a5bd
00000390: 3496 e1bb d478 28bd cbaa ecbd c497 1cbd
000003a0: 1a3b 8cbb c265 7bbd 78db febc bc61 39bd
000003b0: fcd0 d53d 0246 b6bd 343e c13c 2551 c2bc
000003c0: 6e6b 56bd 44ee ebbc aea6 6bbd 402a c83a
000003d0: 20ed b9bd 8487 613d 603e 593b d114 d9bc
000003e0: e6d7 77bd 7130 10bd ecc8 41bc 9d25 e7bd
000003f0: f4ef ddbd 7c3f 8ebd bf33 8ebd 884a 62bd

fc2.bias f4 [128]
-0.0704052 -0.10633967 -0.0117686 -0.050488796 -0.055085514 0.10864887 -0.045801573 -0.04578316
-0.043510325 0.15639041 -0.054913376 -0.0037608973 -0.10419781 0.06861113 0.11318858 0.0694106
-0.05323557 0.15142739 -0.07441618 -0.10388423 -0.033685677 -0.04895327 -0.055890568 -0.10566462
-0.03629103 0.17029236 0.16812636 -0.012009127 -0.052521177 -0.097325966 -0.02470894 -0.088878766
0.13491936 -0.050658602 0.16470991 0.15646918 -0.15242828 -0.031282827 0.16472341 -0.09411817
-0.0014807894 -0.0480378 -0.020682165 -0.106121644 -0.07330135 -0.06649554 0.01634302 -0.029993268
-0.00042038813 0.22146185 -0.046092525 0.12447894 -0.038990766 -0.03695709 -0.08223678 -0.006035747
-0.057684228 -0.047516387 -0.091550164 -0.07796719 -0.008058022 -0.09500438 0.05772858 0.13200518
-0.010544522 -0.027947083 -0.028052963 0.13980708 0.14599161 -0.054179706 -0.017808955 -0.016215367
0.14714988 -0.08013664 0.14952616 -0.09652775 -0.00055338966 -0.053059652 -0.07295263 0.12538187
0.08762329 0.13379993 -0.022547096 -0.04830622 -0.05144095 -0.04735031 0.0009473489 -0.090565905
0.03338484 -0.008960591 0.0010662033 -0.1188686 -0.043246858 0.046967354 -0.0075266515 -0.034696843
-0.11301346 -0.09368959 0.0014787721 -0.08633742 -0.087674476 -0.019867774 -0.0024277412 -0.0838671
0.18111539 -0.07844631 0.16455854 -0.041808706 0.14570305 -0.07704252 -0.09935841 0.057504684
-0.098506495 -0.04073817 -0.07459453 -0.089323245 -0.13612539 -0.07373133 -0.030050594 -0.106905036
-0.0125122 0.13457476 0.17477375 0.07665449 -0.03967053 0.09904345 -0.03317628 -0.063804865
00000000: 9a30 90bd 9dc8 d9bd 16d1 40bc 57cd 4ebd
00000010: 59a1 61bd 4c83 de3d 6e9a 3bbd 1f87 3bbd
00000020: e237 32bd cf24 203e d9ec 60bd 6379 76bb
00000030: a965 d5bd fe83 8c3d 6acf e73d 2527 8e3d
00000040: 8b0d 5abd c80f 1b3e 8367 98bd 41c1 d4bd
00000050: fef9 09bd 3983 48bd 82ed 64bd b166 d8bd
00000060: e7a5 14bd 1f61 2e3e 5129 2c3e eec1 44bc
00000070: 7220 57bd d652 c7bd 676a cabc 1206 b6bd
00000080: 4d28 0a3e 657f 4fbd b7a9 283e 7539 203e
00000090: 2916 1cbe 6c22 00bd 41ad 283e 07c1 c0bd
000000a0: 0c17 c2ba 49c3 44bd a56d a9bc 4e56 d9bd
000000b0: 051f 96bd d02e 88bd cce1 853c 71b4 f5bc
000000c0: 8a67 dcb9 e5c6 623e 84cb 3cbd d1ee fe3d
000000d0: c8b4 1fbd 5160 17bd c26b a8bd 84c7 c5bb
000000e0: 4c46 6cbd 8ba0 42bd a77e bbbd 43ad 9fbd
000000f0: cb05 04bc a891 c2bd ce74 6c3d 5e2c 073e
00000100: eec2 2cbc 48f1 e4bc 54cf e5bc 9629 0f3e
00000110: d37e 153e 8aeb 5dbd 16e4 91bc 17d6 84bc
00000120: 75ae 163e ae1e a4bd 631d 193e 57b0 c5bd
00000130: 5a11 11ba 1455 59bd 3068 95bd 1b64 003e
00000140: d773 b33d d902 093e b0b4 b8bc bedc 45bd
00000150: bfb3 52bd 66f2 41bd 8257 783a 9e7a b9bd
00000160: 8bbe 083d 71cf 12bc d9bf 8b3a 6171 f3bd
00000170: 9e23 31bd d760 403d 21a2 f6bb 471e 0ebd
00000180: 9a73 e7bd 54e0 bfbd 5cd3 c13a acd1 b0bd
00000190: ad8e b3bd bec1 a2bc bd1a 1fbb 84c2 abbd
000001a0: 5076 393e 75a8 a0bd 0982 283e 9b3f 2bbd
000001b0: 2e33 153e 78c8 9dbd 6c7c cbbd 088a 6b3d
000001c0: c6bd c9bd 11dd 26bd 04c5 98bd 1bef b6bd
000001d0: 7464 0bbe 7400 97bd aa2c f6bc 07f1 dabd
000001e0: f8ff 4cbc f7cd 093e e4f7 323e 07fd 9c3d
000001f0: 917d 22bd 4bd7 ca3d dae3 07bd 20ac 82bd

fc3.weight f4 [2, 128]
0.01916809 -0.047291767 0.024121003 -0.11768113 -0.059596557 0.13092795 0.11455506 0.08838666
0.0466122 0.16756517 0.07101129 0.100894734 0.0059315255 0.068874545 0.08899455 0.078236215
0.052502498 0.12480324 0.037718985 -0.01947828 0.016681451 -0.036771122 0.07627779 0.028279202
0.006216755 0.044554822 0.07736409 -0.026374234 -0.03856825 0.061303824 0.102440655 0.024921166
0.075922154 0.0470269 0.113131344 0.070283145 0.058145925 0.078231156 0.14589395 0.030602979
0.12402244 0.017544772 0.0634016 0.022374628 0.012688536 0.07436529 0.2544563 0.08738977
-0.104211584 -0.3880931 -0.019875016 0.13031304 0.19005707 -0.019746337 0.10131074 0.061381828
0.11063967 0.06009404 -0.023730267 -0.041943207 0.020024955 0.027861513 0.025737 0.1120029
0.021254912 -0.0010376316 0.07508269 0.030680925 0.04085917 0.006054444 -0.074944854 0.06374063
0.07567261 0.011214578 0.08207618 -0.08659074 0.012513481 0.05565628 0.024484323 0.054026574
0.03531991 0.10272977 -0.0038397934 0.027369235 0.1159227 -0.036646437 0.01353014 -0.030693922
0.078673765 -0.022491105 0.020630633 0.03932988 0.062081244 0.056283973 0.035430804 0.10390625
0.015750367 -0.020361414 -0.05133176 0.044669166 0.0921578 -0.026833255 0.019365799 -0.0053044385
0.119541116 0.042252906 0.064190716 0.048594683 0.02976015 0.07557893 -0.025842164 0.014882836
0.10091833 0.07537544 -0.04562146 0.07158066 -0.00052071916 -0.011440499 -0.009852578 0.047417484
-0.02804467 0.06618977 -0.016718553 0.025934607 0.018353855 0.07010599 0.017938625 -0.03523358
-0.059810083 -0.023429234 -0.06989703 -0.02973687 0.043494638 -0.08525581 0.0009747752 0.008757532
0.0057063913 -0.1465265 0.02723418 -0.0072931317 -0.01195526 -0.030131914 -0.08011001 -0.09263503
0.018742386 -0.07368051 -0.044294376 0.015477068 0.0280541 0.015173541 0.026501613 0.018442472
-0.020863708 -0.079045415 -0.12482437 0.025275195 -0.10976462 -0.04123126 -0.01399485 0.08200127
-0.07789614 -0.016300673 -0.118566826 -0.14164403 0.07860155 0.026512742 -0.145056 -0.038292922
0.012178682 0.013387225 0.010169352 -0.020013236 0.0037891192 0.042500753 -0.22385447 0.008450171
0.10173511 0.44102234 -0.1370127 -0.031592656 -0.19632843 -0.139334 0.035016965 -0.03997766
-0.0073651206 0.017371956 0.017418189 0.027908025 0.08282667 0.05412367 -0.119582266 -0.030191816
-0.0055133807 0.0023983123 0.038582195 -0.119638406 -0.033031758 -0.024227392 0.029225947 -0.051834825
-0.054867115 0.020410003 -0.121748805 0.07058356 0.021727396 0.00064224406 -0.021963676 -0.09621215
-0.11877103 -0.0757678 -0.0887054 -0.06972406 0.02397137 -0.010284781 0.06926824 0.04024969
-0.0025320395 -0.0020205544 0.020092335 -0.008061901 -0.050611947 -0.07068635 -0.077896535 0.0029878097
0.09392908 -0.097188145 0.012843528 0.037486162 0.034479644 -0.12528512 -0.022011997 0.029416906
-0.047179215 0.08223114 -0.12327537 -0.06211774 -0.07993787 0.067394964 -0.0115968045 0.0049609235
0.035366222 -0.036058925 0.016535554 0.002664089 0.065117456 0.028995743 -0.075020075 -0.008905934
-0.11721504 -0.13069096 -0.11837998 0.013169272 -0.042569276 -0.12573634 -0.096234255 -0.082634956
00000000: 6606 9d3c 03b5 41bd 6999 c53c ce02 f1bd
00000010: 851b 74bd fa11 063e d89b ea3d 1104 b53d
00000020: 6fec 3e3d 3496 2b3e 5e6e 913d e6a1 ce3d
00000030: 3e5d c23b 190e 8d3d c642 b63d 4f3a a03d
00000040: dc0c 573d d798 ff3d 397f 1a3d ea90 9fbc
00000050: 8aa7 883c 519d 16bd 8837 9c3d c9a9 e73c
00000060: ecb5 cb3b 1e7f 363d 1071 9e3d c70e d8bc
00000070: bef9 1dbd b819 7b3d 68cc d13d 7927 cc3c
00000080: 137d 9b3d 479f 403d 68b1 e73d 9cf0 8f3d
00000090: 6c2a 6e3d a837 a03d 3965 153e 19b3 fa3c
000000a0: 7aff fd3d 0eba 8f3c b3d8 813d ff4a b73c
000000b0: 94e3 4f3c d44c 983d 1948 823e 68f9 b23d
000000c0: e26c d5bd 24b4 c6be eed0 a2bc c870 053e
000000d0: 529e 423e 12c3 a1bc 017c cf3d 836b 7b3d
000000e0: 0d97 e23d 2b25 763d fa65 c2bc a4cc 2bbd
000000f0: 600b a43c d43d e43c 67d6 d23c c761 e53d
00000100: c81e ae3c 2401 88ba f4c4 993d 9056 fb3c
00000110: f25b 273d 5b64 c63b b07c 99bd 738a 823d
00000120: 3efa 9a3d 59bd 373c 8e17 a83d 7c56 b1bd
00000130: 5805 4d3c d7f7 633d 5993 c83c f84a 5d3d
00000140: 9cab 103d fc63 d23d 0ba5 7bbb 7235 e03c
00000150: e168 ed3d 931a 16bd 85ad 5d3c d271 fbbc
00000160: b61f a13d 443f b8bc 9301 a93c 5e18 213d
00000170: e748 7e3d 068a 663d e41f 113d cdcc d43d
00000180: ea06 813c fbcc a6bc 4041 52bd 04f7 363d
00000190: 3bbd bc3d 6ad1 dbbc 06a5 9e3c dbd0 adbb
000001a0: f9d1 f43d 6211 2d3d 6c76 833d 380b 473d
000001b0: 8fcb f33c 20c9 9a3d f2b2 d3bc 23d7 733c
000001c0: 45ae ce3d 705e 9a3d 91dd 3abd e298 923d
000001d0: df80 08ba ee70 3bbc b56c 21bc d638 423d
000001e0: f0bd e5bc 818e 873d 59f5 88bc d074 d43c
000001f0: d35a 963c bb93 8f3d 06f4 923c 1651 10bd
00000200: 6bfb 74bd aaee bfbc 2d26 8fbd bd9a f3bc
00000210: 6f27 323d 999a aebd 0e88 7f3a c07b 0f3c
00000220: aefc ba3b 0b0b 16be 371a df3c 39fb eebb
00000230: ffdf 43bc 34d7 f6bc b810 a4bd 6fb7 bdbd
00000240: a289 993c cfe5 96bd 056e 35bd 8793 7d3c
00000250: b6d1 e53c 729a 783c e919 d93c ab14 973c
00000260: 5eea aabc 90e2 a1bd eba3 ffbd ed0d cf3c
00000270: 46cc e0bd 1ce2 28bd a84a 65bc 48f0 a73d
00000280: 0388 9fbd fd88 85bc 2ad3 f2bd 220b 11be
00000290: d9f9 a03d 4031 d93c 8f89 14be 0ad9 1cbd
000002a0: 1889 473c 1756 5b3c 5b9d 263c ccf2 a3bc
000002b0: df52 783b 4515 2e3d 1b3a 65be 9672 0a3c
000002c0: 7f5a d03d aecd e13e 0f4d 0cbe 4d67 01bd
000002d0: 520a 49be 92ad 0ebe f36d 0f3d 9dbf 23bd
000002e0: 1c57 f1bb a24f 8e3c 97b0 8e3c 5f9f e43c
000002f0: 07a1 a93d c8b0 5d3d 8ce7 f4bd d454 f7bc
00000300: 97a9 b4bb 012d 1d3b 5d08 1e3d fb04 f5bd
00000310: 4f4c 07bd 8678 c6bc 416b ef3c c150 54bd
00000320: 57bc 60bd e132 a73c 7057 f9bd 1d8e 903d
00000330: a7fd b13c 455c 283a 2bed b3bc e00a c5bd
00000340: 3a3e f3bd 262c 9bbd 2dab b5bd 7dcb 8ebd
00000350: 9b5f c43c 8081 28bc 82dc 8d3d dcdc 243d
00000360: 93f0 25bb 476b 04bb ae98 a43c 1016 04bc
00000370: 794e 4fbd 01c4 90bd 3888 9fbd 21cf 433b
00000380: e45d c03d 940a c7bd a96d 523c 178b 193d
00000390: 873a 0d3d be4a 00be 8152 b4bc b9fb f03c
000003a0: fe3e 41bd cd68 a83d cc77 fcbd 2c6f 7ebd
000003b0: 77b6 a3bd 5f06 8a3d 8600 3ebc 3e8f a23b
000003c0: 2cdc 103d 86b2 13bd 9275 873c ff97 2e3b
000003d0: 4d5c 853d 7b88 ed3c 20a4 99bd 32ea 11bc
000003e0: 700e f0bd dad3 05be 3471 f2bd eec3 573c
000003f0: 1f5d 2ebd 07c1 00be 7716 c5bd 843c a9bd

fc3.bias f4 [2]
0.10851099 0.03496283
00000000: 033b de3d 2f35 0f3d
