Project 3-Open set recognition/Project/Weights/5_weights.pth (torch, 387487 bytes, 10 tensors)

conv1.weight f4 [64, 1, 7, 7]
0.56808174 0.39288932 -0.017579097 -0.16133894 -0.08073292 -0.044233095 -0.11937179 0.23143294
0.24936964 0.20228668 0.28814304 0.1119808 -0.049523577 0.1914697 -0.19016862 0.1551638
0.15397088 0.11977035 -0.013794468 -0.034036767 0.17924227 -0.08327427 -0.018960865 0.13296719
0.13389257 -0.15955658 0.09552757 -0.05313893 0.102461606 0.23097116 0.18864983 -0.07528027
-0.10568733 0.13113967 0.12661728 0.3313254 0.35013083 0.15419872 0.18209976 0.03413799
0.06326995 0.010803895 0.23596899 0.41839913 0.10664578 0.18063208 0.03421654 0.13744012
0.29922655 0.41604084 0.36906597 0.09643075 0.0378622 -0.051893294 0.1460787 0.32228798
0.6547346 0.10761013 -0.1690139 -0.28795847 -0.18164892 -0.036412966 0.3230609 0.5454597
0.014544272 -0.21497738 -0.074785106 -0.07817379 0.22980203 0.063154 0.07925895 0.036201812
0.025771776 0.018733187 0.16991174 0.08146372 0.13963671 -0.12756193 0.010076278 0.3860272
0.076204374 -0.032231588 -0.004262679 -0.08118523 -0.023710176 0.09930511 0.18271054 0.17222095
0.043986414 -0.09560137 -0.012685494 -0.08738474 0.06609019 0.075621784 0.055295274 0.05767951
0.35933653 0.40570492 0.03531037 0.07643674 0.18066995 0.10547109 -0.031294655 0.031245131
-0.08747804 -0.12730806 0.1477126 0.17414808 0.14297728 -0.11452338 0.0007497237 -0.10634828
-0.050081573 -0.038146175 0.25016192 0.19775611 -0.11699954 -0.0031370844 0.07605182 -0.069125466
0.07491536 0.14910896 0.37715787 -0.061631482 -0.11534352 -0.05482069 -0.2289915 -0.08109459
0.27173367 0.24232353 0.10136019 -0.09759448 -0.075842984 -0.27270484 0.07198752 0.34393173
0.147592 0.019701885 -0.09100598 -0.018727088 0.13255088 0.44769096 0.24290729 0.15525529
-0.15243174 -0.16942309 -0.17342652 -0.16875887 0.102047816 0.1341692 0.2972189 0.40703532
0.17584035 0.08707529 -0.0979019 -0.03321272 -0.14646292 -0.044480283 0.05152372 0.103550345
-0.017132895 -0.14393419 -0.022700254 -0.27400258 -0.073937334 -0.04310208 -0.2859869 -0.37227497
0.04007248 -0.29881683 -0.31706327 -0.3431063 -0.18158367 -0.2779875 -0.3229567 0.09095101
0.14528911 0.22074008 0.28497696 0.27603906 0.14383566 0.080560245 0.06545083 0.4353879
0.36175004 0.26222348 0.16386345 0.35403496 0.48043314 0.17548683 0.21856888 0.12674811
-0.30447307 -0.18762292 0.0008650486 0.31484386 -0.023365328 -0.11075445 -0.15036772 0.04611072
-0.10074668 -0.21875648 -0.15039402 0.020797787 -0.14746338 -0.021449788 0.004472007 -0.06567777
-0.118475765 -0.1869413 -0.32141504 -0.12043083 0.07396824 -0.18285158 -0.18077472 -0.15181871
-0.23346937 -0.4264185 0.017379366 0.14995874 0.2554737 0.25293386 0.076588444 -0.1322747
0.12212515 0.41364583 0.61511546 0.5083212 0.32187888 0.46265134 0.5456627 0.38241625
0.13980365 0.2751574 -0.027455851 0.21057755 0.22403824 0.5686522 0.18292114 -0.27392206
-0.53253764 -0.35459614 -0.3025209 -0.2217193 0.18218903 -0.010261149 -0.017026432 -0.1183671
0.14193381 0.21229546 0.27556118 -0.072169855 0.16391091 -0.013160515 0.008797106 0.15030864
00000000: ce6d 113f ca28 c93e 0a02 90bc 0936 25be
00000010: 4d57 a5bd c32d 35bd 3279 f4bd c2fc 6c3e
00000020: c15a 7f3e 3d24 4f3e 7c87 933e 3156 e53d
00000030: 3cd9 4abd a210 443e 90bb 42be 42e3 1e3e
00000040: 8baa 1d3e 284a f53d 3102 62bc 236a 0bbd
00000050: 498b 373e b38b aabd d153 9bbc 8d28 083e
00000060: 221b 093e cd62 23be f5a3 c33d 35a8 59bd
00000070: 64d7 d13d b483 6c3e 6c2d 413e 8b2c 9abd
00000080: 9972 d8bd 7a49 063e f6a7 013e 7ca3 a93e
00000090: 5944 b33e 45e6 1d3e 5c78 3a3e 47d4 0b3d
000000a0: ad93 813d d202 313c dba1 713e 6938 d63e
000000b0: 1a69 da3d 9ef7 383e a526 0c3d 1abd 0c3e
000000c0: 3934 993e 4e03 d53e 37f6 bc3e 7c7d c53d
000000d0: 6515 1b3d 108e 54bd a895 153e ee02 a53e
000000e0: b09c 273f b362 dc3d fb11 2dbe 4b6f 93be
000000f0: 2d02 3abe c325 15bd 3d68 a53e 3fa3 0b3f
00000100: 194b 6e3c 0823 5cbe ef28 99bd 9419 a0bd
00000110: 3951 6b3e e256 813d 8452 a23d 5a48 143d
00000120: 551f d33c 5776 993c 58fd 2d3e 73d6 a63d
00000130: edfc 0e3e 989f 02be f916 253c 5ba5 c53e
00000140: 0a11 9c3d 4505 04bd f1ad 8bbb 7144 a6bd
00000150: d83b c2bc 7a60 cb3d 7918 3b3e b05a 303e
00000160: 192b 343d a7ca c3bd d1d6 4fbc c5f6 b2bd
00000170: 4b5a 873d 98df 9a3d 4c7d 623d 5a41 6c3d
00000180: f5fa b73e 8eb8 cf3e 9ba1 103d de8a 9c3d
00000190: 8b01 393e 3a01 d83d d32e 00bd caf5 ff3c
000001a0: b027 b3bd 0b5d 02be f941 173e e053 323e
000001b0: a368 123e 3c8b eabd 1b89 443a 21cd d9bd
000001c0: 5622 4dbd 2a3f 1cbd 3915 803e 9480 4a3e
000001d0: 749d efbd 8b97 4dbb 0ec1 9b3d a791 8dbd
000001e0: 396d 993d 05b0 183e d61a c13e 4b71 7cbd
000001f0: 3939 ecbd a98b 60bd bf7c 6abe ec14 a6bd
00000200: ad20 8b3e a923 783e ee95 cf3d 9ddf c7bd
00000210: 9153 9bbd f89f 8bbe 316e 933d d217 b03e
00000220: 5b22 173e d965 a13c 5861 babd 8d69 99bc
00000230: 6bbb 073e c037 e53e b0bc 783e 3efb 1e3e
00000240: 1117 1cbe 3f7d 2dbe b996 31be 20cf 2cbe
00000250: 72fe d03d a763 093e 132d 983e ef66 d03e
00000260: 7e0f 343e 8854 b23d cb80 c8bd 100a 08bd
00000270: 60fa 15be f530 36bd 890a 533d 3412 d43d
00000280: 495a 8cbc 7c63 13be e2f5 b9bc 114a 8cbe
00000290: 756c 97bd ce8b 30bd e06c 92be d39a bebe
000002a0: 0a23 243d 85fe 98be 1e56 a2be a1ab afbe
000002b0: 12f1 39be 6154 8ebe 955a a5be 8644 ba3d
000002c0: abc6 143e b009 623e 80e8 913e fe54 8d3e
000002d0: a849 133e c5fc a43d 160b 863d 2aeb de3e
000002e0: 4d37 b93e 2842 863e d2cb 273e 1244 b53e
000002f0: 55fb f53e d2b2 333e 85d0 5f3e 42ca 013e
00000300: e5e3 9bbe 3920 40be 6ec4 623a 3733 a13e
00000310: a568 bfbc 3bd3 e2bd fff9 19be 98de 3c3d
00000320: 4654 cebd b301 60be e400 1abe 1f60 aa3c
00000330: a400 17be 77b7 afbc ea89 923b 1182 86bd
00000340: 6ca3 f2bd 8a6d 3fbe 8390 a4be 70a4 f6bd
00000350: a97c 973d 723d 3bbe 021d 39be 5d76 1bbe
00000360: 9812 6fbe 8753 dabe 2c5f 8e3c c98e 193e
00000370: 73cd 823e 8c80 813e 67da 9c3d 0573 07be
00000380: c01c fa3d 63c9 d33e 3578 1d3f 5721 023f
00000390: 4fcd a43e a3e0 ec3e 8db0 0b3f 10cc c33e
000003a0: b028 0f3e 6ee1 8c3e 18eb e0bc a4a1 573e
000003b0: 486a 653e 3193 113f ae4f 3b3e 833f 8cbe
000003c0: 6354 08bf a08d b5be 05e4 9abe 620a 63be
000003d0: c38f 3a3e 611e 28bc 047b 8bbc 736a f2bd
000003e0: 1957 113e fb63 593e 5b16 8d3e cacd 93bd
000003f0: 43d8 273e 339f 57bc bd21 103c 82ea 193e

conv1.bias f4 [64]
-0.2429109 -0.104323186 -0.060489774 -0.30220985 -0.43893436 -0.27898845 -0.14432164 -0.48679155
-0.20788857 -0.23141092 -0.32177535 -0.21269582 -0.40603992 -0.0030225827 -0.30232897 -0.15513839
-0.25307202 -0.09272123 -0.31766298 -0.17089106 -0.32705697 -0.3285566 -0.3268338 0.044261258
-0.07379532 -0.26385054 -0.33946434 0.011180831 -0.06766478 0.010017319 -0.43845025 -0.40118685
-0.0031045678 -0.067399755 0.12258319 -0.3657021 -0.42614138 -0.25284636 0.002705953 -0.24805714
-0.122479215 -0.4600255 0.020041984 -0.080002815 -0.28212464 -0.31811562 -0.1893618 -0.32664776
-0.017528648 0.055656824 -0.115528345 -0.31904113 -0.3768577 -0.1366095 -0.14220843 -0.20010628
-0.10699848 -0.04988118 -0.37414688 -0.18895127 0.046439596 -0.15015666 -0.053987704 0.024996938
00000000: a3bd 78be 65a7 d5bd 20c4 77bd 40bb 9abe
00000010: 01bc e0be 93d7 8ebe 0dc9 13be be3c f9be
00000020: bee0 54be fcf6 6cbe bdbf a4be efcc 59be
00000030: 77e4 cfbe 8616 46bb ddca 9abe 99dc 1ebe
00000040: a892 81be a1e4 bdbd b9a4 a2be 11fe 2ebe
00000050: 0374 a7be 9238 a8be c356 a7be 4b4b 353d
00000060: 0022 97bd 6b17 87be 45ce adbe ce2f 373c
00000070: d593 8abd ae1f 243c 8d7c e0be 5d68 cdbe
00000080: 0176 4bbb e208 8abd e50c fb3d 4e3d bbbe
00000090: 342f dabe 1475 81be 5c56 313b b102 7ebe
000000a0: 62d6 fabd 7688 ebbe 162f a43c 84d8 a3bd
000000b0: a472 90be 0de0 a2be 0fe8 41be 603e a7be
000000c0: 3d98 8fbc 69f8 633d 209a ecbd 5c59 a3be
000000d0: 7ef3 c0be 5ce3 0bbe 169f 11be a9e8 4cbe
000000e0: 0522 dbbd 3550 4cbd 2e90 bfbe 717c 41be
000000f0: 7237 3e3d abc2 19be 3622 5dbd 61c6 cc3c

conv2.weight f4 [32, 64, 5, 5]
-0.1107337 0.15443332 0.11291876 -0.055185165 -0.15879886 -0.22223997 0.034234148 0.037836812
-0.105521314 -0.18152164 -0.35237277 -0.09785178 -0.008733783 -0.12322684 -0.1645855 -0.33241147
-0.17353518 -0.12812154 -0.098223105 -0.09547062 -0.094978824 -0.0049532116 -0.06436281 -0.030709414
0.019311866 0.05671942 0.15403523 0.20688768 0.16360402 0.0504509 -0.039719306 0.15825538
0.14155808 0.03351219 -0.04986667 -0.07745681 0.062582955 0.0653252 0.067146406 0.08479642
-0.004054643 0.08738223 -0.013980259 0.05886634 0.07028821 0.15112846 0.086569116 -0.026935408
-0.02258494 -0.041661683 0.042725142 -0.04296646 -0.037352204 0.011748021 0.040361613 0.021666037
-0.08837905 -0.08787938 -0.02335842 -0.019983131 0.009232628 -0.01875185 -0.018191421 0.011694349
-0.025089892 0.06481317 0.045501538 0.018336395 0.091672 0.061140273 0.21231964 0.16581924
0.14693363 0.24642572 0.18151951 0.12332904 0.07217809 -0.11373935 -0.33425516 -0.6447006
0.05501217 0.014319256 -0.16637692 -0.4189439 -0.6262266 0.015569618 -0.018568192 -0.10663068
-0.33916855 -0.649167 -0.04921996 -0.060467016 -0.051190052 -0.20135504 -0.3854015 -0.05864976
-0.03256163 -0.012540748 -0.18429017 -0.37730166 0.053213496 0.06095861 -0.1228418 -0.39251408
-0.76850426 0.050963044 -0.016133986 -0.13686089 -0.45632684 -0.7972508 0.052057337 0.0014786505
-0.08662165 -0.19849811 -0.54974055 0.043883257 0.063889176 0.0062529743 -0.1782774 -0.35760298
-0.15710647 -0.042094216 -0.026363809 -0.113274835 -0.18361501 -0.03098047 -0.06522931 0.024863435
0.08950652 0.14850286 -0.025709487 -0.026447752 0.037671912 0.08543298 0.021356087 -0.029077096
0.007509108 0.023471842 0.035895076 -0.05367451 0.010877614 0.012946416 0.0011310077 0.00493456
-0.064734094 0.07602752 0.038942043 0.06059709 0.06605146 -0.037002068 -0.3750304 -0.052933376
-0.026136091 -0.16561252 -0.060850322 -0.50569665 -0.1303037 0.09262864 0.13351387 -0.05893879
-0.3474925 -0.10311636 0.2570855 0.5032788 0.2607777 -0.11216221 0.030479765 0.18567678
0.2963053 0.15055 -0.068627045 0.020832684 0.10623671 0.051386572 -0.10253095 -0.22916238
-0.014759581 0.04259429 -0.04237022 -0.18119352 -0.2937136 -0.032106716 0.004984993 -0.140719
-0.22189842 -0.3293898 -0.09974697 -0.0026632913 -0.0077941446 -0.08487436 -0.25307858 -0.06587305
0.0019790642 -0.007592194 -0.040172786 -0.01634493 0.0580405 0.0504 0.024833312 0.034784716
-0.20932038 -0.038395256 0.03496891 -0.0048603886 -0.10105634 -0.2369197 -0.0946053 -0.04490395
-0.10376082 -0.13300799 -0.2677166 -0.11898954 -0.027543843 -0.029212067 -0.026654333 -0.26059502
-0.028905533 0.002360199 -0.007914937 0.013120229 -0.04974489 0.030473577 -0.0033031844 -0.02793105
0.035880674 -1.2042648 -0.47363597 -0.59408945 -0.62521756 -0.5256295 -0.6168686 -0.25941283
-0.23920363 -0.036675822 -0.06305094 -0.17525242 -0.003971836 0.03919949 0.18218584 0.11222399
-0.038807295 0.014258912 0.022815453 0.07811754 0.018305637 0.17065223 0.10669307 0.10189071
0.03444715 -0.08581309 -0.06914908 -0.04145307 -0.13290246 -0.17069149 -0.2822305 0.08019821
00000000: 5ac8 e2bd c523 1e3e f341 e73d d709 62bd
00000010: 2b9c 22be e092 63be 1b39 0c3d c6fa 1a3d
00000020: 8f1b d8bd cfe0 39be 346a b4be 8466 c8bd
00000030: 2418 0fbc 5a5e fcbd 1a89 28be d631 aabe
00000040: 35b3 31be 4b32 03be 3229 c9bd 1a86 c3bd
00000050: 4284 c2bd 8d4e a2bb a6d0 83bd 4f92 fbbc
00000060: eb33 9e3c 9f52 683d 69bb 1d3e 5dda 533e
00000070: d087 273e 9aa5 4e3d b6b0 22bd b30d 223e
00000080: 9af4 103e 1444 093d fe40 4cbd ada1 9ebd
00000090: 7e2b 803d 38c9 853d 0e84 893d bfa9 ad3d
000000a0: d0dc 84bb 74f5 b23d 750d 65bc d51d 713d
000000b0: 44f3 8f3d 6bc1 1a3e 264b b13d a5a7 dcbc
000000c0: 0d04 b9bc 71a5 2abd 8f00 2f3d 99fd 2fbd
000000d0: a0fe 18bd c57a 403c 3852 253d f97c b13c
000000e0: 1300 b5bd 1bfa b3bd 285a bfbc aab3 a3bc
000000f0: 7344 173c 7b9d 99bc 2d06 95bc a899 3f3c
00000100: 5189 cdbc c4bc 843d d25f 3a3d 3536 963c
00000110: 88be bb3d 396e 7a3d 526a 593e 85cc 293e
00000120: c575 163e 0657 7c3e 40e0 393e f093 fc3d
00000130: 1bd2 933d 2df0 e8bd 7e23 abbe 190b 25bf
00000140: 7154 613d 509b 6a3c b65e 2abe d17f d6be
00000150: 6350 20bf b617 7f3c 521c 98bc 3061 dabd
00000160: 80a7 adbe cf2f 26bf de9a 49bd 43ac 77bd
00000170: a9ac 51bd 0430 4ebe 5853 c5be bb3a 70bd
00000180: 585f 05bd b677 4dbc 90b6 3cbe af2d c1be
00000190: 65f6 593d bcaf 793d 7b94 fbbd 9bf7 c8be
000001a0: b2bc 44bf a0be 503d 6c2b 84bc 4325 0cbe
000001b0: aca3 e9be a118 4cbf 133a 553d 47cf c13a
000001c0: b166 b1bd 1743 4bbe ccbb 0cbf eebe 333d
000001d0: 54d8 823d c0e5 cc3b 5a8e 36be bd17 b7be
000001e0: 85e0 20be fc6a 2cbd eaf8 d7bc a3fc e7bd
000001f0: 9305 3cbe c1ca fdbc f296 85bd 67ae cb3c
00000200: 324f b73d 2211 183e b49c d2bc f5a8 d8bc
00000210: dd4d 1a3d 7cf7 ae3d f6f2 ae3c 1733 eebc
00000220: f70e f63b 0548 c03c b706 133d ced9 5bbd
00000230: 0538 323c 341d 543c 523e 943a 17b2 a13b
00000240: 4f93 84bd 51b4 9b3d b181 1f3d a734 783d
00000250: fd45 873d 7b8f 17bd fc03 c0be abd0 58bd
00000260: 5b1b d6bc 5496 29be 303e 79bd 5675 01bf
00000270: 556e 05be 16b4 bd3d dcb7 083e cd69 71bd
00000280: 89ea b1be ac2e d3bd b6a0 833e e1d6 003f
00000290: a884 853e 4db5 e5bd b3b0 f93c 0e22 3e3e
000002a0: 54b5 973e c729 1a3e 568c 8cbd 4ea9 aa3c
000002b0: a292 d93d ba7a 523d bffb d1bd 8ba9 6abe
000002c0: 2bd2 71bc 5a77 2e3d 658c 2dbd cb8a 39be
000002d0: a161 96be 5582 03bd 2759 a33b a418 10be
000002e0: 5739 63be c8a5 a8be 2448 ccbd 9d8a 2ebb
000002f0: 0666 ffbb 9cd2 adbd 8493 81be 73e8 86bd
00000300: 30b3 013b f0c7 f8bb 388c 24bd cde5 85bc
00000310: e0bb 6d3d 3b70 4e3d 3b6f cb3c 6b7a 0e3d
00000320: 1558 56be 5844 1dbd 8f3b 0f3d e543 9fbb
00000330: a0f6 cebd 149b 72be 6cc0 c1bd 34ed 37bd
00000340: 8e80 d4bd 3f33 08be 2612 89be cab0 f3bd
00000350: a0a3 e1bc 254e efbc 305a dabc b66c 85be
00000360: 4ccb ecbc 92ad 1a3b a7ad 01bc 3bf6 563c
00000370: 4cc1 4bbd b9a3 f93c 3d7a 58bb a8cf e4bc
00000380: 9df7 123d 5925 9abf 6a80 f2be 3f16 18bf
00000390: 420e 20bf a88f 06bf 1aeb 1dbf c2d1 84be
000003a0: ccf1 74be 6339 16bd da20 81bd 5f75 33be
000003b0: 2d26 82bb a58f 203d ed8e 3a3e b1d5 e53d
000003c0: 66f4 1ebd 369e 693c 79e7 ba3c 17fc 9f3d
000003d0: b4f5 953c 75bf 2e3e e581 da3d 14ac d03d
000003e0: 7418 0d3d c6be afbd 089e 8dbd b2ca 29bd
000003f0: 9517 08be c0c9 2ebe 8480 90be f63e a43d

conv2.bias f4 [32]
-0.03549045 -0.07413472 -0.08309358 -0.016405642 -0.066046864 -0.061961487 -0.08472545 -0.053810127
-0.0825551 -0.024618745 -0.055899456 -0.036066074 -0.060987677 -0.047767557 -0.06388355 -0.048251603
-0.07240814 -0.24086238 -0.07064768 -0.068915464 -0.042230684 -0.061715685 -0.028138919 -0.055620816
-0.06853599 -0.08001186 -0.06337259 -0.054321572 -0.041126616 -0.046556946 -0.02850914 -0.07515811
00000000: 6f5e 11bd f2d3 97bd f82c aabd 2065 86bc
00000010: 9443 87bd 54cb 7dbd 8984 adbd 0268 5cbd
00000020: a612 a9bd 40ad c9bc d4f6 64bd 05ba 13bd
00000030: 37ce 79bd eaa7 43bd 61d5 82bd 79a3 45bd
00000040: b84a 94bd a1a4 76be bbaf 90bd 8d23 8dbd
00000050: 15fa 2cbd 96c9 7cbd 9783 e6bc a7d2 63bd
00000060: 995c 8cbd 42dd a3bd 7dc9 81bd 4c80 5ebd
00000070: 6274 28bd 7fb2 3ebd 008c e9bc 7fec 99bd

fc1.weight f4 [256, 32]
-0.04074353 -0.14314294 0.0602331 -0.11181704 -0.06726495 -0.084127985 -0.020053286 -0.09467977
-0.17969255 0.04782476 -0.110135615 -0.041398898 -0.2329393 -0.14157264 0.064594895 0.071079955
0.111516304 0.11570304 -0.08914421 -0.20260856 0.049201943 -0.14699726 -0.23480633 -0.22250818
-0.1767343 -0.09999288 -0.18509255 -0.092477776 -0.03513195 -0.05930547 -0.22799473 0.057211917
-0.16059597 -0.08186852 -0.0075200708 0.13059953 -0.040656604 -0.078871585 0.12818564 -0.07815784
0.011530412 -0.05737965 -0.014781846 -0.05875117 -0.02682935 -0.13300169 -0.11353649 0.12858117
0.008063375 0.13365108 0.15076667 -0.031734772 0.1519881 0.19024105 -0.019432044 0.090648316
0.16038413 0.08272183 -0.072301015 0.06454947 0.20237382 0.16402663 -0.0221263 -0.042341962
0.16712058 0.1540953 0.16824545 0.16214313 0.10346871 -0.09058749 0.12758088 0.23379628
-0.012580066 0.043454506 0.06792216 -0.030252391 0.13511448 -0.046269506 0.06598278 0.14671372
0.028658772 -0.110687196 0.1274597 0.0693541 0.120859034 -0.043665297 0.20695505 0.055909395
0.1731381 0.12638111 -0.08084148 0.038261537 0.16326989 0.15524298 -0.043473136 0.060266454
-0.2411178 0.10032749 0.16577803 -0.18583746 -0.04420937 0.08122496 0.049008187 0.15233943
0.103713386 -0.23782523 -0.13310418 0.17352441 0.05724368 -0.18154413 0.09848949 0.04613651
-0.11166464 0.031832125 -0.14271022 0.061411582 -0.06484672 -0.15501942 -0.035924315 0.08165992
-0.030728318 0.00096576085 0.15416043 0.039236125 0.022645101 -0.08647743 -0.16743208 -0.013616719
0.10544232 0.14166316 0.06590087 0.19279541 -0.06718539 0.02383082 0.15901345 -0.09252471
0.04333287 0.009430001 -0.0040398636 -0.09064713 -0.10817199 -0.094416104 0.06446103 -0.033605907
0.20073314 0.033002734 -0.05686978 0.17111917 0.12670867 0.05009559 -0.0021978673 0.09217201
0.12157621 0.118304 -0.07908311 0.15747525 0.011298506 0.22141165 0.00013983117 0.13835174
-0.21898183 -0.06422275 -0.12025221 0.15250936 -0.042846464 -0.055193216 0.021820119 0.07383727
-0.041218944 -0.06197866 0.0067339493 -0.13823527 -0.034848046 -0.1502757 -0.03513656 -0.09784951
0.14215973 -0.17393248 0.0674967 -0.12628675 -0.008078919 0.06982485 0.046421465 0.14062831
0.16563855 0.17784685 0.1433231 0.029498579 0.01842559 0.12072659 -0.01778831 -0.16697142
-0.3097327 -0.08605831 0.0650834 0.08684954 -0.09779597 0.045993477 0.0470988 -0.014700564
-0.043746267 -0.3205153 0.029646335 -0.08546095 0.09847865 -0.4513979 0.08718805 -0.101424634
0.035119407 0.06890606 -0.14530255 -0.13447608 -0.11074171 0.026704838 -0.10649526 0.2692272
-0.07545928 0.06428451 -0.07057119 -0.17894566 -0.09830932 -0.2318462 -0.20802243 0.010168456
-0.045294486 -0.12415631 -0.017414846 0.062457837 0.036200576 0.017711096 0.0040994133 -0.10723387
0.016168753 -0.075123794 0.080760755 -0.043857954 0.10608182 -0.21954829 -0.076540634 0.08997471
-0.04628626 -0.15696053 -0.01145524 0.11823453 -0.01712399 -0.13759546 -0.02258419 0.06268029
-0.051234324 -0.01633974 -0.122087635 -0.16957457 0.08182113 -0.1105457 -0.18014678 -0.1413809
00000000: b0e2 26bd 1094 12be fcb6 763d 5500 e5bd
00000010: 35c2 89bd 4b4b acbd ca46 a4bc 78e7 c1bd
00000020: 5301 38be e5e3 433d c88e e1bd e491 29bd
00000030: a487 6ebe 6bf8 10be 544a 843d 5e92 913d
00000040: a962 e43d b7f5 ec3d 3d91 b6bd 9e78 4fbe
00000050: fa87 493d 7386 16be 1271 70be 2fd9 63be
00000060: d6f9 34be 11c9 ccbd e788 3dbe fd64 bdbd
00000070: 85e6 0fbd 4bea 72bd 7377 69be 0b57 6a3d
00000080: 4573 24be afaa a7bd ed6a f6bb e2bb 053e
00000090: 8a87 26bd 6d87 a1bd 1943 033e 3811 a0bd
000000a0: 0eea 3c3c ed06 6bbd 8e2f 72bc 11a5 70bd
000000b0: 3ac9 dbbc 9831 08be d285 e8bd c8aa 033e
000000c0: 3f1c 043c d4db 083e 9462 1a3e 52fc 01bd
000000d0: c5a2 1b3e 8dce 423e f32f 9fbc d3a5 b93d
000000e0: bd3b 243e 106a a93d 8e12 94bd 8332 843d
000000f0: 153b 4f3e 99f6 273e 3742 b5bc c46e 2dbd
00000100: a821 2b3e 29cb 1d3e 8948 2c3e d908 263e
00000110: 67e7 d33d ef85 b9bd 90a4 023e 4b68 6f3e
00000120: 9f1c 4ebc 5afd 313d c61a 8b3d ddd3 f7bc
00000130: 735b 0a3e 1885 3dbd fb21 873d 1f3c 163e
00000140: cdc5 ea3c f8af e2bd cc84 023e 8609 8e3d
00000150: f184 f73d 62da 32bd 06ec 533e 4001 653d
00000160: 1d4b 313e 0d6a 013e 3890 a5bd 21b8 1c3d
00000170: 3930 273e 04f8 1e3e e310 32bd f5d9 763d
00000180: 96e7 76be 8078 cd3d b7c1 293e 2d4c 3ebe
00000190: e214 35bd 4659 a63d cfbc 483d defe 1b3e
000001a0: af67 d43d 7588 73be 764c 08be 62b0 313e
000001b0: 5978 6a3d b4e6 39be dcb4 c93d a3f9 3c3d
000001c0: 6eb0 e4bd 6762 023d a122 12be b68a 7b3d
000001d0: 5bce 84bd 69bd 1ebe 6025 13bd 513d a73d
000001e0: f4b9 fbbc 1d2b 7d3a 3bdc 1d3e 0fb6 203d
000001f0: 3882 b93c 141b b1bd 5173 2bbe a918 5fbc
00000200: 25f2 d73d 2610 113e 09f7 863d 296c 453e
00000210: 7e98 89bd da38 c33c 6cd4 223e 987d bdbd
00000220: cf7d 313d 4a80 1a3c d560 84bb 34a5 b9bd
00000230: 4789 ddbd 3b5d c1bd 2504 843d 59a6 09bd
00000240: fd8c 4d3e e02d 073d 49f0 68bd dd39 2f3e
00000250: ebbf 013e 0931 4d3d 180a 10bb aec4 bc3d
00000260: f3fc f83d 5e49 f23d 53f6 a1bd 3141 213e
00000270: 5e1d 393c bcb9 623e a59f 1239 14ac 0d3e
00000280: c63c 60be 3887 83bd ca46 f6bd 6a2b 1c3e
00000290: c67f 2fbd 4812 62bd 1bc0 b23c ff37 973d
000002a0: 32d5 28bd 56dd 7dbd 76a8 dc3b 8c8d 0dbe
000002b0: d3bc 0ebd e0e1 19be 5beb 0fbd 5365 c8bd
000002c0: 5292 113e 5b1b 32be b63b 8a3d 5051 01be
000002d0: 715d 04bc 5500 8f3d 6f24 3e3d de00 103e
000002e0: 279d 293e 7c1d 363e 4ac3 123e 01a7 f13c
000002f0: 43f1 963c 813f f73d cab8 91bc 8efa 2abe
00000300: 4995 9ebe 573f b0bd 724a 853d 2cde b13d
00000310: 4149 c8bd a863 3c3d acea 403d a2da 70bc
00000320: 492f 33bd 951a a4be dfdc f23c 2706 afbd
00000330: 2daf c93d a01d e7be a68f b23d b8b7 cfbd
00000340: 5ed9 0f3d 9f1e 8d3d 31ca 14be 19b4 09be
00000350: 8dcc e2bd 1bc4 da3c 301a dabd 26d8 893e
00000360: 658a 9abd 99a7 833d a187 90bd 883d 37be
00000370: 6656 c9bd 1769 6dbe d503 55be 9899 263c
00000380: b686 39bd aa45 febd 94a9 8ebc cad3 7f3d
00000390: 0e47 143d dc16 913c 5f54 863b 6e9d dbbd
000003a0: 5574 843c 81da 99bd e565 a53d 66a4 33bd
000003b0: 6d41 d93d 44d1 60be 56c1 9cbd a944 b83d
000003c0: a996 3dbd 43ba 20be c2ae 3bbc f224 f23d
000003d0: 9c47 8cbc d3e5 0cbe 7b02 b9bc 865e 803d
000003e0: 15db 51bd ebda 85bc 1509 fabd f5a4 2dbe
000003f0: d691 a73d c965 e2bd 6678 38be 28c6 10be

fc1.bias f4 [256]
0.25382638 -0.04619727 -0.096865475 -0.2257988 -0.08656559 -0.10622175 0.32014713 -0.07701083
-0.15605088 -0.20134059 -0.21494092 -0.16046835 -0.043063503 -0.007107411 -0.18440318 -0.122145854
-0.11222376 -0.21627401 0.004870201 -0.20128328 -0.0052263136 -0.18749253 -0.19740702 -0.1524981
-0.13858306 -0.23855841 0.30457047 -0.14484118 -0.105866894 -0.040704392 -0.16255105 -0.15540676
-0.036270853 -0.13012001 -0.06462972 -0.19142349 -0.01629366 -0.19625539 -0.1606991 -0.05821218
-0.29562545 -0.12397703 -0.14726275 -0.11141183 -0.10531514 -0.073530264 -0.09011694 -0.23769817
-0.08356159 0.19192754 -0.3457759 -0.2691367 -0.05093854 -0.17527281 -0.07235316 -0.12495608
-0.06926041 -0.099435955 -0.14909618 0.07454251 -0.09584107 0.2670178 0.33098373 -0.07182487
-0.16501124 -0.049300082 -0.07698863 0.21064788 -0.12763466 -0.046523493 0.088936746 -0.037251487
-0.1402307 -0.10596006 0.21383025 -0.09825222 -0.06691494 -0.051726203 -0.103643514 -0.14241911
-0.17577617 -0.13225757 -0.0051894933 -0.062421933 -0.029853612 -0.07783949 -0.06355792 -0.06299832
0.20227727 -0.0037930992 -0.1653713 -0.14870663 -0.06878397 0.2926878 0.30973062 -0.07677784
-0.1644349 -0.08833666 -0.0034972157 -0.09559847 -0.2205061 -0.17790994 0.33612 -0.16252881
-0.1053271 -0.15767418 -0.17819117 -0.029994817 -0.14548403 -0.19857721 -0.22457996 -0.08140121
-0.08457613 -0.1336006 -0.21711248 -0.13645844 -0.2454191 -0.23773123 -0.23813011 0.033799086
-0.06606787 -0.15876357 -0.3578527 -0.11523808 -0.03758931 -0.006131241 -0.17156143 -0.013962122
-0.057533417 -0.12836307 -0.3880343 -0.13532914 -0.049766693 -0.014772503 -0.033931267 -0.01735589
-0.23967142 -0.076627925 -0.088903084 0.1995821 -0.06342158 -0.07128032 -0.25585502 -0.08356702
-0.094753616 -0.13307716 0.14975594 -0.09350664 -0.03117043 -0.077960275 -0.010124954 -0.11360117
-0.07171385 -0.06847467 -0.015577802 -0.071515426 -0.13349386 -0.18667786 -0.24428074 -0.17858647
-0.1416965 -0.14174554 -0.24931253 -0.35820726 -0.021762291 -0.092626914 -0.1876096 -0.10804946
-0.13123728 -0.12565503 -0.08532282 -0.09541946 -0.16132773 0.35845998 -0.074430354 -0.05773888
-0.14173415 -0.12831368 -0.057016876 -0.028661737 0.28706187 0.0018715103 -0.08919611 -0.13075852
-0.06307078 -0.07028002 -0.097946726 -0.090164155 -0.07235311 -0.082506545 0.24157813 -0.22897667
0.2670206 -0.15468052 -0.21781771 -0.17628469 -0.1445446 -0.187382 -0.1656197 0.049180042
0.14622122 -0.1492569 -0.12370418 0.27377772 -0.17466526 -0.01998745 -0.0011651993 -0.010163076
-0.0621502 0.002217035 -0.08348767 -0.10304694 0.22987932 -0.1090948 -0.06847708 0.01337288
-0.05308298 -0.093229316 -0.021637855 -0.23070793 0.08196915 -0.11475148 -0.11599443 -0.026755556
-0.17237721 -0.099830456 -0.06318883 -0.25694913 -0.038320962 0.12830412 -0.12458712 -0.082171604
-0.10113227 -0.032013044 0.3707293 -0.29444048 -0.073125005 0.20885475 -0.07972139 -0.09804819
0.047968876 -0.1205121 0.2533495 -0.103641614 -0.060015187 0.42677283 -0.03022566 -0.14307755
-0.07052592 -0.1361531 -0.110398896 -0.06436961 -0.117508225 -0.03684726 -0.10491503 -0.28038728
00000000: 88f5 813e 5939 3dbd 6861 c6bd cd37 67be
00000010: 4d49 b1bd ca8a d9bd 53ea a33e dbb7 9dbd
00000020: cdcb 1fbe 3a2c 4ebe 7919 5cbe d151 24be
00000030: 5b63 30bd 49e5 e8bb 30d4 3cbe 9b27 fabd
00000040: 92d5 e5bd ef76 5dbe 3596 9f3b 341d 4ebe
00000050: 7f41 abbb 0bfe 3fbe 1125 4abe 7628 1cbe
00000060: b8e8 0dbe a848 74be a9f0 9b3e 3f51 14be
00000070: bed0 d8bd a6b9 26bd c873 26be f322 1fbe
00000080: bf90 14bd 2e3e 05be 965c 84bd 8504 44be
00000090: 487a 85bc 2cf7 48be 4e8e 24be e56f 6ebd
000000a0: 385c 97be abe7 fdbd 0ccc 16be e32b e4bd
000000b0: 77af d7bd 0997 96bd 3b8f b8bd 2667 73be
000000c0: 5722 abbd a788 443e 8a09 b1be 49cc 89be
000000d0: eea4 50bd b77a 33be e52d 94bd f9e8 ffbd
000000e0: 67d8 8dbd 14a5 cbbd abac 18be bea9 983d
000000f0: 5348 c4bd 8fb6 883e b376 a93e eb18 93bd
00000100: b5f8 28be e2ee 49bd 37ac 9dbd 14b4 573e
00000110: a9b2 02be 6b8f 3ebd 7824 b63d 0495 18bd
00000120: a398 0fbe 9701 d9bd 51f6 5a3e 7638 c9bd
00000130: b30a 89bd dbde 53bd 0d43 d4bd 51d6 11be
00000140: abfe 33be 876e 07be a00c aabb 24ae 7fbd
00000150: 908f f4bc 4f6a 9fbd a82a 82bd 4305 81bd
00000160: c621 4f3e a595 78bb 1857 29be 8d46 18be
00000170: 9cde 8cbd 2ddb 953e 0395 9e3e b33d 9dbd
00000180: 9f61 28be dae9 b4bd 8b31 65bb 21c9 c3bd
00000190: 5acc 61be 062e 36be ec17 ac3e f46d 26be
000001a0: bcb5 d7bd 5775 21be bf77 36be b1b7 f5bc
000001b0: c4f9 14be d357 4bbe 4af8 65be adb5 a6bd
000001c0: 4036 adbd 98ce 08be bc52 5ebe c3bb 0bbe
000001d0: 254f 7bbe d16f 73be 61d8 73be e970 0a3d
000001e0: 974e 87bd eb92 22be 7838 b7be f101 ecbd
000001f0: 40f7 19bd 94e8 c8bb cdad 2fbe 62c1 64bc
00000200: 29a8 6bbd 9c71 03be 6fac c6be b993 0abe
00000210: 29d8 4bbd 5e08 72bc 83fb 0abd f02d 8ebc
00000220: 6d6c 75be 1aef 9cbd d212 b6bd 405f 4c3e
00000230: 2ce3 81bd 6bfb 91bd 6eff 82be 3025 abbd
00000240: 2f0e c2bd 6145 08be 9f59 193e 6980 bfbd
00000250: 2159 ffbc a3a9 9fbd 23e3 25bc bba7 e8bd
00000260: b6de 92bd 733c 8cbd 0a3a 7fbc ae76 92bd
00000270: 9db2 08be 7b28 3fbe bb24 7abe 5fdf 36be
00000280: e318 11be be25 11be c94b 7fbe f166 b7be
00000290: d546 b2bc 2eb3 bdbd bb1c 40be 0949 ddbd
000002a0: 1163 06be b6ab 00be bbbd aebd 476b c3bd
000002b0: 1933 25be 1188 b73e f16e 98bd 9b7f 6cbd
000002c0: c222 11be a964 03be 878a 69bd 05cc eabc
000002d0: c6f9 923e 774d f53a 73ac b6bd 90e5 05be
000002e0: 412b 81bd f9ee 8fbd 4b98 c8bd fca7 b8bd
000002f0: de2d 94bd 31f9 a8bd 4260 773e dc78 6abe
00000300: edb6 883e 9264 1ebe 9b0b 5fbe f983 34be
00000310: 8003 14be 11e1 3fbe 3698 29be 0371 493d
00000320: 04bb 153e cdd6 18be 9e58 fdbd 982c 8c3e
00000330: 73db 32be b9bc a3bc 9ab9 98ba 0883 26bc
00000340: 3591 7ebd ad4b 113b 95fb aabd 460a d3bd
00000350: 7c65 6b3e 186d dfbd b63d 8cbd ed19 5b3c
00000360: 8a6d 59bd 03ef bebd df41 b1bc b33e 6cbe
00000370: 71df a73d d302 ebbd 7d8e edbd 782e dbbc
00000380: a783 30be e973 ccbd 2569 81bd d68e 83be
00000390: 71f6 1cbd 2862 033e 8827 ffbd 9649 a8bd
000003a0: 701e cfbd 1c20 03bd 3bd0 bd3e e7c0 96be
000003b0: 90c2 95bd 05de 553e f844 a3bd 7dcd c8bd
000003c0: 037b 443d 0ccf f6bd 07b7 813e 0e42 d4bd
000003d0: 7cd2 75bd f881 da3e ce9b f7bc ec82 12be
000003e0: e56f 90bd b86b 0bbe d118 e2bd 37d4 83bd
000003f0: 27a8 f0bd 27ed 16bd b1dd d6bd ec8e 8fbe

fc2.weight f4 [128, 256]
-0.10848315 0.027939066 -0.0016513395 0.058166128 0.02501211 -0.053927887 0.045440946 -0.05175853
0.058816176 -0.02109255 -0.09617096 0.078095764 0.11725301 0.08638113 0.023379626 0.040575318
-0.029635878 0.0075750053 0.04261804 -0.05279854 0.011177847 0.05211055 -0.11794215 0.0904514
-0.07876565 0.060264133 0.024633408 0.23331802 0.029614821 0.019288618 -0.03565517 0.09830689
0.030228581 0.023318607 -0.04454894 -0.179045 0.048104454 -0.04797824 0.046316464 0.077280305
0.08499852 -0.0034773336 -0.008491216 0.0605465 -0.079203576 -0.010601756 0.030359216 0.08625005
0.06609673 0.07335874 -0.108332254 -0.003482681 0.0037986604 -0.02278378 0.07370264 0.0436391
0.00809416 -0.11590898 0.0063741812 0.049017582 0.0002463544 -0.059367903 0.003387361 0.1008368
0.0051205894 0.08631441 0.044776957 -0.12102342 -0.020062178 0.035532314 -0.022580594 -0.00028234164
0.010262571 -0.055417534 0.025498608 -0.0059567746 -0.013387947 0.019599013 0.080210835 -0.018613119
-0.018713018 0.009894308 0.07579549 0.038269043 0.008113258 0.04769453 -0.10646733 -0.013616163
0.0990905 -0.0248494 0.036408268 -0.0037901972 0.017537035 -0.03624705 -0.049385827 -0.044743158
0.0031642378 0.07300651 0.014397684 0.019091893 -0.059199613 -0.085242234 -0.022865534 -0.028295211
-0.050050084 -0.026857635 0.0030644757 0.090386294 -0.03379253 0.10088303 0.0529792 -0.04097131
-0.105658606 -0.12993696 0.04635516 0.08834907 0.0770692 -0.001291054 0.042068835 -0.04575054
0.022890234 0.054461055 -0.053230077 0.09094722 0.06559018 -0.061432727 -0.07627714 0.028721642
0.029037409 -0.0073798364 -0.06733223 -0.004022449 -0.011808824 0.012597652 0.07855317 -0.092565216
0.0064910534 -0.04292424 0.030250166 -0.0027528629 -0.00021337223 -0.0010342476 -0.018317372 -0.02698382
0.07921226 0.058582973 -0.09886983 -0.013971653 -0.10565577 -0.05620931 0.09435534 0.084215105
0.028046638 0.020652551 0.039638996 0.07106268 0.008813185 -0.042921584 0.065251924 -0.09558441
-0.039581694 0.019024335 0.051154952 -0.11128123 0.2061633 -0.0055639106 -0.0881772 0.027986616
0.15752809 -0.035844244 0.088349 0.02421097 -0.0070375493 -0.361553 0.08632604 0.01692267
-0.03666772 0.003386511 -0.02196606 0.068491995 -0.117116205 -0.0642635 0.083590895 0.048101366
-0.060506314 0.037289172 -0.082065895 -0.0025267957 0.070887215 0.039213166 -0.23977824 -0.073816545
0.0013050378 -0.023647582 -0.017555375 0.12122476 -0.015631016 0.029622596 -0.028793156 0.0034119932
-0.004732771 -0.049220834 0.047522523 -0.033844024 -0.07179605 0.10930037 0.022814022 -0.048376203
0.024184726 0.042598378 0.11767403 -0.16552942 -0.06470225 0.05862661 0.014454757 0.063532874
0.022792324 0.047567204 0.015249028 0.014241033 -0.012636099 0.0016188715 0.052772712 0.049273655
0.09160634 -0.020596331 0.03589725 -0.19080108 0.04398908 -0.044927243 0.09136279 0.02411129
-0.029546866 0.103344806 -0.14232755 0.05848246 -0.005538208 0.00111601 0.0059368624 -0.1362737
-0.0732697 -0.015909472 -0.22220547 -0.016734714 -0.038580664 -0.48901084 0.044397518 -0.106307045
0.067276604 -0.007268234 -0.0060538356 0.05828932 0.08449445 0.07564063 -0.0057600504 0.021367362
00000000: 6a2c debd 78e0 e43c c271 d8ba 9b3f 6e3d
00000010: 32e6 cc3c 7de3 5cbd 4920 3a3d c100 54bd
00000020: 3be9 703d 49ca acbc 48f5 c4bd acf0 9f3d
00000030: 5922 f03d 97e8 b03d a186 bf3c 4e32 263d
00000040: f1c6 f2bc c037 f83b 4190 2e3d 4843 58bd
00000050: 4a23 373c df71 553d a78b f1bd 953e b93d
00000060: e34f a1bd 86d7 763d 00cc c93c ebea 6e3e
00000070: c89a f23c 2a03 9e3c 280b 12bd 1f55 c93d
00000080: eea1 f73c aa06 bf3c f378 36bd 9357 37be
00000090: 2d09 453d d584 44bd 55b6 3d3d 2345 9e3d
000000a0: b413 ae3d fae3 63bb be1e 0bbc 9bff 773d
000000b0: 7c35 a2bd fdb2 2dbc e4b3 f83c dea3 b03d
000000c0: b95d 873d 1b3d 963d 4ddd ddbd b13d 64bb
000000d0: f2f2 783b 0da5 babc 69f1 963d eabe 323d
000000e0: 5e9d 043c b061 edbd 82de d03b a9c6 483d
000000f0: 2129 8139 c22b 73bd 7dfe 5d3b 8683 ce3d
00000100: 9eca a73b 9cc5 b03d 0b68 373d 20db f7bd
00000110: 7059 a4bc 558a 113d f0fa b8bc 4107 94b9
00000120: 5824 283c 7ffd 62bd 75e2 d03c 0c31 c3bb
00000130: 1f59 5bbc 1c8e a03c 9445 a43d 8a7a 98bc
00000140: 0b4c 99bc bc1b 223c aa3a 9b3d 00c0 1c3d
00000150: 78ed 043c 575b 433d 8b0b dabd 5416 5fbc
00000160: f6ef ca3d f890 cbbc d620 153d f564 78bb
00000170: d4a9 8f3c c977 14bd cb48 4abd 9a44 37bd
00000180: 1a5f 4f3b 7084 953d 43e4 6b3c 9a66 9c3c
00000190: 4b7b 72bd 7b93 aebd 8050 bbbc 5ccb e7bc
000001a0: 5101 4dbd 8b04 dcbc 5fd5 483b 731c b93d
000001b0: 096a 0abd c39b ce3d b800 593d 88d1 27bd
000001c0: 8a63 d8bd 320e 05be e9de 3d3d 5bf0 b43d
000001d0: 75d6 9d3d 9538 a9ba 5f50 2c3d eb64 3bbd
000001e0: 4d84 bb3c 8e12 5f3d c807 5abd 8942 ba3d
000001f0: 2554 863d e2a0 7bbd 3037 9cbd a649 eb3c
00000200: dcdf ed3c 8ed2 f1bb 7be5 89bd bfce 83bb
00000210: cc79 41bc 6266 4e3c 7ce0 a03d d592 bdbd
00000220: e7b2 d43b 54d1 2fbd 32cf f73c 6069 34bb
00000230: acbc 5fb9 978f 87ba 500e 96bc 2c0d ddbc
00000240: 0a3a a23d b3f4 6f3d 447c cabd 5ce9 64bc
00000250: 0d62 d8bd bc3b 66bd 5f3d c13d f878 ac3d
00000260: 10c2 e53c 8a2f a93c 805c 223d 4f89 913d
00000270: 2d65 103c 8bce 2fbd cda2 853d c2c1 c3bd
00000280: 6a20 22bd ecd8 9b3c db87 513d 6ae7 e3bd
00000290: 791c 533e 7751 b6bb 3f96 b4bd 3044 e53c
000002a0: 0b4f 213e 6ad1 12bd 52f0 b43d 1656 c63c
000002b0: 3e9b e6bb 7a1d b9be b5cb b03d 69a1 8a3c
000002c0: e430 16bd 3af0 5d3b 2bf2 b3bc 8845 8c3d
000002d0: 9fda efbd 959c 83bd b431 ab3d f005 453d
000002e0: 78d5 77bd 88bc 183d 2a12 a8bd 9998 25bb
000002f0: 512d 913d fc9d 203d 6d88 75be 212d 97bd
00000300: cd0d ab3a 93b8 c1bc 4ad0 8fbc b044 f83d
00000310: 9e0c 80bc 16ab f23c a0df ebbc bf9b 5f3b
00000320: 5c15 9bbb c99b 49bd faa6 423d 08a0 0abd
00000330: cf09 93bd dfd8 df3d 79e4 ba3c 2026 46bd
00000340: 0c1f c63c a37b 2e3d 15ff f03d 8b80 29be
00000350: 9d82 84bd 7522 703d a5d3 6c3c 861d 823d
00000360: f8b6 ba3c d4d5 423d 0fd7 793c 3953 693c
00000370: a407 4fbc 5030 d43a 3328 583d 2cd3 493d
00000380: 1b9c bb3d a3b9 a8bc ff08 133d 5c61 43be
00000390: e52d 343d a105 38bd 6a1c bb3d 0a85 c53c
000003a0: 450c f2bc 71a6 d33d 50be 11be 4e8b 6f3d
000003b0: db79 b5bb 1547 923a 038a c23b 558b 0bbe
000003c0: 6d0e 96bd 9554 82bc d589 63be 3d17 89bc
000003d0: c206 1ebd a15f fabe 2cda 353d 82b7 d9bd
000003e0: 51c8 893d 5e2a eebb 415f c6bb c8c0 6e3d
000003f0: 6d0b ad3d 7ae9 9a3d cebe bcbb 9b0a af3c

fc2.bias f4 [128]
0.051977273 -0.039984208 -0.10574506 0.021313785 -0.0055686063 0.077987194 -0.027341083 -0.059461974
-0.010099062 0.28852177 -0.0030617933 -0.06350198 -0.10589156 -0.12825736 -0.0222875 -0.036287993
-0.11314636 -0.10097362 -0.0491969 -0.23408905 0.019615956 -0.06925619 0.040906414 -0.29647225
0.16023755 -0.108463444 -0.05030917 -0.08853743 -0.008095124 0.03365953 -0.023137217 -0.07291883
-0.0322077 -0.06929435 -0.0017380606 0.06484282 -0.09127854 -0.087606356 -0.013294478 -0.07693319
-0.047736686 -0.09011906 -0.061847623 -0.05829472 -0.084467895 -0.0048338845 -0.008270904 -0.05231566
-0.062098697 0.01283242 -0.054918863 -0.092404544 -0.09716447 0.00095384865 -0.037330724 0.12903127
-0.095348045 -0.016556744 -0.067833565 0.1263514 -0.026961925 -0.09005306 -0.10354765 -0.08410511
-0.056444343 -0.13535358 0.054436166 -0.019194672 -0.04889822 -0.078764245 0.035896525 -0.010067648
0.031346172 -0.036888883 -0.04578215 -0.10705025 0.0139167365 -0.03358866 0.00031903677 -0.03663898
0.077591665 0.00019041405 -0.0005137869 -0.07420794 0.036147032 -0.10927295 0.019625492 -0.086698234
-0.043930616 -0.09511061 0.029437419 -0.054780338 0.061134893 -0.03948959 -0.0055750227 -0.07379294
-0.052177954 -0.08144011 -0.0009886135 0.09059696 -0.017250866 -0.05229872 -0.05706089 -0.064083606
-0.09223136 -0.004943366 -0.10186337 -0.25124824 0.038056575 0.060889322 -0.11736884 0.0020993343
-0.06667245 -0.12423934 0.16110767 -0.032134753 -0.005038531 -0.11527913 -0.2103056 -0.015969109
-0.05937705 0.1937259 -0.09089977 -0.06658879 -0.025769092 0.010226747 0.2984177 0.0008028711
00000000: 1fe6 543d 7bc6 23bd de90 d8bd 3f9a ae3c
00000010: db78 b6bb c0b7 9f3d 68fa dfbc 668e 73bd
00000020: 8976 25bc 20b9 933e 5ea8 48bb 530d 82bd
00000030: addd d8bd e655 03be 4694 b6bc b8a2 14bd
00000040: 47b9 e7bd 42cb cebd b082 49bd 0ab5 6fbe
00000050: a4b1 a03c 30d6 8dbd 7c8d 273d 36cb 97be
00000060: 5015 243e 1522 debd fd10 4ebd 1d53 b5bd
00000070: 69a1 04bc 93de 093d 438a bdbc 7856 95bd
00000080: 39ec 03bd 32ea 8dbd a3cf e3ba 50cc 843d
00000090: 3ef0 babd f66a b3bd 15d1 59bc 268f 9dbd
000000a0: 8b87 43bd 5790 b8bd ef53 7dbd 72c6 6ebd
000000b0: 81fd acbd 9065 9ebb b082 07bc f248 56bd
000000c0: 345b 7ebd 123f 523c 9af2 60bd 983e bdbd
000000d0: 2afe c6bd b30b 7a3a 1ae8 18bd c620 043e
000000e0: d645 c3bd 02a2 87bc 53ec 8abd 4362 013e
000000f0: 41df dcbc bd6d b8bd ca10 d4bd 4d3f acbd
00000100: 2f32 67bd 219a 0abe 75f8 5e3d 253e 9dbc
00000110: 8049 48bd 264f a1bd 3c08 133d c7f2 24bc
00000120: d864 003d cc18 17bd 1086 3bbd 293d dbbd
00000130: 0603 643c 4394 09bd 6444 a739 c112 16bd
00000140: 61e8 9e3d e2a9 4739 a8af 06ba 55fa 97bd
00000150: e90e 143d 7fca dfbd a4c5 a03c d88e b1bd
00000160: 97f0 33bd 5ac9 c2bd be26 f13c 5961 60bd
00000170: 9568 7a3d d6bf 21bd aeae b6bb c120 97bd
00000180: 8db8 55bd 13ca a6bd 5d94 81ba e68a b93d
00000190: b051 8dbc 2f37 56bd aeb8 69bd 443e 83bd
000001a0: cce3 bcbd f6fb a1bb be9d d0bd 9ca3 80be
000001b0: 36e1 1b3d 1567 793d 135f f0bd fc94 093b
000001c0: 918b 88bd 3271 febd 69f9 243e bb9f 03bd
000001d0: 431a a5bb 7717 ecbd 5a5a 57be a6d1 82bc
000001e0: 5935 73bd 1560 463e a929 babd b45f 88bd
000001f0: b419 d3bc 168e 273c 34ca 983e c477 523a

fc3.weight f4 [2, 128]
0.093115576 -0.013732134 0.00455089 0.08548522 -0.0062947664 -0.033236455 0.034841944 -0.08743469
0.0019618326 -0.24175361 0.03338014 0.045543168 -0.026484856 -0.085653454 0.009270201 0.05837306
0.030779583 -0.049825106 -0.049114473 -0.10831148 -0.04160188 -0.040489517 0.0905191 0.27349886
-0.033314433 0.017072486 -0.02414807 0.072589055 -0.029672228 0.11070775 0.013908768 -0.015310776
-0.005291467 0.025175802 0.11057662 -0.05827964 0.007608681 0.012970915 0.023486648 -0.03161858
0.066520646 -0.044614796 -0.06579832 -0.0232055 0.032082867 -0.0543028 -0.019415472 0.0116825225
0.048414327 0.047874857 0.010839804 -0.02854316 -0.024267597 0.011268231 0.0057483455 -0.057941847
0.016319739 0.099712715 0.00831839 -0.048529677 -0.029547986 0.07532075 0.010331072 0.10479068
0.06025059 0.10382261 0.08387394 -0.0037930654 0.04497863 0.011505445 -0.04966352 -0.0012174573
0.12539877 -0.05883424 0.0058594816 -0.05833003 0.14075212 -0.02917746 0.046176367 0.020389395
0.015849084 0.024651438 0.08810326 0.072618574 -0.010795212 -0.101972535 0.13471888 -0.00038251
0.003561905 -0.08648452 0.072103076 0.0034024639 0.02171158 0.01803257 0.052545432 0.045974914
0.014059848 0.0072859684 -0.00988041 -0.020803912 0.118442096 0.14234112 -0.025290288 0.10340874
0.089479275 0.09756867 0.046642814 -0.19108869 -0.045141764 -0.021176606 -0.021915128 0.12241132
-0.018815015 -0.05346926 -0.059652932 -0.05902944 0.0695129 0.0022849988 0.089426205 0.13337234
-0.0053401296 -0.36573562 -0.0367329 0.030052429 -0.044017673 0.05561087 -0.3321907 0.08980744
0.0034258745 0.009499659 -0.0250115 -0.08567618 -0.11657628 -0.00044949906 0.015725069 0.0021397534
-0.08671963 0.22916606 -0.024834573 -0.09114745 0.028320394 0.024850668 0.047756728 -0.031178946
0.029317206 0.019213768 -0.024566548 0.050563462 0.0037903285 -0.039690766 -0.02703525 -0.22954267
0.14202748 -0.09197607 -0.1265284 0.0043098587 -0.0751265 -0.03858796 -0.05810043 -0.075840056
-0.068233244 -0.046252746 0.011083223 0.080703355 0.0365447 -0.04113286 0.019279538 -0.029945493
-0.044227164 0.02228123 0.027326867 0.016233632 -0.0095457835 0.023696002 -0.13263464 -0.0762574
0.021453995 -0.05075296 -0.056604408 0.0434465 0.0073305247 -0.09846672 -0.023292309 0.12455816
0.09521185 0.022183327 0.035399247 0.06402579 -0.004975579 -0.0024002735 0.020752722 0.040169057
-0.013894503 -0.040991243 -0.13370505 -0.081231885 0.016706252 0.018975647 0.120152995 -0.036731742
-0.106555 0.04312688 0.0062146545 0.07758485 -0.122802526 -0.06756495 -0.074925 -0.098245546
-0.01147433 -0.037844237 0.06726084 -0.003930338 -0.0639584 0.009460513 -0.096194856 0.004979537
-0.10899735 -0.023193447 -0.029578978 -0.015976459 -0.022269636 -0.07354721 -0.08471489 -0.03151149
-0.07858999 -0.09845237 -0.0972685 -0.019776046 0.0103946505 -0.05922887 -0.10239689 -0.011245005
-0.0045667766 0.0141627295 0.017704224 0.16559033 0.14268906 -0.070320114 -0.13201351 -0.14146192
0.08913625 0.0824025 0.015565636 0.052859586 0.05032086 0.024422739 -0.12562692 0.03541345
-0.14267127 0.41929322 -0.06432932 0.006180179 -0.06382243 -0.094393246 0.3379889 -0.06058964
00000000: 61b3 be3d bffc 60bc a21f 953b e012 af3d
00000010: 5444 cebb f322 08bd 6db6 0e3d f510 b3bd
00000020: 1792 003b 428e 77be 9db9 083d 798b 3a3d
00000030: c5f6 d8bc 146b afbd 0be2 173c 9718 6f3d
00000040: 7725 fc3c 6915 4cbd 422c 49bd 69d2 ddbd
00000050: bc66 2abd 56d8 25bd 1462 b93d 0b08 8c3e
00000060: b774 08bd 99db 8b3c 2cd2 c5bc 92a9 943d
00000070: 2c13 f3bc bfba e23d 9ae1 633c 0dda 7abc
00000080: 0b64 adbb 7c3d ce3c ff75 e23d a2b6 6ebd
00000090: 3e52 f93b f683 543c 1267 c03c 7c82 01bd
000000a0: fa3b 883d 01be 36bd 45c1 86bd 7619 bebc
000000b0: 5369 033d 9d6c 5ebd 320d 9fbc 0d68 3f3c
000000c0: 1a4e 463d 6d18 443d 6f99 313c 58d3 e9bc
000000d0: d7cc c6bc 639e 383c 9e5c bc3b 6e54 6dbd
000000e0: f9b0 853c 2e36 cc3d db49 083c 0ec7 46bd
000000f0: 9e0e f2bc c441 9a3d a843 293c 7f9c d63d
00000100: 53c9 763d f3a0 d43d 1ac6 ab3d 1495 78bb
00000110: 833b 383d 5681 3c3c fa6b 4bbd 1793 9fba
00000120: 8968 003e 2cfc 70bd e500 c03b 78eb 6ebd
00000130: 5321 103e 9205 efbc 6e23 3d3d a907 a73c
00000140: f0d5 813c d0f1 c93c 7b6f b43d 0cb9 943d
00000150: 67de 30bc fad6 d0bd bff3 093e a08b c8b9
00000160: d96e 693b cc1e b1bd c7aa 933d dffb 5e3b
00000170: 7cdc b13c 0ab9 933c e139 573d 3150 3c3d
00000180: 475b 663c 22bf ee3b 71e1 21bc f76c aabc
00000190: c591 f23d dfc1 113e 942d cfbc f6c7 d33d
000001a0: e940 b73d 15d2 c73d 890c 3f3d c1ac 43be
000001b0: 92e6 38bd 907a adbc 5b87 b3bc c9b2 fa3d
000001c0: f221 9abc 9502 5bbd a256 74bd dbc8 71bd
000001d0: c85c 8e3d ebbf 153b 1625 b73d c292 083e
000001e0: 41fc aebb b341 bbbe 3d75 16bd 8330 f63c
000001f0: e04b 34bd 39c8 633d e614 aabe f7ec b73d
00000200: a384 603b 75a4 1b3c ebe4 ccbc fe76 afbd
00000210: 8bbf eebd beaa ebb9 dcd1 803c 1b3b 0c3b
00000220: 109a b1bd 82aa 6a3e e071 cbbc 84ab babd
00000230: 2c00 e83c a193 cb3c 8f9c 433d fd6a ffbc
00000240: a32a f03c 3166 9d3c c93f c9bc a21b 4f3d
00000250: 2967 783b c992 22bd 0779 ddbc 3c0d 6bbe
00000260: a76f 113e f35d bcbd a990 01be b739 8d3b
00000270: ecdb 99bd 690e 1ebd b7fa 6dbd 0852 9bbd
00000280: dfbd 8bbd 8573 3dbd 6896 353c cd47 a53d
00000290: e5af 153d ee7a 28bd 1ff0 9d3c 4050 f5bc
000002a0: 8b27 35bd 2087 b63c 98dc df3c 65fc 843c
000002b0: eb65 1cbc 1e1e c23c 60d1 07be d72c 9cbd
000002c0: 4ac0 af3c 56e2 4fbd 06da 67bd f5f4 313d
000002d0: e634 f03b eba8 c9bd 83cf bebc 5918 ff3d
000002e0: 6efe c23d cfb9 b53c cdfe 103d f41f 833d
000002f0: 2f0a a3bb e84d 1dbb 9d01 aa3c 4f88 243d
00000300: c5a5 63bc 6fe6 27bd fae9 08be e75c a6bd
00000310: 8ddb 883c d172 9b3c c612 f63d 0674 16bd
00000320: 8239 dabd d0a5 303d 4da4 cb3b cee4 9e3d
00000330: e47f fbbd 7e5f 8abd 4772 99bd f634 c9bd
00000340: d4fe 3bbc 8f02 1bbd 0dc0 893d 11ca 80bb
00000350: 9ffc 82bd 4400 1b3c cf01 c5bd 622b a33b
00000360: 013a dfbd 2f00 bebc 9d4f f2bc 10e1 82bc
00000370: d06e b6bc eb9f 96bd 007f adbd 3112 01bd
00000380: caf3 a0bd 65a1 c9bd b534 c7bd 6001 a2bc
00000390: 534e 2a3c f999 72bd 76b5 d1bd f83c 38bc
000003a0: e6a4 95bb cb0a 683c 7308 913c 8390 293e
000003b0: 151d 123e fe03 90bd 8d2e 07be 65db 10be
000003c0: 118d b63d a4c2 a83d 0207 7f3c 4b83 583d
000003d0: 3f1d 4e3d 3212 c83c 58a4 00be b20d 113d
000003e0: 6b18 12be 9aad d63e 17bf 83bd 1983 ca3b
000003f0: 56b5 82bd 3f51 c1bd e20c ad3e d82c 78bd

fc3.bias f4 [2]
-0.09005926 -0.0008847035
00000000: fd70 b8bd 72eb 67ba
