Project 3-Open set recognition/Project/Weights/6_weights.pth (torch, 387487 bytes, 10 tensors)

conv1.weight f4 [64, 1, 7, 7]
000000 bf 4c dd bd e0 4a d4 bd 43 1e d7 bd a8 7d e7 3d
       -0.10805654 -0.10365844 -0.10503819 0.11303264
000010 9d 4c b2 3d 24 e9 32 3c 72 4b f3 3d 30 21 23 be
       0.08706019 0.010919843 0.118796244 -0.15930629
000020 a4 98 16 be c9 3f 81 3d b5 06 1e be 0d 2c 4f bd
       -0.14706665 0.06310994 -0.15432246 -0.05057912
000030 f1 2e cd bd 53 ab 89 bd 93 c4 ef bd 58 71 a6 3c
       -0.10018719 -0.067221306 -0.117074154 0.020317718
000040 38 fb 13 be 71 52 c6 bd e0 80 ff bc 98 01 e7 bd
       -0.14451301 -0.09683693 -0.031189382 -0.11279601
000050 f0 f6 35 bd dd 5e e6 ba 39 32 bc 3d 41 ca fa 3a
       -0.04442495 -0.0017575879 0.09189267 0.0019133763
000060 b7 e2 f4 bd 45 c0 71 bd 36 d0 8a bd f8 fc 6a be
       -0.11957305 -0.059021253 -0.06777994 -0.22948062
000070 5f a5 ad bb 3f 43 b4 3d 23 5b f6 3d 28 20 73 3d
       -0.005299255 0.08801889 0.12029102 0.05935684
000080 6d 91 2f 3e 22 0f b1 3d 90 5d 66 3e b3 68 bc 3d
       0.1714532 0.086454645 0.22496629 0.09199657
000090 19 39 7c 3c 38 c2 4f 3c 32 2e 30 3e a5 c5 cc 3d
       0.0153944725 0.012680583 0.17205122 0.09998635
0000a0 9b 3e 85 3e ba 11 67 3e fc e4 da 3d 52 83 0d 3b
       0.26024327 0.22565356 0.106882066 0.0021593166
0000b0 93 18 74 3e ad a2 0d 3e 95 e6 13 3e 52 4c 0e 3d
       0.238375 0.13831587 0.14443429 0.034740753
0000c0 3b 3d 78 3c d8 41 0c 3f f7 3c dc 3e e7 2c be 3e
       0.015151317 0.5478797 0.43015262 0.37143633
0000d0 2d 42 05 3d 43 54 ac 3d 17 ea 1a be 36 b9 6c bd
       0.032533813 0.08414509 -0.1512836 -0.05779382
0000e0 ee 62 a8 3e 5a 17 d3 3e 7d 68 ad 3e 30 a6 49 3e
       0.32887977 0.41228753 0.3386878 0.19692302
0000f0 d6 d4 39 3e 07 7a 0b 3e 23 b4 86 3d 08 1a ae be
       0.18147597 0.13620768 0.06577327 -0.34004235
000100 3f 53 94 be e3 73 a1 be f7 31 c1 bd 2e 55 63 bd
       -0.28969762 -0.31533727 -0.09433358 -0.055501156
000110 b1 7e 0c bc ad 19 fc 3d 30 bb a7 be 84 00 92 be
       -0.008575127 0.12309585 -0.3276 -0.28516018
000120 ca 05 9a be 24 a3 c3 bd 04 80 37 be 46 4e 81 3d
       -0.30082542 -0.09552601 -0.17919928 0.063137576
000130 0b 8b 0e bc 1a e0 aa bd 73 a8 1c be 4a a3 12 be
       -0.008700143 -0.08343525 -0.15298633 -0.14320102
000140 b3 7a 9d bd d3 83 ba bd f0 4e d5 bb 35 9b 8e 3c
       -0.07689419 -0.09107175 -0.006509654 0.017407993
000150 55 09 be 3d ef d5 0c 3e 86 98 69 3e 39 74 b2 3d
       0.09279124 0.13753484 0.2281209 0.08713574
000160 4a 69 ce 3d 2d 27 69 3e 49 80 53 3e e4 73 f8 3e
       0.10078676 0.2276885 0.20654406 0.48525918
000170 0f e9 fc 3e 82 2c 85 3e 86 3d be 3d 2c d9 bf 3d
       0.4939656 0.2601052 0.092890784 0.09367594
000180 56 4a 68 3e b1 ca 86 3e dc 84 15 bd 9d 4f 5f bc
       0.22684607 0.26326516 -0.036503658 -0.013629821
000190 80 2b 1a 3d 8e b3 4b bd 82 2c ac 3d 13 ea b3 bd
       0.03763914 -0.049731784 0.08406927 -0.087848805
0001a0 35 3a 8f bd 41 23 ff 3c 47 e1 87 bd 8b 8a f2 3d
       -0.06993524 0.03114474 -0.06634765 0.11842831
0001b0 71 05 b6 3d b4 38 cb bd fd b1 c6 3c 7e 43 83 ba
       0.088877566 -0.09922925 0.024254793 -0.0010014621
0001c0 e4 d0 bd bc b3 0e 3f bd 9a 81 69 bd 03 ce 72 3d
       -0.023170896 -0.046644878 -0.057008363 0.0592785
0001d0 01 5d f1 bd 1b 34 7f 3d 87 d3 8f bd 41 cb bf 3d
       -0.11785317 0.06230555 -0.070227675 0.093649395
0001e0 34 2e 84 bd 61 43 35 bb fb cc 8a 3d 63 f8 91 3d
       -0.06454125 -0.002765857 0.06777378 0.07127454
0001f0 10 4d 88 3c ba 29 32 3e ed cf da 3d f6 98 42 bd
       0.016638309 0.1739873 0.1068419 -0.047509156
000200 31 cc 02 3e 05 90 a9 3c 9d 93 42 bd 34 99 cb 3c
       0.12773205 0.020698557 -0.047504056 0.024853326
000210 d6 fc a9 3d 1f 6f 39 3e 5a d0 f4 bc 1e 56 1f 3b
       0.08300178 0.18108796 -0.029884506 0.0024312804
000220 4f 16 4a 3c 5c 36 8f bd ed 38 42 bd 5e 7a f7 3c
       0.01233442 -0.0699279 -0.04741757 0.030209716
000230 cc 30 a1 bd f5 9b 99 39 b4 92 e0 3c 3e 52 20 3d
       -0.078706354 0.0002929863 0.027413704 0.039140932
000240 53 ab 54 bd f4 1b 26 3d c2 e6 0c 3e d5 fd d8 3e
       -0.0519212 0.040554002 0.13759902 0.42381158
000250 47 cc 8c 3d 10 f6 81 bb 9a b9 99 3d d9 c9 ff 3d
       0.068749 -0.0039661005 0.07506104 0.12489671
000260 19 a4 9e bd d2 37 ba 3c 0f f6 14 3e d3 43 ae bd
       -0.07746143 0.022731695 0.14546989 -0.0850903
000270 e9 82 96 3c d4 fe 91 3d f3 b5 07 bd 13 e0 38 bd
       0.01837297 0.07128683 -0.033132505 -0.04513557
000280 2f f1 ab 3d 69 4f b4 3e b8 68 e4 3b 2c 15 f8 bd
       0.083956115 0.35216835 0.0069704913 -0.12113413
000290 f7 ed 17 3d 39 c8 d2 bc 6c 3c c5 3d ba af fc bd
       0.037092175 -0.02573024 0.09630665 -0.12338205
0002a0 9b c6 f7 3d 30 3b 58 3e 29 14 fc 3d 2e f3 be bc
       0.12098428 0.21116328 0.12308533 -0.023309316
0002b0 e8 88 0c be 8d 26 08 bc 2b 42 5f be ad 32 38 3e
       -0.137241 -0.0083099725 -0.21802585 0.17988081
0002c0 4c 23 4f 3d 5c 8b 9d bd fc 3d 36 be 63 f0 01 be
       0.05057077 -0.07692596 -0.17797083 -0.12689357
0002d0 b0 75 ef bd 1d 9d 0e 3e 7d 93 27 bd 09 5e 15 3e
       -0.11692369 0.13927121 -0.04091214 0.14586653
0002e0 00 34 d3 bd 54 53 f4 3c be 06 7b bd f0 f0 44 3d
       -0.103126526 0.02982489 -0.061285727 0.04808134
0002f0 7d d0 4a 3e 59 6d a9 bd a9 d6 96 3e 9f ab 8e 3e
       0.19806094 -0.082728095 0.29460648 0.27865312
000300 59 05 4c 3e 34 93 0e 3e 1c fa 01 3e 64 04 24 3e
       0.19923915 0.13923341 0.12693065 0.160173
000310 30 1f 7b 3d db ae 0e 3e 5d 9a 73 3e 77 62 91 3e
       0.06130904 0.1393389 0.23789354 0.28395435
000320 aa b7 be 3d 3f fa 8e bd e8 8c 13 bd 6d a3 0c 3e
       0.09312375 -0.069813244 -0.03602305 0.13734217
000330 33 39 72 3d fb 36 00 3d 88 24 25 be 3f 3f e0 bc
       0.05913658 0.031302433 -0.16127217 -0.027373908
000340 a7 ad 5b 3e 02 74 48 3e 58 03 c5 3d 75 2a 18 3d
       0.21452962 0.19575503 0.096197784 0.037149865
000350 77 41 a3 3c 39 46 42 be 21 bc 40 3d 00 43 48 3e
       0.019928677 -0.189721 0.047054414 0.19556808
000360 98 a7 87 3e b3 32 79 3c 75 fc 42 3e f1 dc 00 be
       0.2649505 0.015209842 0.19041617 -0.12584282
000370 05 ec 95 be 1a ef ad 3c 8b ae 7c 3e 2e a2 a8 3e
       -0.2928163 0.021232177 0.24675958 0.32936233
000380 b8 9a 22 bd a1 cc 3c 3d 70 6e 7a be 41 b9 1a be
       -0.039698333 0.046093587 -0.24456191 -0.15109731
000390 15 58 62 bd 5a df 5b 3e ac 1b 01 b9 f4 9c 22 3d
       -0.055259783 0.2147192 -0.00012312707 0.039700463
0003a0 dc c9 18 3e 07 43 2c 3d 3e 50 3a 3e c1 73 e6 3c
       0.14920753 0.04205611 0.18194672 0.028131368
0003b0 a2 7b 25 3e e2 80 82 be 93 bd f7 3c c2 97 80 3e
       0.16160443 -0.25488955 0.030241763 0.25115782
0003c0 e7 22 74 3e e6 77 8b 3e 0c 6a 59 3e 4a 0f 3f 3d
       0.23841439 0.27239913 0.2123186 0.04664544
0003d0 05 52 ce bb ee 15 b4 3d 53 a4 58 3e fd 5e 18 3e
       -0.0062963986 0.08793245 0.21156435 0.14879985
0003e0 fc cb 83 3e 8c b8 95 3e 5c a2 ed 3d a5 1d 80 3c
       0.25741565 0.2924236 0.11603233 0.015639136
0003f0 72 62 23 bc 29 81 a3 3d 33 db 0e 3e 99 7e 5b bb
       -0.009972202 0.0798362 0.13950805 -0.0033492206

conv1.bias f4 [64]
000000 f3 e7 2e be 20 ca e7 bd 12 ee a6 3c a3 92 83 be
       -0.17080669 -0.11317849 0.020377193 -0.25697812
000010 5a 72 97 bd 57 9b 1b be 28 0e f6 bd 08 d8 3f be
       -0.07394858 -0.15195976 -0.12014419 -0.18734753
000020 43 a7 02 be 7c f5 35 be a7 da 15 be 6c 32 6d be
       -0.12759118 -0.17769426 -0.1463419 -0.23163766
000030 d3 b5 09 be 5c ee 68 be f6 2a a0 bd 12 46 0a be
       -0.13448267 -0.22747177 -0.07820694 -0.13503292
000040 eb 12 c5 be 2a 5e 64 bc 90 18 27 be a8 53 dd bd
       -0.38490996 -0.013938466 -0.16317964 -0.10806972
000050 77 89 df bd 0e 11 67 be 2b 71 19 3d 28 67 69 bd
       -0.10914891 -0.225651 0.03746144 -0.056983143
000060 ee 14 86 be ab fd ee be 37 62 58 3c 56 48 0d be
       -0.26187843 -0.46677908 0.01320701 -0.13797125
000070 7e dc a7 be 9b db 88 be 8e 88 4e be f5 d6 42 be
       -0.3278541 -0.26730046 -0.20169279 -0.19027312
000080 33 6d b6 bb ff fe 68 be da fe 06 be cb 12 83 bc
       -0.005567217 -0.22753523 -0.13183156 -0.016000172
000090 73 10 93 be c0 9c 52 be 2a ac 0f be 06 1c 5b bc
       -0.28723487 -0.20567608 -0.14030519 -0.0133733805
0000a0 37 b3 83 be ba da 96 be ea 42 31 be 22 c1 16 bd
       -0.25722668 -0.2946375 -0.17310682 -0.03680528
0000b0 1c 8e 93 be 5c 17 9a be ae 56 a5 be a9 c7 ed bd
       -0.28819358 -0.30095947 -0.32292694 -0.11610348
0000c0 4c 13 88 be 19 28 6d be 76 97 4f be cb 7a c8 bd
       -0.26577222 -0.23159827 -0.20272622 -0.09789046
0000d0 b9 c7 1a be ca 6d 10 bd 53 5a f1 bd 8d 16 7f 3c
       -0.1511525 -0.035260953 -0.11784806 0.015569341
0000e0 16 6a c5 bd d3 d0 11 be c6 a2 a1 be fb 09 9a be
       -0.09639375 -0.14239816 -0.315695 -0.3008574
0000f0 34 3f 6a be 9f 21 d0 be c8 c7 6c be fd 62 ac be
       -0.22875673 -0.4065065 -0.23123085 -0.33669272

conv2.weight f4 [32, 64, 5, 5]
000000 78 58 95 bd cc af 33 bd d3 b0 a8 bd 10 72 85 bd
       -0.07292265 -0.043868825 -0.082368515 -0.06515896
000010 9b 78 6c bd 1a db 6a bd 5b c1 8d bd 59 47 86 bd
       -0.057732206 -0.057337858 -0.06921645 -0.06556577
000020 5e 29 78 bd 7f 51 26 bd df e7 72 bd 01 aa 8d bd
       -0.060586326 -0.040605064 -0.05930316 -0.06917191
000030 43 08 8e bd 5c a8 1d bd e3 76 59 bd 6c 27 76 bd
       -0.069351695 -0.038490638 -0.053091895 -0.06009619
000040 e5 dc 75 bd 6c 2d 8f bd f9 eb 9d bd af 22 ae bd
       -0.060025115 -0.069910854 -0.07711024 -0.08502709
000050 86 03 2b bd 19 3c 4f bd 20 ad 90 bd 6e e9 40 bd
       -0.041751407 -0.050594423 -0.07064271 -0.047097616
000060 64 e0 90 bd 0d db 45 bd 37 fe a5 bd 95 9b 40 bd
       -0.07074049 -0.048304606 -0.08105128 -0.047023375
000070 74 11 4a bd bb 43 90 bd 48 55 63 bd 3b 81 1a bd
       -0.04933305 -0.070441686 -0.055501252 -0.0377209
000080 40 df a5 bd 25 4a 7e bd 2b 09 7f bd ea c1 76 bd
       -0.08099222 -0.06208243 -0.062264603 -0.060243525
000090 18 47 a0 bd 90 c8 8d bd e1 c6 ab bd 3e 4e 5d bd
       -0.0782606 -0.0692302 -0.083875425 -0.054029696
0000a0 3a 4b 6d bd 99 47 83 bd 4e 10 7d bd 51 e1 69 bd
       -0.05793307 -0.064101405 -0.061783127 -0.057099644
0000b0 ad 6b ad bd f4 78 3b bd fe 6e 99 bd 47 f9 8f bd
       -0.08467803 -0.045769647 -0.07491873 -0.07029968
0000c0 0d 76 48 bd bc 37 86 bd f0 6a 6c bd 70 82 32 bd
       -0.048940707 -0.06553599 -0.05771917 -0.043581426
0000d0 ca 9d 85 bd dc 39 a4 bd c2 21 9b bd 34 49 92 bd
       -0.065242365 -0.08018848 -0.07574798 -0.07142869
0000e0 6f 3a 81 bd 2c b7 a2 bd bd e3 8f bd 70 27 6a bd
       -0.063099734 -0.079450935 -0.070258595 -0.057166517
0000f0 86 7c a4 bd 7a 11 a3 bd 68 a9 ab bd 73 2c 76 bd
       -0.080315635 -0.07962318 -0.08381921 -0.060100984
000100 05 be 0f bd d7 ea 32 bd a4 fb 9a bd ab 7d a3 bd
       -0.035093326 -0.043680992 -0.07567528 -0.07982954
000110 f3 a1 6b bd 1b 47 73 bd 13 fb 7d bd 1d f1 69 bd
       -0.057527494 -0.059393983 -0.06200702 -0.05711471
000120 e9 63 9c bd a3 d9 70 bd a5 fa 20 bd 06 01 76 bd
       -0.07636244 -0.058801305 -0.039301533 -0.06005957
000130 8e 1b 12 bd 16 b6 93 bd 22 0c 8d bd 6e 44 3e bd
       -0.03567081 -0.072124645 -0.0688708 -0.04645198
000140 d2 e3 70 bd 42 5b 9e bd 8e 3c 11 bd 9b 18 68 bd
       -0.058811016 -0.0773225 -0.03545814 -0.05666409
000150 23 70 81 bd 25 34 2a bd 2a da 6c bd dc 2b 36 bd
       -0.063202165 -0.041553635 -0.057825245 -0.04447542
000160 68 5b 68 bd ca 0a 15 bd 2d 59 60 bd 8a e3 2b bd
       -0.056727797 -0.036387242 -0.054772545 -0.041965045
000170 fd 88 4a bd fc d3 4e bd 93 b4 98 bd 0f 34 82 bd
       -0.04944705 -0.050495133 -0.07456317 -0.06357586
000180 1a 36 a6 bd be 19 3b bd f0 a7 66 bd 20 9e 44 bd
       -0.08115788 -0.045678847 -0.0563125 -0.048002362
000190 52 23 16 bd 8e 94 8d bd 6e d0 9b bd c2 d1 46 bd
       -0.036654778 -0.069131 -0.07608114 -0.048539884
0001a0 ba 69 3f bd 47 6f 9f bd 59 c9 1f bd d4 de 98 bd
       -0.046731688 -0.07784896 -0.03901038 -0.07464376
0001b0 66 81 5b bd 42 dd a3 bd f2 51 51 bd 02 b8 9d bd
       -0.0535902 -0.08001186 -0.05110354 -0.07701112
0001c0 b9 e0 63 bd bf 99 a2 bd 45 17 68 bd 45 42 80 bd
       -0.055634234 -0.07939481 -0.056662817 -0.0626264
0001d0 2d 2d 50 bd 6f 40 82 bd 8c 5c 81 bd fc 12 43 bd
       -0.050824333 -0.06359946 -0.0631648 -0.047625527
0001e0 73 a0 2d bd e6 72 37 bd 5b 97 9a bd d3 51 2d bd
       -0.042389344 -0.04478731 -0.075484 -0.04231436
0001f0 7e 01 a4 bd 7e 47 91 bd d8 46 99 bd 47 77 84 bd
       -0.08008097 -0.07093714 -0.074842155 -0.06468063
000200 b5 a6 88 bd b4 8c 5d bd 7e 2b 9a bd 97 27 73 bd
       -0.06672422 -0.054089263 -0.07527827 -0.059363928
000210 2f 2e 49 bd 6a d1 84 bd f5 d1 74 bd 14 51 72 bd
       -0.04911631 -0.06485255 -0.059770543 -0.059159353
000220 7c 09 31 bd 3b 6d 12 bd a2 4c 9b bd fb e5 6a bd
       -0.043221936 -0.0357487 -0.07582976 -0.057348233
000230 3a b6 60 bd f0 03 3f bd e1 c7 23 bd 80 cd 92 bd
       -0.054861285 -0.046634614 -0.03998554 -0.07168102
000240 d2 22 64 bd 37 56 76 bd af f7 9c bd 45 bd 97 bd
       -0.05569727 -0.060140815 -0.076644294 -0.07409147
000250 95 53 6f bd 7b 32 45 bd 6b ee 35 bd e1 a6 25 bd
       -0.05842932 -0.048143845 -0.044416826 -0.04044235
000260 8b 05 7c bd bf 18 9e bd d7 6c 56 bd 28 33 29 bd
       -0.061528724 -0.07719564 -0.05234989 -0.041308552
000270 87 14 a9 bd 48 51 74 bd 1b d3 7f bd 53 c3 8d bd
       -0.082558684 -0.05964783 -0.062457185 -0.06922021
000280 c6 cc 40 bd 8c f6 a4 bd 68 59 82 bd 11 15 2a bd
       -0.047070287 -0.080548376 -0.06364709 -0.041523997
000290 77 a0 9e bd dc 0f 78 bd 1b e5 3f bd 09 6d 40 bd
       -0.0774545 -0.060562 -0.04684935 -0.046978984
0002a0 fe a8 ac bd fb b5 32 bd 7e 67 27 bd 20 54 a8 bd
       -0.0843067 -0.04363058 -0.040870182 -0.082191706
0002b0 c0 40 2c bd de 86 99 bd e7 e6 30 bd f1 00 63 bd
       -0.042053938 -0.07496427 -0.043188956 -0.05542082
0002c0 90 f6 6f bd d2 23 6c bd 29 6e 92 bd c9 44 12 bd
       -0.05858475 -0.05765135 -0.07149918 -0.03571013
0002d0 00 59 29 bd 91 f3 82 bd 87 d8 2f bd e6 cc 90 bd
       -0.041344643 -0.06394113 -0.042931106 -0.07070331
0002e0 7d d6 98 bd 5d 9b a9 bd 18 e5 68 bd f2 08 8e bd
       -0.074627854 -0.08281586 -0.056859106 -0.069353
0002f0 bd a1 7a bd 6c f3 6c bd e8 0f ab bd 8f f1 70 bd
       -0.061189402 -0.057849333 -0.08352643 -0.05882412
000300 a3 49 96 bd 21 85 70 bd 2d 7b 94 bd e7 8d 50 bd
       -0.07338264 -0.05872071 -0.072500564 -0.05091658
000310 f2 d2 22 bd ee 1a 25 bd bf 39 6c bd 5b a3 7b bd
       -0.039751954 -0.040308885 -0.05767226 -0.061435085
000320 b8 49 70 bd 00 54 78 bd 1f a2 9b bd 7f c8 4e bd
       -0.058664054 -0.060626984 -0.075992815 -0.050484177
000330 43 90 98 bd 7f e9 a7 bd a3 39 56 bd 2b cc 1e bd
       -0.07449391 -0.08198833 -0.05230106 -0.03876893
000340 17 35 84 bd 3c 2d 25 bd 4a 4e 4f bd 64 e6 95 bd
       -0.064554386 -0.040326342 -0.05061177 -0.07319334
000350 ab 5c 2c bd 75 0e 7a bd a5 b9 48 bd 7f fb 9b bd
       -0.042080563 -0.061048944 -0.04900517 -0.076163284
000360 3a 96 3c bd 53 2f 2b bd 72 81 65 bd af e7 5a bd
       -0.046041705 -0.04179318 -0.05603165 -0.053443607
000370 c9 64 27 bd 35 04 44 bd 0c 4c 98 bd 01 91 8d bd
       -0.0408676 -0.047855575 -0.0743638 -0.06912423
000380 f1 0f 32 bd d8 88 97 bd 93 9c 3f bd 1a 8d a4 bd
       -0.043472234 -0.07399148 -0.04678018 -0.080347255
000390 20 c6 72 bd b5 cd 2e bd c5 f6 18 bd 92 34 6f bd
       -0.059270978 -0.042676646 -0.037344713 -0.058399744
0003a0 e5 65 9d bd 1e ff 36 bd 61 b1 2a bd f6 dc 10 bd
       -0.076854505 -0.044676892 -0.041673068 -0.035366975
0003b0 0c c1 81 bd ff e5 1d bd 33 38 82 bd e8 ad 96 bd
       -0.06335649 -0.03854942 -0.063583754 -0.07357389
0003c0 fe a7 93 bd ff ad 34 bd 93 75 94 bd a1 40 a7 bd
       -0.07209776 -0.044111248 -0.07248988 -0.08166624
0003d0 04 15 86 bd 25 6c 4f bd e2 db 60 bd 4b 11 20 bd
       -0.06546977 -0.050640244 -0.054897197 -0.03907899
0003e0 5b f0 99 bd 9d 8d 5a bd b8 df a0 bd 4b 27 7b bd
       -0.07516547 -0.05335771 -0.07855171 -0.06131677
0003f0 e2 3a 84 bd ca e2 96 bd 6d 25 79 bd 33 f7 1f bd
       -0.064565435 -0.07367475 -0.060826708 -0.039054107

conv2.bias f4 [32]
000000 4a 36 3e bd 82 d3 6f bd 0c 32 1d bd 63 bc 5a bd
       -0.046438493 -0.05855132 -0.038377807 -0.053402316
000010 99 9f 79 bd 26 ad 87 bd e1 5d 9c bd 11 fa c2 3c
       -0.06094322 -0.06624822 -0.076350935 0.023800882
000020 44 86 8e bd 8a a9 e9 bd 70 5f 8d bd 01 a8 6a bd
       -0.06959203 -0.1140929 -0.06902969 -0.057289127
000030 fe 47 1b bd f6 11 21 bd 4e 6e 70 bd d6 28 6d be
       -0.037910454 -0.03932377 -0.058698945 -0.23160109
000040 8a 7e ae bd fb 8c 55 bd 5f 8f 12 be 43 33 51 bd
       -0.08520229 -0.052136403 -0.14312504 -0.051074278
000050 03 77 83 bd cc 28 d7 bb cd ab 8a bd f9 c6 81 bc
       -0.06419184 -0.0065661427 -0.0677105 -0.015841948
000060 f7 6c 8d bc a2 2e 03 bd 20 e8 18 bc 3d 63 13 bd
       -0.017263873 -0.032026894 -0.009332687 -0.035983313
000070 5a 58 e0 bc d5 a6 cf bc 4f 9c 1f bd b3 b5 a2 bc
       -0.02738588 -0.025348106 -0.038967427 -0.019862032

fc1.weight f4 [256, 32]
000000 1a 15 a4 3d 09 64 23 be 2f 52 49 3c ba 55 23 be
       0.08011837 -0.15956129 0.0122876605 -0.15950671
000010 54 97 7f 3d 55 d7 bc bd be 52 f2 bd ff f6 4d 3c
       0.062400177 -0.09220759 -0.11832188 0.0125710955
000020 ef 0a c9 3d 97 99 64 be db 3c 24 3e a4 7e 52 bd
       0.098165385 -0.22324215 0.1603884 -0.051390305
000030 4b 47 12 3d 0f 10 b2 3d 7e 6a f1 3d 37 dc 3f bc
       0.03571252 0.08694469 0.1178789 -0.011710218
000040 a1 6d 07 3e 29 d2 52 be 52 2f 41 be ff 0c 0a 3d
       0.13225414 -0.20587982 -0.18865708 0.0337038
000050 64 d3 83 bd cd 5c 63 be 33 7e 8a bd 9e 2f 02 3d
       -0.06436804 -0.2220337 -0.06762352 0.031783693
000060 88 9b ff 3d f4 eb 21 be 2f aa 4d bd 74 8b c4 3d
       0.12480837 -0.15812665 -0.050211128 0.09596911
000070 07 8b 1a 3e 3b fa c5 bd 07 08 1f bc 43 46 fc 3d
       0.15092097 -0.09666868 -0.009706504 0.12318089
000080 a0 55 3a 3c e0 f0 67 be 8b de 5a 3c 7e 30 16 3d
       0.011372954 -0.2265048 0.013358722 0.03666734
000090 1c 46 68 bc 55 09 80 3d a2 62 55 be df 39 5e 3d
       -0.014176872 0.0625178 -0.20838407 0.05425441
0000a0 85 c7 ff bd cf 6f f9 bd 99 fa 9b bc 88 c8 db bd
       -0.12489227 -0.12179529 -0.019040393 -0.10731608
0000b0 cb d5 9c 3d 66 36 a1 bd d0 16 e8 bd 8f 92 74 bd
       0.07657965 -0.07871704 -0.11332476 -0.05971008
0000c0 a5 e5 f2 3c dc 9f a3 3d ce 2e e7 bd f3 cc c2 bd
       0.029650519 0.07989475 -0.11288224 -0.09511747
0000d0 a2 27 9e 3d 79 38 70 bc 00 6f e5 3d cc 74 04 3d
       0.07722403 -0.014661902 0.11202812 0.03233795
0000e0 e7 8f fe 3c 1e b8 03 be fb 86 b6 bd f1 e9 25 be
       0.031074477 -0.12863204 -0.08912464 -0.16202523
0000f0 c7 94 bf 3d 0c 8c ed 3d 30 f5 fe bc 43 82 94 bd
       0.09354549 0.115989774 -0.031122774 -0.07251408
000100 f0 3b 91 3c 23 c8 d8 bd be b2 9a bd 85 75 1b 3e
       0.017728776 -0.10585048 -0.075536236 0.15181549
000110 8f 74 cf 3d c9 e7 85 bd de 2d d3 bc 5d e0 8e 3a
       0.10129654 -0.0653835 -0.025778707 0.0010900606
000120 a0 7c 12 3e a5 eb e7 3d 38 0b df bc 36 50 0e be
       0.14305353 0.113242425 -0.02722703 -0.13897786
000130 94 4e 4a bd 3d 2d 81 bd b2 ca 0b be ac 0f 2e bd
       -0.049391344 -0.06307457 -0.13651541 -0.042495415
000140 15 cc 68 be 08 b7 2c be 74 32 99 3c 14 a8 27 3d
       -0.22734101 -0.16866696 0.018700816 0.040931776
000150 80 40 9f bd 1c 9c 9d 38 f7 f5 45 bd c3 25 3f be
       -0.07775974 7.515421e-05 -0.048330273 -0.18666749
000160 2f 4f f7 bd ec 65 3b 3d 2d 1d 16 be 28 06 26 3c
       -0.1207565 0.045751497 -0.14659567 0.010133304
000170 32 c7 07 3c fd 0d 2e 3d 44 1c 41 bd 7e 97 f9 bc
       0.008287238 0.04249381 -0.047146097 -0.030467745
000180 17 99 4b be 8f c2 51 3d a1 38 5b be 28 76 a5 3c
       -0.19882618 0.051210936 -0.21408321 0.020197943
000190 b3 f7 e4 3c 81 94 a7 3d 65 ae 1b be 3b 51 ff 3c
       0.027950143 0.08182622 -0.15203245 0.031166663
0001a0 c2 f9 b1 3d 23 89 34 3d dd 43 57 bd ac e1 3f be
       0.08690216 0.044076096 -0.052554954 -0.1873843
0001b0 93 ab 17 be 09 66 2f be 36 1e 02 be 1e a9 97 3e
       -0.14811544 -0.17128767 -0.12706837 0.29621214
0001c0 86 01 22 3c ce 2d a4 bd 4b 7f 77 bd c7 06 fa 3c
       0.0098880585 -0.08016549 -0.06042413 0.03052081
0001d0 cc 06 f5 3d ef 34 8e 3d bb e3 37 be 7c af 1d 3e
       0.11964187 0.0694369 -0.17957966 0.15398973
0001e0 ad 5e e1 3b 9d 81 84 bc 7f 7b 61 3e a6 7d 6b be
       0.0068777413 -0.016175086 0.22019766 -0.2299715
0001f0 e1 2f f0 bd 4c 8a 61 bd 48 d6 a7 3c 83 a1 dd bc
       -0.11727882 -0.05506353 0.02048792 -0.027054554
000200 b0 0e 88 bd 4b 87 99 bc 10 09 06 3d 20 ee 8e bd
       -0.066434264 -0.01874127 0.032723486 -0.069790125
000210 a5 64 e5 3c 90 f6 c9 3d 64 71 1e be 09 33 fe bd
       0.028002093 0.09861481 -0.15472943 -0.12412078
000220 62 12 5b 3d 5e 33 8e bd 4f d0 df 3c 6d a7 4b 3d
       0.053484328 -0.06943391 0.027321009 0.049720217
000230 e9 c8 1a 3e 1d a5 1b be 57 65 d4 3d 54 4a 89 3d
       0.15115704 -0.15199704 0.103708915 0.0670363
000240 3d ae 1c 3e c7 73 07 bc 5e 89 cc bd d0 e3 2b 3e
       0.15300842 -0.00826735 -0.09987138 0.16786122
000250 fb cb ab bc b1 59 e5 bd c0 6c 20 3e 97 b6 40 3d
       -0.020971289 -0.11198748 0.15666485 0.04704913
000260 06 41 43 be c0 3f eb 3d c5 a8 b1 3d 51 6b 65 bc
       -0.19067773 0.11486769 0.08674768 -0.014002637
000270 06 3a 35 3d 8f 77 37 3d bf 0c 07 3d 67 45 8b 3d
       0.04424479 0.044791754 0.03297114 0.06800347
000280 21 41 fd 3d 97 ad 9f 3d dd 95 74 3c 7f e1 0e be
       0.12365938 0.077967815 0.014928308 -0.13953207
000290 78 13 dd 3d 9a e2 25 bd 00 94 f0 3d 8f 4b c9 bd
       0.10794729 -0.040499307 0.11746979 -0.09828865
0002a0 47 ab 93 3d c2 98 a4 bd 2e 38 5a 3e d2 82 6f bc
       0.07210403 -0.08036949 0.21310493 -0.014618592
0002b0 5c f1 19 bc 43 41 6e bc b7 49 18 be d3 fb 39 3d
       -0.009395923 -0.014541927 -0.1487187 0.045406174
0002c0 e9 59 16 bd 32 fd 89 3d 4c 6c 09 bc e4 8b e2 3d
       -0.03670684 0.06737746 -0.008387636 0.11061838
0002d0 0f 51 96 bc e5 50 34 3d d2 41 da bd 83 90 ed 3b
       -0.018349199 0.04402246 -0.106570855 0.007249893
0002e0 30 eb 05 3e 39 20 5c 3e 63 57 bb bd ab bd 59 3d
       0.13077998 0.21496667 -0.09147527 0.053159397
0002f0 96 42 a9 bd c6 a3 1c bd 88 10 a8 bd 4f bf ab 3d
       -0.082646534 -0.038242124 -0.08206278 0.083860986
000300 2f c1 f8 3d 60 b7 c3 bc ff 6c 2e 3e 72 3a c6 3c
       0.12146222 -0.023891151 0.17033766 0.02419779
000310 1f 76 80 39 f8 f8 02 3d 35 30 07 3e 93 31 63 be
       0.0002450207 0.031975716 0.13201983 -0.2218688
000320 3c 27 e5 3d f5 02 30 be ab 40 5d bb 7c c9 41 3d
       0.11189124 -0.17188628 -0.003376047 0.04731129
000330 35 96 12 3e 67 15 72 3c e3 09 ec bd 1e 4e 07 3d
       0.14315112 0.0147756105 -0.11525323 0.033033483
000340 90 df 3c bd 44 bf 3d 3d 20 3f 2a 3d da a7 05 3e
       -0.046111643 0.046324983 0.041564107 0.13052312
000350 49 7a 22 be a8 e6 80 be 63 9c 3c bd f4 81 73 be
       -0.1586696 -0.25175977 -0.04604758 -0.23780042
000360 fb a4 83 be a6 4e b0 bd 5f 75 74 be f4 22 f1 3d
       -0.25711808 -0.08608751 -0.23872899 0.11774245
000370 20 ba 67 3d 9a 2e 2e be 91 45 23 3d 92 a5 57 3d
       0.056573987 -0.17009965 0.039861266 0.052648135
000380 78 5e 06 3e 67 2a d9 3d 9f 17 c4 3d 72 ac 20 be
       0.13121974 0.10603791 0.09574818 -0.15690783
000390 16 d0 b5 bd a6 a9 ee 3c 4f e4 29 be 8a 09 95 be
       -0.0887758 0.029133629 -0.16590999 -0.2910884
0003a0 a2 63 03 3d 9c e9 83 bd b3 6e d6 3d 47 95 d2 3d
       0.03207744 -0.06441042 0.10470333 0.10282379
0003b0 63 7c 93 3d 85 f9 6c 3c c9 43 08 3c da d5 14 bf
       0.07201459 0.014463787 0.0083169425 -0.5813881
0003c0 4e 89 a5 3d 13 1a 65 3d 7b 89 3f 3e a7 21 ff 3d
       0.080828294 0.05593307 0.18704788 0.124575906
0003d0 f1 36 83 bd 1b a8 b7 be d7 84 95 bc 57 a7 d3 be
       -0.064069636 -0.35870442 -0.01825182 -0.41338608
0003e0 0d a0 a4 be 7f 9a 62 be 8e 3c d0 be 42 2e 1e bd
       -0.3215336 -0.22129248 -0.406712 -0.038618334
0003f0 4d 12 9d 3d b1 04 d4 bb db 0f 80 3d 36 46 00 be
       0.07669506 -0.006470286 0.06253024 -0.12526783

fc1.bias f4 [256]
000000 f7 f5 2c be 40 c9 a7 3d b0 d8 2a be 31 97 9a 3d
       -0.16890703 0.08192682 -0.16684222 0.07548369
000010 6b d2 ca bd 2a ed 09 be 4e 5e 49 be b4 b5 2c 3e
       -0.09903415 -0.13469377 -0.1966488 0.16866189
000020 51 d7 71 3c b3 b1 51 3b 19 62 bf bd 3a eb d4 3d
       0.014760808 0.0031996786 -0.093448825 0.103964284
000030 6a db 5c be dc f2 2a 3e 99 6a 6b be 89 88 b9 3e
       -0.21568075 0.16694206 -0.22989883 0.3623698
000040 d9 32 1e be a9 ac 44 be 91 7c 33 be 80 67 c9 bd
       -0.15449084 -0.1920649 -0.17527987 -0.09834194
000050 1b 71 83 be 86 3a d4 bd 13 be 34 be 59 b7 65 be
       -0.2567223 -0.10362725 -0.17650633 -0.22433223
000060 3e f1 64 be ee df fd 3d d2 03 10 bc 9b 83 03 3e
       -0.22357652 0.12396227 -0.008789973 0.12843172
000070 34 45 d5 bd 26 1c 23 be 37 30 06 be a5 ed 58 bd
       -0.1041359 -0.15928707 -0.1310433 -0.05296101
000080 2e 7b 1c 3d 1b 6e 63 be ad 12 82 be fd 99 02 3e
       0.03820341 -0.2220997 -0.25404873 0.12754054
000090 fe e9 1d be 5d dd 32 3e f9 48 45 3d 56 7c 53 be
       -0.15421292 0.17467256 0.048165295 -0.20652899
0000a0 16 f2 51 bd 34 c1 4b be ef a8 9f bd 9f 55 0e be
       -0.05125626 -0.1989792 -0.077958934 -0.1389985
0000b0 59 75 69 bc 76 d9 3d be ac c7 d5 bd c9 79 90 bd
       -0.014249169 -0.18539986 -0.10438475 -0.07054479
0000c0 ee 70 95 3c 40 c3 d3 3d 65 03 fc 3d 06 53 26 be
       0.018242326 0.10339975 0.12305335 -0.16242608
0000d0 45 a5 31 bc f7 38 8b 3e 1a ff 0b bc f4 20 54 3e
       -0.010842626 0.27191898 -0.008544708 0.20715696
0000e0 eb 9d 41 3e ba 2f 2e be c2 7a 06 3e ba 17 5c 3e
       0.18907897 -0.17010394 0.13132766 0.21493426
0000f0 9b 4f 89 3e a6 d2 05 3e 4c 6b 48 bd 2d bf 62 be
       0.26818547 0.13068637 -0.04893045 -0.2214324
000100 9f b1 03 be 91 dc 3e be 89 fb 55 3e 43 28 50 be
       -0.12860726 -0.18638827 0.20896734 -0.20327859
000110 5c 46 03 be 4b 38 08 be 8c 60 93 bd c9 1b 42 be
       -0.12819809 -0.13302724 -0.07196149 -0.18955912
000120 57 c2 f9 bd 3b ce eb bd 13 f8 65 3e c9 5f 1c 3e
       -0.121952705 -0.11513945 0.22457914 0.15270914
000130 ff b3 92 bd fc d0 81 3e 62 2f 80 3e 90 94 0d be
       -0.07163238 0.25354755 0.2503615 -0.13826203
000140 c5 55 24 be 9e 4d a9 3e 90 d2 cd bb 32 30 18 3e
       -0.16048343 0.3306703 -0.0062812045 0.14862135
000150 e4 e6 c2 3c 1a 0a 0a 3e 06 d5 7a 3e e1 93 b3 bd
       0.023791738 0.13480416 0.24495324 -0.0876844
000160 3d f4 3a be 56 9f 7d 3e 2d f0 29 be e0 d6 2c bc
       -0.18257232 0.24767813 -0.16595526 -0.010549277
000170 2b c7 d2 bc 2a 53 82 3d 1e d4 12 be d0 63 8e be
       -0.025729736 0.063635185 -0.14338729 -0.27810526
000180 90 4f 7a 3d e1 4f 22 3e 55 33 27 be d7 84 01 3e
       0.061111033 0.15850784 -0.16328175 0.1264833
000190 ed de 90 3e 55 ca bd bd 0b 0a 47 3c d5 f8 da 3e
       0.2829508 -0.092671074 0.0121483905 0.4276797
0001a0 fb 66 65 bc 55 f1 92 3e c6 97 a8 bd d6 79 f7 3c
       -0.014001603 0.28699747 -0.082320735 0.030209463
0001b0 32 db 11 bd 75 29 06 3e c8 71 6b bd 7f 31 6e 3e
       -0.03560943 0.13101752 -0.057481557 0.23261069
0001c0 ae ce 95 be 8f f8 51 3d 01 82 37 3d e2 23 24 be
       -0.29259247 0.051262435 0.044801716 -0.16029313
0001d0 71 85 10 3e 6c d6 81 3e 68 c2 fb bd 8b 39 4d be
       0.14113404 0.25358903 -0.122929394 -0.20041482
0001e0 f7 22 77 3c ef ad 17 3e d0 41 fa bd 49 38 22 3e
       0.01508402 0.14812444 -0.12219584 0.15841784
0001f0 97 a8 e8 3d 2e 89 b5 bd c5 ba 1d 3d 56 f0 af be
       0.11360281 -0.088640556 0.038508195 -0.3436305
000200 e2 59 39 be c8 cd 6a 3d b6 56 77 be ed 1a cd 3e
       -0.18100694 0.057325155 -0.24154171 0.40059605
000210 ad 9f 64 be a2 7e 5a 3e a4 f5 2c be dd ca e9 3d
       -0.22326536 0.21337369 -0.1689058 0.11415646
000220 64 97 70 be 8e 33 17 be ba 48 69 bd 48 9f 52 bb
       -0.23495251 -0.1476576 -0.056954123 -0.0032138396
000230 7f 3e 80 bc de 24 4f bd fa 01 46 3e 94 7a 39 3e
       -0.0156548 -0.05057227 0.19336691 0.18113166
000240 48 07 0d 3e 5b 73 ce bd 8d 9f 4a be d0 90 6e 3a
       0.13772309 -0.10080596 -0.19787426 0.0009100558
000250 bb 64 a4 3e e5 13 f5 bd 2f 45 95 3d 11 16 a7 3d
       0.321081 -0.11966685 0.07288586 0.08158506
000260 b2 6d 4f bd 99 5d 31 be a4 4d 98 bd 5a 75 d7 bd
       -0.050641723 -0.17320861 -0.07436684 -0.1052043
000270 d1 cc d9 3e 2a 56 68 3e de 36 10 be a8 80 88 3a
       0.42539075 0.22689119 -0.1408343 0.0010414319
000280 13 1c da bd d1 cf 9e 3e 20 d6 91 bd 55 f0 36 3d
       -0.10649886 0.31017926 -0.07120919 0.044662792
000290 99 71 e7 3e 13 20 f3 bd 06 5b 25 be e3 49 0a 3e
       0.45203856 -0.11871352 -0.16148004 0.13504748
0002a0 ba 84 16 3e f4 c1 01 3e 1b d5 70 3e 8d 79 fc 3d
       0.14699069 0.12671643 0.23518793 0.123278715
0002b0 9f 17 00 3e b0 f6 8e bd d5 7a 39 be 71 ba 8f bd
       0.1250901 -0.06980646 -0.18113263 -0.07017983
0002c0 77 20 15 3e e3 a9 e8 bd 49 ea 76 be aa a8 5d be
       0.14563166 -0.11360528 -0.2411281 -0.21646371
0002d0 80 b7 27 bd 7f 42 83 bd c5 3d 89 be 0f 6c 65 be
       -0.040946484 -0.064091675 -0.2680494 -0.22404502
0002e0 10 02 8c 3d 77 be 08 3e 95 fc fa bd 10 f5 95 3c
       0.06836331 0.13353907 -0.122552074 0.018305331
0002f0 7c bf 2c be a2 e7 1c be a3 a6 b0 bd 98 13 c6 3d
       -0.1686992 -0.15322736 -0.086255334 0.09671706
000300 69 6e 06 be 1a 75 bd bc 83 67 8f bd 63 81 fb bd
       -0.13128056 -0.023127127 -0.07002165 -0.12280538
000310 40 1a 8a be f2 4e 83 3e d8 75 88 bd eb 09 47 3d
       -0.26973152 0.25646168 -0.06663102 0.048593443
000320 63 eb 17 be e6 c0 ae bd e8 8d 21 be 6d 4c 3b 3e
       -0.14835887 -0.08532886 -0.15776789 0.18290873
000330 4c a9 64 be d3 4c a9 bc 6a f9 ce 3d dc 5c b1 bc
       -0.22330207 -0.020666515 0.10106166 -0.021650724
000340 b0 a5 2a be d9 14 2c be 93 49 9a 3e 6a 51 c3 bc
       -0.16664767 -0.16804828 0.30134258 -0.023842532
000350 53 a2 ca 3c 89 60 8a 3e 49 0e 87 3d c1 a6 4a be
       0.024735605 0.27026775 0.065945216 -0.19790174
000360 7b d2 6a be 3b 26 91 bd 2f de 9a bc 46 5c 34 be
       -0.22931854 -0.0708737 -0.018904774 -0.17613325
000370 0e 83 6d 3d 98 35 9b 3c cf f2 f9 bd e8 3f ba bd
       0.05798631 0.018946454 -0.12204515 -0.090942204
000380 69 d9 c3 3c a0 1b 3c be 76 5e d7 3b a2 9a b1 3d
       0.02390738 -0.18369913 0.00657254 0.08672072
000390 00 19 34 3e 6b 0e 91 3e 97 70 21 be 02 08 82 be
       0.17587662 0.28331313 -0.15765606 -0.25396734
0003a0 eb 1e 19 be 39 1d 33 be ef 33 0f 3c ee 47 39 be
       -0.149532 -0.17491616 0.008740409 -0.18093845
0003b0 42 cb 72 be dd 40 ff b8 e2 1a 4f 3d 11 38 62 bd
       -0.23710349 -0.00012171429 0.050562747 -0.05522925
0003c0 97 e6 00 3e 54 90 84 be 75 db 4c 3e a0 9d 3e be
       0.12587963 -0.25891364 0.20005591 -0.18614817
0003d0 e9 b8 a0 3d ef 98 c6 3c 5d 78 79 3e 41 e3 24 3e
       0.07847769 0.024242846 0.24362321 0.16102315
0003e0 3b ca cb 3c 46 fe 4c be 3f e3 e6 bd bc 4c 3d 3e
       0.024876704 -0.20018873 -0.112738125 0.18486303
0003f0 9a 7a 52 3e 4f b4 ed bd a1 63 e3 3d f0 f2 8a bd
       0.20554581 -0.11606657 0.11102987 -0.06784618

fc2.weight f4 [128, 256]
000000 bc b0 4a bd fe 94 fe bc 18 b1 2f 3d bb 68 6b bd
       -0.049484953 -0.031076904 0.0428935 -0.057472926
000010 8c 6a d1 3c e8 37 03 3c 80 0c a5 3c d8 fe 70 bd
       0.0255635 0.008008935 0.020147562 -0.058836788
000020 3e 96 39 3d 4d 8e e2 bd 12 56 24 bd b9 83 5e bd
       0.045309298 -0.11062298 -0.040121146 -0.05432484
000030 be 29 7b 3d d9 c4 5c bd ea 50 2f 3d 4e 50 a8 bd
       0.061319105 -0.053898666 0.042801775 -0.08218442
000040 81 d2 f2 bd 00 49 1b 3b 62 90 2d bd 34 1b af bc
       -0.11856557 0.0023694634 -0.042374022 -0.021375276
000050 58 2f fd bc 9a cc 00 3d 50 b5 6d 3d 82 b5 01 bd
       -0.030906364 0.031445123 0.05803424 -0.03166724
000060 84 40 39 bd 3e c6 f0 bd 00 79 8a bd 00 bb 4f ba
       -0.045227543 -0.11756562 -0.0676136 -0.00079242885
000070 67 85 aa bb 6d ce 81 bd a6 16 30 3d 76 36 51 bd
       -0.005203891 -0.06338201 0.04299035 -0.05107733
000080 57 d9 c3 bd 6a 4c 16 3d a0 45 60 3c 7e 46 ee bd
       -0.09562939 0.036693968 0.013688475 -0.11634539
000090 4b 0e 57 bd 5e ee aa bc a3 8d a0 bd 30 13 0e bd
       -0.052503865 -0.020865615 -0.07839515 -0.034686267
0000a0 bd 2b 18 bd 84 5c e9 bc 38 4e 1d bc e0 ce be 3b
       -0.037151087 -0.028486498 -0.009601168 0.0058230013
0000b0 c7 43 ed bc a4 0d 5a 3d ca 4c 32 bd bb ad 86 bd
       -0.028962983 0.053235665 -0.043530263 -0.06576105
0000c0 c0 a5 2c bd 66 11 14 bd 26 e8 ee bd 1c 16 11 3d
       -0.04215026 -0.036149405 -0.116653726 0.035421476
0000d0 72 dc 63 bc bc c0 f2 3c 0e a4 a5 bc c8 1c a3 3c
       -0.013907539 0.029632919 -0.020219829 0.019911185
0000e0 ae 99 ea bd 24 ce f9 3c ac e0 e3 bc d4 fb 9d bd
       -0.11455093 0.030493803 -0.027817093 -0.07714048
0000f0 2c 2a 1e bd 48 c1 2e bd e0 99 5e bb 40 27 8e bc
       -0.038614437 -0.042664796 -0.0033966228 -0.0173527
000100 34 36 d4 bc 22 45 5c 3d da a9 5a bd b4 01 76 3d
       -0.025904752 0.053776868 -0.05338464 0.060060218
000110 57 42 b4 bd d6 b9 2d bd cc e0 de bc de c1 31 bd
       -0.08801716 -0.042413555 -0.0272068 -0.043397777
000120 8f 1b d0 bc 08 20 5c bd 82 68 89 bd a5 af d8 bd
       -0.025403766 -0.053741485 -0.067093864 -0.105803765
000130 7c 2a d4 bd 3d 08 57 bd 99 16 b0 bd f8 aa 40 bd
       -0.10359666 -0.05249809 -0.0859806 -0.04703805
000140 80 e0 cd bd 95 b9 86 bc 6b 8e cd 3a fc 95 17 bd
       -0.100525856 -0.016445914 0.0015682703 -0.03700827
000150 75 01 9c bc 82 ba a4 bb 74 ab c3 bd 29 f0 88 bc
       -0.019043664 -0.0050271163 -0.095541865 -0.01671608
000160 80 86 e5 3b 57 da 7e bd 98 2e 71 bc 80 ad b0 3b
       0.007004559 -0.062219944 -0.0147205815 0.0053917766
000170 ff ae 9d bd 03 9c 7c bd a8 f8 6e 3d 98 a8 8d 3c
       -0.076993935 -0.061672222 0.058342606 0.017292306
000180 b8 83 50 3c 98 46 e2 bd c0 d5 e3 3a 3f e7 37 bd
       0.012726717 -0.11048621 0.0017382428 -0.044898268
000190 e7 0e 4a bc 29 1b bf bd 68 27 eb bc 19 1d ba bc
       -0.012332655 -0.09331352 -0.028705314 -0.022718953
0001a0 18 4a a3 bc 0b b0 22 bd e8 91 5f bc 7c 95 e1 bc
       -0.019932792 -0.03971867 -0.013645627 -0.0275371
0001b0 bf 5a 8a bd 3a ee 87 bd 2e 62 44 bd d1 1f df bd
       -0.0675559 -0.06637235 -0.047945194 -0.108947404
0001c0 8c 9b 99 bc 3a 1d 2b bd a8 b7 cc bd 4c f4 81 3c
       -0.018750928 -0.04177592 -0.09995967 0.01586356
0001d0 cf 26 ae bc 47 6b f1 bd 8a 97 18 bd c8 cc 33 3c
       -0.02125874 -0.1178804 -0.037253894 0.010974117
0001e0 d3 6e 25 bd 33 1d c1 bd 4c 26 68 3d ad ed de 3a
       -0.040388893 -0.094293974 0.056677148 0.0017008089
0001f0 0c 2f e4 bd fb 60 5b bd 9c 4a 22 bd b0 c0 6c 3c
       -0.11141786 -0.053559285 -0.039621934 0.014450237
000200 90 05 60 3d 03 90 89 bb 60 c7 d6 3c 06 35 f1 bd
       0.054692805 -0.0041980757 0.026218116 -0.117776915
000210 00 a1 f9 bc a8 4b 40 bc 74 0c c3 bc 00 71 27 3c
       -0.030472279 -0.011736788 -0.023809649 0.010219812
000220 96 41 52 3d 78 f5 52 3c b3 2d 47 bc ec 00 8d bd
       0.05133208 0.012875907 -0.012156892 -0.068849415
000230 80 93 4c ba 23 5f a8 bd 46 28 3c bd de fa 8a bd
       -0.00078039616 -0.08221271 -0.045936845 -0.0678613
000240 cc 63 12 bc a8 e0 b5 ba 36 9b 79 bd 34 c7 22 3d
       -0.008934926 -0.0013876157 -0.060939036 0.039740756
000250 a3 a6 97 bd 6c d9 12 3d 45 ad ed bd 2c f8 4f bd
       -0.0740483 0.03585188 -0.11605314 -0.050773785
000260 a0 53 2d bd 0a 8f 05 bd 2c 0b 44 3d 0d 92 2a bd
       -0.04231608 -0.032607116 0.047862217 -0.04164319
000270 2b 7c 93 bd e9 7d 5f bd 38 a5 56 bd d4 48 2f 3d
       -0.072014175 -0.054563437 -0.05240366 0.042794064
000280 ec e5 13 bd f4 53 f4 bc f8 dd 33 bc 48 e8 ca bd
       -0.036107942 -0.029825188 -0.010978214 -0.099075854
000290 dc 37 3c bd d6 3e 0f bd 82 78 56 3d a3 53 45 bd
       -0.04595171 -0.034972034 0.05236102 -0.048175465
0002a0 c6 74 87 bc df fb a5 bd d5 1c 5f bd 83 f8 a1 bd
       -0.016535174 -0.08104681 -0.054470856 -0.07908728
0002b0 e8 4c 3a 3d 50 5e 45 3c 12 cd 0f bd 70 42 f3 bc
       0.0454835 0.012046412 -0.03510768 -0.029694766
0002c0 00 c8 23 bc 49 b1 83 bc c0 6a e6 bd c0 73 6f bc
       -0.009996414 -0.016075747 -0.1125083 -0.014614999
0002d0 0f 0e c8 bd 80 66 11 bc 8c af f3 3c e0 44 2f 3c
       -0.097683065 -0.008874536 0.029746793 0.010697573
0002e0 95 ed cc bd 43 0c ab bc 66 11 6e 3d ed 9d db bb
       -0.10006253 -0.02087987 0.05812206 -0.006702176
0002f0 48 96 76 3d 7c e2 10 3d 28 c7 3b bc 29 d1 62 bd
       0.060201913 0.035372242 -0.011461057 -0.055375252
000300 e8 d9 77 3d 9e e4 a4 bd 02 5c 1a bd ac e8 aa bc
       0.060510546 -0.08051418 -0.0376854 -0.0208629
000310 58 66 51 3d 03 fb e1 bc db 7b 85 bd 1a b2 ff bc
       0.051122993 -0.027585512 -0.06517764 -0.031212855
000320 9a 1c 6c bd 00 b6 e8 bb 9c 32 8d bc a0 bf ef bd
       -0.057644464 -0.007101774 -0.017236046 -0.117064714
000330 14 f7 d3 3c 38 d9 b3 bd a0 8f 2d bb ee 29 95 bd
       0.025874652 -0.087816656 -0.0026483312 -0.07283388
000340 28 79 7d bc 50 79 4a 3c ed f6 55 bd 29 a5 8b bd
       -0.01547078 0.012358025 -0.05223744 -0.06818611
000350 6d 4d 90 bd 6a 58 aa bd b1 76 8c bc e4 30 f4 bc
       -0.07046018 -0.08317645 -0.01714644 -0.02980847
000360 2a ec 5d 3d c8 12 00 bc 80 23 4b bb a0 82 46 bd
       0.0541803 -0.007816978 -0.0030996501 -0.048464417
000370 b7 4f d4 bd e3 f9 b3 b8 30 64 11 bc 38 e8 c1 bd
       -0.10366767 -8.58193e-05 -0.008873984 -0.0946812
000380 ed 8b 9f bd f2 42 70 bd 7d e7 53 bd 0a ad 38 bd
       -0.077903606 -0.058657594 -0.051734436 -0.045086898
000390 13 e4 c8 bd 53 6e 11 bd f2 b1 96 bd 90 6e a7 bb
       -0.09809127 -0.035505604 -0.07358159 -0.0051096156
0003a0 30 e9 a1 bb 2c 21 74 3d 63 36 b9 bd b4 ae 16 3d
       -0.004941128 0.059601948 -0.090435766 0.036787704
0003b0 24 56 7a 3d d0 8b 35 bd f8 71 13 bc f4 f6 e5 bc
       0.061117306 -0.04432279 -0.00899934 -0.028071858
0003c0 82 c1 8d ba c0 a2 bb bc f6 e9 d1 bd 2a 33 2e bd
       -0.0010815116 -0.022904754 -0.10249703 -0.042529263
0003d0 a6 91 b6 bd 00 1e 45 b9 9f ad de bc 9b 13 b5 bc
       -0.08914499 -0.0001879856 -0.027182398 -0.022104075
0003e0 6d 39 36 bd 9e d8 2b 3d 3a 8e 2f bd c0 5d 19 bd
       -0.04448836 0.04195463 -0.042860247 -0.037442923
0003f0 35 75 be 3a eb 68 88 bd 11 2d fa bd 94 1b ae 3c
       0.001453078 -0.066606365 -0.12215627 0.021253385

fc2.bias f4 [128]
000000 11 71 04 bd 8e 79 b9 bd 84 8e 6b bd 9b d0 9d 3d
       -0.03233439 -0.09056388 -0.05750896 0.07705804
000010 2a 5a bd 3e 62 04 e0 bd 99 17 00 bd 5a 72 35 bd
       0.36982852 -0.10938336 -0.031272504 -0.044298507
000020 58 87 7d bc b1 15 e1 bd c2 07 55 3d d8 dd e5 bc
       -0.015474163 -0.109904654 0.05200935 -0.028059885
000030 f7 34 c2 3d 3f 0f 21 bb 0a 5b fc bc 98 62 67 bc
       0.094827585 -0.0024575738 -0.03080513 -0.014122628
000040 03 f2 05 3e d6 b7 9d bd 60 4c 0d bc 6b 01 95 3d
       0.13080601 -0.077010795 -0.008624166 0.07275661
000050 ef 31 4c bd 94 68 a9 bd 9a e1 48 be 6c f5 9e bd
       -0.049852308 -0.082719 -0.1961731 -0.07761654
000060 a0 24 8b bd 8e b0 a4 bd 50 b6 0c 3e 39 ae ab bd
       -0.06794095 -0.08041488 0.13741422 -0.0838284
000070 f0 68 e2 bc e0 24 45 bc c3 bf a2 bd ba 55 c7 bd
       -0.027637929 -0.0120327175 -0.07946732 -0.09733148
000080 c3 c1 d5 3e 7d 32 b0 bc a2 c8 53 bd 9c 60 12 3e
       0.4174939 -0.02150845 -0.05170501 0.14294666
000090 ca c8 ce 3d 88 ea 30 bb ad 60 ad bd 49 e4 8e bd
       0.10096891 -0.002699526 -0.08465705 -0.06977136
0000a0 88 33 b9 37 45 fa 5c 3c 7d 75 2b bd 47 9c 2a bd
       2.2077715e-05 0.013487403 -0.041860092 -0.041652944
0000b0 51 f6 2b 3d 43 d2 bb bc 64 f7 8b bd dc 5a 3f bd
       0.041982953 -0.022927409 -0.068342954 -0.04671751
0000c0 75 31 c4 3d f0 a3 92 3d be df 1f 3d da 64 54 3d
       0.09579746 0.07160175 0.039031737 0.051853992
0000d0 5e 5e 8f bd 35 a3 c0 bd 43 ec 9e 3d b7 8d 8b 3d
       -0.07000421 -0.09406129 0.07759907 0.06814139
0000e0 2d b4 f6 bd 8b 2a 53 be 7a 7e 49 bd 13 36 92 bc
       -0.120460846 -0.20621698 -0.049192883 -0.01784805
0000f0 c5 58 bc bd 3b a0 bd bd b8 a8 da bc d0 7c c1 bd
       -0.09196619 -0.09259077 -0.02669178 -0.09447634
000100 c7 7b a2 3d 8a 7f e9 bd 75 e6 dc bc ac fe ae bd
       0.07933765 -0.11401279 -0.02696536 -0.085446686
000110 20 d9 07 be 28 4b 32 bc f6 ba 02 3e da 39 96 3c
       -0.1326642 -0.010882176 0.12766632 0.018338133
000120 65 8d 17 bd de f8 e7 bc 53 20 04 be 77 df 0a 3e
       -0.03700008 -0.028316911 -0.12902956 0.13561808
000130 dc 84 97 3d 66 58 ea 3d 1b 83 18 bc 3c 98 96 bd
       0.07398388 0.11442642 -0.009308602 -0.07353255
000140 ec c5 42 3c ca 81 39 3c 5a f8 cb bd 10 98 08 be
       0.011888009 0.011322448 -0.09959479 -0.13339257
000150 b8 cb e5 3b 41 b5 c2 3d 8d 86 c3 bc 8b fd c5 bd
       0.0070128106 0.09507228 -0.02386787 -0.096675
000160 80 e0 d2 ba 1d fe da bd 85 fc 2c bd 11 40 98 bd
       -0.0016088635 -0.106929995 -0.04223301 -0.07434095
000170 eb 49 17 3e e8 a4 f6 3d b8 a3 bc bd 9a de 1e 3e
       0.14774291 0.12043172 -0.092109144 0.15514603
000180 68 a4 23 bd 0e 40 8f bd 32 4f bd bc c1 24 2d 3e
       -0.039951712 -0.06994639 -0.023109052 0.16908552
000190 9f c9 c0 bd 29 4f d2 3d 5d f6 bd bd 16 65 d8 3d
       -0.09413456 0.10269005 -0.09275506 0.105661556
0001a0 81 02 ae bc 5c 27 42 bd d7 7f c9 bd 38 4d 98 bd
       -0.021241428 -0.047400817 -0.09838837 -0.07436603
0001b0 82 6f a0 3e 17 3f 3c be a8 41 b0 3d fc 60 98 bd
       0.31335074 -0.18383442 0.08606273 -0.07440373
0001c0 24 23 84 3d 9e 39 f2 bd 07 9d e5 bd b8 1b 7d bb
       0.06452015 -0.11827396 -0.11211591 -0.0038621258
0001d0 7d bb bc 3d 2f cc 9d 3d 2c 74 7e bb 41 98 de bd
       0.09215448 0.077049606 -0.0038826568 -0.10868884
0001e0 bb 28 8a bd 3e 3d f2 bc 95 c2 fe bc 92 c6 51 bc
       -0.0674605 -0.029570218 -0.031098643 -0.0128036905
0001f0 a2 02 a6 bd e7 79 ab bd f2 d2 d8 3d fc 47 66 bc
       -0.08105971 -0.083728604 0.105871096 -0.014055248

fc3.weight f4 [2, 128]
000000 e8 91 75 3c 75 9c 1b bd ec 38 b1 3c f3 02 a2 3d
       0.0149884 -0.037991006 0.021633588 0.07910719
000010 c6 ea ae bd ae d2 71 bd d9 29 75 bb 39 a1 c6 3b
       -0.08540873 -0.05903881 -0.0037408976 0.0060616997
000020 44 b6 93 3d be e2 94 bc 55 d3 d1 3d 99 cd c0 3d
       0.07212499 -0.018174525 0.102453865 0.09414215
000030 ff 1a 39 bd ac 1e cc 3b 04 c6 40 3d 14 e6 d2 bc
       -0.04519176 0.0062292423 0.047063842 -0.025744475
000040 dc 5d ae 3c 89 8b 79 3b 88 ba 8c 3d 59 83 91 3d
       0.02128499 0.0038077554 0.068715155 0.07105131
000050 d5 1a f8 bb a2 fa 1d 3d ea f5 8c bd 03 db 12 3d
       -0.007571558 0.0385691 -0.06882842 0.035853397
000060 bb 2e b0 3c 9f 69 28 3d 23 d3 90 3d fa 41 0c 3d
       0.021506658 0.041116353 0.07071521 0.034242608
000070 f1 2d 9a 3c 9e 3d 49 3d 9c 37 2f 3c eb 56 5b 3c
       0.018820735 0.04913103 0.010694411 0.013387422
000080 7a 00 6e be 41 55 68 3b 09 2a d1 3c 01 65 26 3e
       -0.2324237 0.0035451206 0.02553274 0.16249467
000090 35 6d 99 bd 69 15 df bc a6 f7 24 bc 2c bb ba 3d
       -0.07491533 -0.027231889 -0.01006881 0.091177315
0000a0 21 0b 0e 3e 6e af b0 bd 7b a9 26 bc 50 a0 fe 3d
       0.13871433 -0.086272106 -0.010172243 0.12432921
0000b0 35 42 ce 3a 44 ee 94 3d 0e 1d 5f bc 14 12 2a bb
       0.0015736284 0.07272008 -0.013617767 -0.0025950717
0000c0 3b a5 c3 3d 6d eb ee 3d f5 78 8c 3d 68 b7 3d 3d
       0.095529996 0.11665998 0.06859008 0.046317488
0000d0 30 c2 da bc 0d 3b b1 bb 59 88 83 bd 9f ff 30 bd
       -0.026703924 -0.0054086507 -0.064224906 -0.04321253
0000e0 51 97 5a 3d a3 7b f3 3b ba bb 54 3d ee e9 ca 3d
       0.053366963 0.00743051 0.051936843 0.099079
0000f0 32 84 30 bd 5e a4 d2 3c 8e b2 28 3d 01 d1 95 3d
       -0.04309482 0.025713142 0.041185908 0.07315255
000100 83 ed 11 3e d7 37 39 bc db 4d d1 bc 26 e4 bc bd
       0.1425076 -0.011304817 -0.02554982 -0.09223203
000110 e2 bd 2d bc 64 e9 72 3d 92 d2 c1 3d 96 e7 75 bc
       -0.010604354 0.05930461 0.09463991 -0.015008828
000120 07 76 0c bd cd c0 3c 3c 27 56 14 bc 06 c2 f2 3d
       -0.034292247 0.011520577 -0.009053743 0.11853413
000130 31 f1 17 3c f3 09 36 3d 43 fb 96 3c 38 ea 8f 3c
       0.009273813 0.044443082 0.018430358 0.017567739
000140 05 21 78 bc a4 af ca 3c 75 2d 17 bd c4 b3 dd bd
       -0.015144591 0.024741955 -0.036908586 -0.10825303
000150 31 7a 2d 3d a7 26 e4 3d 71 5d 20 bb a6 d9 d1 bc
       0.04235286 0.11140185 -0.0024469758 -0.025616478
000160 49 9c b6 3c 48 04 d2 3a 16 cb 94 bb 68 7b c4 bc
       0.02229132 0.0016023004 -0.0045408113 -0.023984626
000170 10 ee 33 3d 65 44 b0 3d 7c 13 e1 3c 7f ed 8a 3d
       0.043928206 0.08606795 0.027475111 0.0678358
000180 78 e3 a4 3c 87 54 78 bc 1b 2a ae bc 5b a3 de 3d
       0.020127997 -0.015156872 -0.021260312 0.10871001
000190 86 9d 08 bb 8c 2c a8 3d 9a 4c 90 3c f5 80 0d 3d
       -0.0020845844 0.08211622 0.017614651 0.03454681
0001a0 ac 81 ef bb ff f9 ca 3b 46 8b c5 bc 21 18 6a 3c
       -0.0073091593 0.0061943526 -0.024114262 0.014287979
0001b0 77 e6 c9 bd 14 ae 8d 3d 14 49 17 bd 98 d1 cd bc
       -0.09858411 0.069179684 -0.036934927 -0.025124356
0001c0 77 b8 c1 3d b6 0d 97 bc de 76 c4 3c ba a2 c8 bb
       0.09459012 -0.018439155 0.023982462 -0.006122914
0001d0 ae bc 06 3c d3 35 38 3d c4 3c 58 3d f2 d7 ca 3d
       0.008223696 0.044973206 0.052792326 0.099044695
0001e0 80 03 0f 3d 56 6b a2 3d c9 3b fe 3b ef a0 7c 3c
       0.034915447 0.07930629 0.007758592 0.015419229
0001f0 9b 0d e5 bc bb 07 1c 3d a7 d9 d0 3d a8 9d 33 3d
       -0.02796059 0.03809331 0.10197764 0.043851525
000200 fb c8 96 bd d6 a8 c7 3d ab 34 12 3d 92 77 79 bd
       -0.07362553 0.09749 0.03569476 -0.060905047
000210 a4 9b f4 3d 05 34 4d 3c 21 2b 4a bd 4d 55 11 3d
       0.119437486 0.012524609 -0.049357537 0.03548174
000220 c5 e3 db bc 1b a9 b8 bb 3e af dc bb 95 f7 b2 3c
       -0.026842007 -0.0056353933 -0.0067347577 0.021846572
000230 ed ba 7d 3b 54 d9 e5 bd 56 6a f9 bb d9 15 d8 bd
       0.0038716153 -0.11223093 -0.007611553 -0.10551042
000240 77 4a 09 be a1 00 5a 3d 8b 80 20 bd 51 17 20 bd
       -0.13407312 0.053223256 -0.039185088 -0.039084736
000250 fc da f2 bd 28 2a 48 bd a3 3f 9b bd fa b8 0c bb
       -0.11858174 -0.04886833 -0.07580497 -0.002147256
000260 cf b7 00 3c db e3 de bc 73 29 97 bd 0a 09 0d bd
       0.007856323 -0.02720826 -0.07380953 -0.03443245
000270 6e 77 1c bd 8f 60 5d bd 7d 1f b0 bb ff 14 16 bc
       -0.038199835 -0.054047164 -0.0053748474 -0.009160279
000280 1b 26 83 3e da 2a 06 bd ae dc 0a bd df b1 33 bd
       0.2561501 -0.03275571 -0.033901863 -0.043870803
000290 61 83 0a 3e c8 71 ca bc 90 56 9f bc 0f f0 3e bb
       0.1352668 -0.024712458 -0.019450456 -0.0029134785
0002a0 4a f3 ab 3c 89 db be 3a 1c b8 05 3e 36 c9 c6 3c
       0.020990033 0.0014561276 0.13058513 0.024265867
0002b0 92 78 36 3c c2 af 1e bd 14 d5 ab bc aa 6f cf bd
       0.011137145 -0.038741834 -0.020975627 -0.1012872
0002c0 e7 a5 28 bd e6 74 9e bd 41 6f 7c bc d4 a2 85 3d
       -0.04117384 -0.0773714 -0.015407384 0.065251976
0002d0 8d ff bd 3c d4 4b d2 ba b2 eb 19 bd 9c eb 12 bd
       0.023193145 -0.0016044327 -0.037578292 -0.035869226
0002e0 e0 ff 82 bd 1d f8 8e 3d f2 23 a5 3d 80 54 03 3c
       -0.063964605 0.069809176 0.08063497 0.008015752
0002f0 54 fd 3f bc 61 a3 8c 3d 74 48 28 bd df 3d 85 3c
       -0.011718113 0.068670996 -0.04108472 0.016264854
000300 43 72 06 be 17 e1 c8 3c 70 56 c1 bc 27 06 bd 3b
       -0.13129525 0.024521394 -0.023600787 0.0057685557
000310 95 62 08 3e 8c 8e a2 bd 48 03 bd bd b1 70 8e 3d
       0.13318856 -0.07937345 -0.092291415 0.06955088
000320 48 ac 55 3c ee ff 75 3d 18 a4 1c 3e 1a 8f 89 bd
       0.013041563 0.060058527 0.15296972 -0.067167476
000330 11 ff f3 bd 77 4b 38 bd 88 38 9a 3d cc 5d 43 bd
       -0.119138844 -0.044993844 0.07530314 -0.047696874
000340 20 e8 86 3d 7f 81 3f bd 55 62 e2 bd 65 c8 2f bb
       0.06587243 -0.046754356 -0.110539116 -0.0026822325
000350 70 33 44 bd e3 ee fd 3a 7a 87 de bb d9 b2 36 bd
       -0.047900617 0.0019373562 -0.0067910524 -0.044604156
000360 f2 69 3b bd 49 56 1c bd 9d 6d d5 bb 50 fd a0 3c
       -0.045755334 -0.038168225 -0.006513311 0.019652039
000370 5b 5e f2 bd 7e 70 f1 bd 9a 26 94 bd 33 c2 e5 bd
       -0.11834403 -0.11789034 -0.07233925 -0.11218681
000380 c9 06 41 bd 7b 27 95 bd 7d 80 0f be 8e 94 a0 bd
       -0.04712561 -0.07282921 -0.14013858 -0.078408346
000390 1d ca 8e bd 55 01 af bb 4e 5c ca bc e9 b1 f5 bd
       -0.06972144 -0.005340735 -0.024702217 -0.11996824
0003a0 a9 90 dc bd 96 21 bd 3c 5c b1 68 3d b0 d9 ed bc
       -0.10769779 0.023087304 0.056809768 -0.029034466
0003b0 ae a0 33 3e 37 93 76 3c 45 7a cf 3c e1 38 6f 3c
       0.17541763 0.015049747 0.025326857 0.014600963
0003c0 8b a7 3a bd c8 f5 d7 bd ac 78 81 bb d9 99 90 3c
       -0.045569938 -0.10544926 -0.003951153 0.017651485
0003d0 d7 6d 86 bd 79 31 4b bd b5 5e 30 3c b8 18 dc bc
       -0.06563919 -0.049607728 0.010764767 -0.026867256
0003e0 4e 90 ab 3c cd 94 41 bc c0 5c 0d bd ed 82 42 3c
       0.020942833 -0.011815262 -0.03451228 0.011872035
0003f0 e2 54 b7 ba 1b 1c 5d bd 19 c6 e1 bd 3e f6 8f bd
       -0.0013987089 -0.05398188 -0.11024112 -0.07029389

fc3.bias f4 [2]
000000 e9 cd 77 bd 63 ba 19 bd
       -0.060499106 -0.037531268
