Project 3-Open set recognition/Project/Weights/7_weights.pth (torch, 387487 bytes, 10 tensors)

conv1.weight f4 [64, 1, 7, 7]
000000 f5 58 ae 3b 8e 57 a8 3e ee 71 4e 3e a3 d2 a5 bc
       0.005320663 0.328793 0.20160648 -0.020242041
000010 9c 22 08 3d 24 26 02 be 7d f0 4c 3c af ee 49 3e
       0.03323613 -0.12709862 0.012508509 0.19719957
000020 e4 8b 53 3e 92 58 f9 bc 54 c0 3d bd d6 91 9b 3d
       0.20658833 -0.030437741 -0.046325997 0.075961754
000030 18 d8 6d bd f4 b2 0c be 1c 0d fa 3d f6 54 51 bc
       -0.05806741 -0.1374014 0.12209532 -0.012776604
000040 00 aa 19 be 18 60 b5 bd 4c c2 d7 bd 51 a3 a1 3d
       -0.15006256 -0.08856219 -0.10535106 0.07892478
000050 c6 de 13 be 9a 4f b6 3d c6 c8 99 3e aa 38 f6 3b
       -0.1444045 0.089019015 0.3003599 0.007514079
000060 fe f5 f7 3d 3c 87 22 3e 23 99 be 3d cc c1 64 bd
       0.12107466 0.158719 0.09306552 -0.05584888
000070 21 18 2d bb a3 40 95 3d d1 47 c7 3d 81 23 56 3e
       -0.0026412087 0.07287719 0.09730495 0.20911981
000080 51 8b b4 3d 83 5e 09 3d e6 1f 52 3e 93 84 bb bd
       0.08815635 0.0335374 0.20519981 -0.09156146
000090 47 21 97 bd 19 be b1 3d ed e0 a6 3a 89 83 7a 3d
       -0.07379394 0.086788364 0.0012731828 0.061160598
0000a0 2f 51 67 3e 80 65 fe 3a 94 20 61 bd 04 a3 8c bd
       0.22589563 0.0019408911 -0.05496271 -0.0686703
0000b0 bf f5 8b 3d 70 13 89 3d ff 9c 8d bc 91 81 dc 3d
       0.06833982 0.066931605 -0.017286776 0.107669
0000c0 a1 dc 57 3d 5e b7 9c 3d da f8 ec 3d c3 20 b1 3d
       0.052700642 0.07652162 0.11570902 0.08648827
0000d0 aa e8 35 3e 42 01 0b 3d c4 d3 de bc f7 33 9b 3d
       0.17764536 0.033936746 -0.027200587 0.07578271
0000e0 08 ad 13 3e 95 d6 f5 3c 95 5c 23 3e 7d b9 90 bc
       0.14421475 0.030009547 0.15953286 -0.017666573
0000f0 9d 68 68 bb 4c c8 a9 3d 88 fc b7 3c 89 53 23 3e
       -0.0035462745 0.08290157 0.022459283 0.15949835
000100 f9 a2 b5 3d 06 18 2d be 89 26 63 bd 7c 10 66 bd
       0.08868975 -0.16903695 -0.055456672 -0.056168064
000110 10 51 b9 3d 79 3e 0a be bf ec 0b 3e 4b c4 34 3d
       0.090486646 -0.13500394 0.1366453 0.044132512
000120 00 b6 02 3d 41 29 aa bd 08 52 b0 bd 53 16 54 3c
       0.03191185 -0.0830865 -0.08609396 0.012944776
000130 aa 9c 04 3d 5f 33 3d 3e d4 bc 09 3e 8c aa 94 3d
       0.03237597 0.18476628 0.13450938 0.07259092
000140 79 3b f4 3c 51 5d 91 bd 53 7a 8c 3d 83 f9 04 be
       0.029813515 -0.07097877 0.06859269 -0.12985806
000150 95 d9 79 3d 0b d5 74 3d e7 3d e5 3d c9 1f 85 bd
       0.060998518 0.059773486 0.111934476 -0.06500203
000160 7c aa 76 3d a8 29 14 3e b2 e7 ae 3d 03 c3 0a be
       0.06022118 0.14469016 0.08540286 -0.13550954
000170 b3 b3 84 3d f6 e4 8b 3c 20 24 bc 3d d1 23 ed 3d
       0.064795874 0.01707695 0.09186578 0.11579097
000180 7c 64 48 3d 85 3a f6 3d 78 a4 1c be ae a2 88 bd
       0.048923954 0.120228805 -0.15297115 -0.06671654
000190 46 3e 7a be af 4b 62 be 6a 76 44 be d4 e4 97 be
       -0.24437818 -0.22099183 -0.19185796 -0.2966677
0001a0 10 29 a2 be 55 57 c8 bd 3a a7 f4 bd 75 21 6e be
       -0.31671953 -0.09782282 -0.119459584 -0.2325495
0001b0 d3 c7 b6 bd d7 fc 89 be 5a dc 82 be 42 92 95 be
       -0.08924832 -0.26950714 -0.2555874 -0.29213148
0001c0 c1 ed c0 3d 03 a5 be 3d d7 2f 76 3d 9b 6b 44 3e
       0.09420348 0.09308817 0.060104217 0.19181673
0001d0 f8 07 06 3e 45 03 99 be d8 2f 6f be de e5 ca 3e
       0.13088977 -0.29885307 -0.23358095 0.396285
0001e0 8b cb 99 3e 61 d5 e3 3e c2 61 36 3f 36 30 3c 3f
       0.30038103 0.44498733 0.71242917 0.73511064
0001f0 10 82 16 3e 00 29 08 3e 01 f9 1b 3f 0b 55 a5 3d
       0.14698052 0.1329689 0.60926825 0.08072861
000200 57 a7 11 be df f9 60 3e ea b7 d8 3e 77 ae c6 3e
       -0.14223991 0.21970318 0.42327815 0.3880498
000210 71 f3 9a 3e a7 1f bc 3e d0 3d 0e be 86 71 94 be
       0.30263856 0.367429 -0.13890767 -0.28992862
000220 da a1 82 bd 95 e9 35 3e f7 47 b9 3e bb 55 45 3f
       -0.06378527 0.17764886 0.36187717 0.7708394
000230 8f 87 2a 3e f0 9b 2a 3d d9 f9 a8 bd 6c 22 b8 bc
       0.16653274 0.04165262 -0.0825078 -0.022477351
000240 72 00 8d be 6f e5 bd bd df 2d 28 3f a9 b3 6d 3e
       -0.27539402 -0.092722766 0.65694994 0.23213066
000250 50 6b c9 3d 23 3d f5 3d 6e 75 0c 3e 2e 97 4a 3d
       0.09834921 0.119745515 0.13716671 0.049460582
000260 d9 6a 99 3e 93 a2 cd 3e 9f 27 18 3d 7f e5 33 3e
       0.2996433 0.40163097 0.03714716 0.17568015
000270 9c 4b 6b bd 20 56 32 bd ad 66 2f bd 36 31 5b 3e
       -0.057445154 -0.043539166 -0.04282253 0.21405491
000280 03 62 25 3e 2c e9 3f bd 4e 39 fb ba b7 34 b2 3c
       0.1615067 -0.04685323 -0.0019166858 0.021753652
000290 b3 c0 6a bd 26 45 e0 3d 3e 9b 62 3e 8d 07 c0 3d
       -0.05731268 0.10950689 0.22129533 0.0937644
0002a0 a8 d7 a2 bd a6 1c 17 be 38 d2 0e 3e 40 1e a1 3c
       -0.079512894 -0.14757022 0.1394738 0.019667745
0002b0 23 5a 8e 3e f0 de df bd e7 39 60 be f9 b6 0a be
       0.27803144 -0.10931194 -0.21897088 -0.13546361
0002c0 74 4f c5 3d 79 ee 62 bd 18 3d 57 3e 72 c3 8d 3e
       0.09634295 -0.055403206 0.21019399 0.27688175
0002d0 10 a9 64 bb 35 f2 34 be b5 43 c9 3d 72 df 79 bc
       -0.0034890808 -0.1767052 0.09827367 -0.015251027
0002e0 25 5c 10 3e 30 cc c3 3d a4 e3 d2 3d ed 40 5d be
       0.1409765 0.0956043 0.10297325 -0.21606798
0002f0 e1 bb ee bd 81 b6 96 3e ba 72 b0 3d 51 f9 46 3e
       -0.11656929 0.29436114 0.08615632 0.19431044
000300 c4 95 ec 3d 4e 08 b6 bc 75 62 ec bd 6d 68 03 3d
       0.11552003 -0.022220757 -0.11542217 0.03208201
000310 57 da 13 3d bd ab c4 3c 1d dc 29 3e bc b6 f1 3b
       0.036096897 0.024007672 0.16587873 0.00737652
000320 7c 69 4d 3e 9a 1d 0f 3d cc 9a 28 3e 23 e1 c5 3d
       0.2005977 0.03494034 0.164653 0.09662082
000330 3a 51 8c bc 89 d5 ba bc b4 70 bb bd 2d f5 31 3e
       -0.017128576 -0.0228069 -0.09152356 0.17378683
000340 7a 91 19 3c be eb a0 3d b2 fa 3e 3e f4 71 11 bd
       0.009373063 0.07857464 0.1865032 -0.035509065
000350 e8 a4 3f bd ae b1 c1 3d e7 7d c3 3b 43 99 ec 3d
       -0.046788126 0.09457718 0.0059659365 0.1155267
000360 05 d7 d4 ba b1 60 ee 3d b9 98 0f 3d f4 c3 08 be
       -0.0016238397 0.11639536 0.035057757 -0.13356
000370 c2 70 27 be fc 8e 6d 3c 1b 1c 07 3e e5 3a 08 3e
       -0.16351607 0.014499422 0.13194315 0.13303716
000380 45 b1 91 3d 3c 4d 51 be 64 57 9f bd 74 06 bf bd
       0.071138896 -0.20439619 -0.0778034 -0.09327403
000390 fb 60 9e 3c 99 c4 40 3e 1c 31 06 3e 18 50 2c 3e
       0.019333353 0.18824996 0.13104671 0.16827428
0003a0 b4 47 68 bd 22 ab 3e 3e 32 95 ba 3d fb af 62 3e
       -0.056709006 0.1861997 0.09110488 0.22137444
0003b0 e7 51 8d bd 2a fa 77 3d bd 1b de 3d 58 b7 79 3e
       -0.06900387 0.06054131 0.108451344 0.24386346
0003c0 28 c1 01 3e 32 33 53 3e d8 45 2f bd 19 46 3f bd
       0.1267134 0.20624998 -0.042791218 -0.04669771
0003d0 0c 42 45 bd 64 77 b2 3e 15 85 05 3f 14 ba 8c 3e
       -0.04815869 0.34856713 0.5215619 0.27485716
0003e0 aa 5d bb 3e eb 3d 48 3d fb fb 07 3e f4 eb e0 3e
       0.36594898 0.048887175 0.13279717 0.43930018
0003f0 e4 b4 f2 3d 0c 62 85 3e 30 80 64 3e 7e 87 57 3e
       0.118509084 0.26051366 0.22314525 0.2104778

conv1.bias f4 [64]
000000 c3 f2 84 be 24 84 6c be 4c e7 aa be d0 e3 83 be
       -0.25966462 -0.23097283 -0.3337959 -0.25759745
000010 08 89 51 be ad 63 0d be 63 fc 1c be f0 b3 69 be
       -0.2046243 -0.13807555 -0.15330653 -0.22822547
000020 ab 1b 68 be cd a4 99 be c2 1e 62 be 6f 99 0d be
       -0.22666804 -0.30008546 -0.22082046 -0.13828062
000030 08 34 4f be ec cf 22 3d e7 5b 5e be 20 9d 4b bd
       -0.20234692 0.03974907 -0.21714745 -0.049710393
000040 4a 36 aa bd 1a ff 98 be 2a 40 27 be 60 b2 0b be
       -0.08311136 -0.29882127 -0.1633307 -0.13642263
000050 91 6d af be 48 a4 bd bd 5b 02 e6 bc 16 33 b3 be
       -0.3426328 -0.0925985 -0.028077295 -0.34999913
000060 56 f7 4c be c7 2a 99 be 11 4e a8 be 77 f6 9a be
       -0.20016226 -0.2991545 -0.3287206 -0.30266163
000070 75 44 57 be f5 ed c3 be ba 31 cc bd 8b 05 67 be
       -0.21022208 -0.38267484 -0.09970422 -0.22560708
000080 81 68 91 be a5 a4 47 be 5e c8 a7 bd 93 c5 34 be
       -0.28400043 -0.194964 -0.08192514 -0.17653494
000090 07 88 36 be cd 60 38 be c8 da e9 3d e1 4b c7 be
       -0.17825328 -0.18005677 0.11418682 -0.3892508
0000a0 0f bd a7 be 33 2e 81 be ac 78 8d be f7 f5 80 be
       -0.32761428 -0.2523056 -0.27631128 -0.25187656
0000b0 de 3e b9 be c0 cd 28 be 7b dd 95 be 97 49 7a bd
       -0.36180776 -0.16484737 -0.2927054 -0.061105337
0000c0 40 1a 4f be 38 ad 92 be c6 0f 27 be 9e ce 49 be
       -0.20224857 -0.2864778 -0.16314611 -0.19707724
0000d0 d3 4d 9b be 1c 8e f7 bd 42 6a 9e be 80 96 2a be
       -0.30332813 -0.12087652 -0.30940443 -0.16658974
0000e0 f5 19 d4 bd f1 77 3d 3d 54 8e 5a bd 22 ff 91 be
       -0.103565134 0.046256963 -0.05335839 -0.28514963
0000f0 62 36 84 be 0d 44 c8 be 39 ab a3 be 69 46 26 be
       -0.2582274 -0.3911442 -0.3196657 -0.16237797

conv2.weight f4 [32, 64, 5, 5]
000000 82 03 5b bd 59 a8 51 bd 81 d0 49 bd 05 b5 92 bd
       -0.053470142 -0.05118594 -0.04927111 -0.07163433
000010 d9 ca 88 bd 10 2d a2 bd 5b 35 17 bd b6 b6 39 bd
       -0.06679315 -0.07918751 -0.036916118 -0.045340262
000020 ad e1 6c bd b8 82 35 bd cd 6f 65 bd 46 3a 52 bd
       -0.05783241 -0.044314116 -0.056014825 -0.051325105
000030 f1 c7 6a bd cc 11 4a bd a3 d4 91 bd f1 72 8e bd
       -0.057319585 -0.04933338 -0.07120635 -0.06955517
000040 96 ba a3 bd 65 3b 9d bd 76 a6 49 bd 32 c5 52 bd
       -0.07994573 -0.07677344 -0.049231015 -0.05145759
000050 55 a8 4d bd 7b ac 79 bd 88 f9 74 bd 39 8f 38 bd
       -0.050209362 -0.060955506 -0.059808284 -0.045058463
000060 0a 1f a0 bd 02 24 a9 bd ef d3 17 bd 56 be 88 bd
       -0.0781842 -0.08258821 -0.03706735 -0.06676929
000070 fa 4d 1f bd 59 2f 9a bd 92 3c 9a bd c3 20 72 bd
       -0.038892724 -0.07528562 -0.07531084 -0.059113275
000080 fa 2a 84 bd 02 6b 49 bd 78 f6 9f bd f0 69 62 bd
       -0.0645351 -0.049174316 -0.07810682 -0.05527681
000090 45 fc 58 bd 32 c2 36 bd 07 c9 9b bd 57 69 74 bd
       -0.052974958 -0.044618793 -0.07606702 -0.059670772
0000a0 36 fc ab bd 49 0d 43 bd 98 b7 a3 bd 94 72 8c bd
       -0.08397715 -0.04762009 -0.07994002 -0.068577915
0000b0 1f 51 4b bd fa f2 a2 bd 5c e8 5f bd 6e c0 a0 bd
       -0.04963791 -0.079565 -0.054664955 -0.07849203
0000c0 06 02 a0 bd ca d1 69 bd e1 3f 88 bd fe f3 9f bd
       -0.07812886 -0.057084836 -0.06652809 -0.0781021
0000d0 f0 53 a4 bd b5 2b 12 bd f2 0a 54 bd 27 98 84 bd
       -0.08023822 -0.035686214 -0.05176825 -0.06474333
0000e0 0b f9 a0 bd 03 55 8d bd da 49 93 bd 4b fa 7a bd
       -0.07860001 -0.0690098 -0.071918204 -0.061273854
0000f0 1c 37 96 bd 67 e4 8d bd dd 5b 9c bd 9e df 8f bd
       -0.0733473 -0.0692833 -0.07634709 -0.070250735
000100 01 ec 91 bd 08 5f 9a bd a7 8a 53 bd 97 6f 50 bd
       -0.07125092 -0.07537657 -0.0516459 -0.05088767
000110 20 94 a7 bd a8 36 88 bd 01 e8 45 bd 37 c0 3c bd
       -0.081825495 -0.0665105 -0.04831696 -0.046081748
000120 09 1e 4a bd cf 56 a0 bd 20 d4 5e bd c2 70 25 bd
       -0.04934505 -0.078290574 -0.054401517 -0.040390737
000130 2f a9 26 bd ae 83 66 bd 82 29 ac bd cc a3 8d bd
       -0.04068869 -0.056277923 -0.084063545 -0.069160074
000140 18 ba 2d bd ce ea 16 bd 56 a2 64 bd b8 6e 97 bd
       -0.0424138 -0.03684502 -0.055818878 -0.07394165
000150 74 93 52 bd 81 38 a4 bd b4 34 7c bd 8a 3f 39 bd
       -0.051410154 -0.0801859 -0.0615737 -0.04522661
000160 7c dc 67 bd 57 50 22 bd 70 22 4f bd d3 f8 38 bd
       -0.056606755 -0.0396274 -0.05056995 -0.045159172
000170 ab 48 4c bd 5c 82 25 bd a8 6f 24 bd 1e 6a 9d bd
       -0.04987399 -0.040407524 -0.040145546 -0.07686256
000180 40 b0 77 bd 8d 19 96 bd 27 54 3e bd db 8d a4 bd
       -0.06047082 -0.07329092 -0.046466973 -0.08034869
000190 26 93 a2 bd aa 2e 56 bd 01 fb 9e bd c9 da 1c bd
       -0.079382226 -0.052290596 -0.07762719 -0.038294587
0001a0 07 c1 8c bd 91 92 76 bd d7 c4 74 bd de 0d aa bd
       -0.068727545 -0.06019837 -0.059758034 -0.08303426
0001b0 c5 1b 24 bd db a7 48 bd 66 d9 86 bd b9 e5 5f bd
       -0.040065546 -0.048988204 -0.06584434 -0.05466244
0001c0 7c a5 18 bd 54 55 24 bd da b3 a0 bd 23 0a 7b bd
       -0.037267193 -0.040120438 -0.07846804 -0.061288964
0001d0 b7 bd 9e bd a1 ec 7d bd d5 3a 94 bd 53 3d 4e bd
       -0.07751029 -0.061993245 -0.07237784 -0.050351452
0001e0 65 f8 74 bd 5c 93 1b bd c6 e7 88 bd 99 c8 a7 bd
       -0.0598072 -0.03798233 -0.06684832 -0.08192558
0001f0 50 97 ad bd 2c dd 93 bd 9f df 3c bd 4d 48 82 bd
       -0.08476126 -0.072199196 -0.0461117 -0.063614465
000200 86 b7 29 bd d5 34 36 bd 1c fa 96 bd 97 e2 70 bd
       -0.041434787 -0.04448398 -0.07371923 -0.058809843
000210 53 67 96 bd 85 82 9d bd ef 18 59 bd e6 85 a8 bd
       -0.07343926 -0.0769091 -0.053002294 -0.08228664
000220 34 77 a8 bd 03 e7 47 bd 27 73 66 bd 61 04 1b bd
       -0.08225861 -0.048804294 -0.05626216 -0.037845973
000230 81 de 71 bd 7f 4a 88 bd c5 ad 23 bd ff 81 85 bd
       -0.059050087 -0.06654834 -0.03996064 -0.065189354
000240 0c 94 86 bd 20 44 5f bd 9b 4d 81 bd 2d 3d 83 bd
       -0.065712065 -0.05450833 -0.0631363 -0.06408153
000250 7c 1b 8f bd 45 7f 82 bd ff a5 8b bd 86 11 85 bd
       -0.06987664 -0.06371931 -0.068187706 -0.06497483
000260 73 c0 88 bd eb ed 2e bd d4 f5 8a bd e6 53 1a bd
       -0.06677332 -0.042707365 -0.06785169 -0.037677668
000270 8e 63 73 bd be 28 2f bd 76 0a 5a bd 22 0e a3 bd
       -0.059421115 -0.042763464 -0.053232633 -0.0796168
000280 61 56 a8 bd d5 5b 16 bd 7e 28 32 bd b2 b5 86 bd
       -0.082196005 -0.03670867 -0.043495648 -0.065776244
000290 39 dc a9 bd c4 3d 65 bd df aa a1 bd 12 23 a1 bd
       -0.08293957 -0.055967107 -0.07893919 -0.07868017
0002a0 c8 8c 18 bd ae 9a a3 bd 92 22 43 bd 35 a2 a2 bd
       -0.037243634 -0.07988487 -0.04764039 -0.07941095
0002b0 fa 32 8e bd 1c fb 87 bd 61 09 34 bd e6 04 1e bd
       -0.06943317 -0.06639692 -0.043954257 -0.03857889
0002c0 08 1f 29 bd ff 39 67 bd 86 e4 a5 bd 60 b1 33 bd
       -0.04128936 -0.056451794 -0.08100228 -0.04387033
0002d0 ae fe 11 bd 25 f9 a7 bd eb 9a 6c bd 41 23 98 bd
       -0.035643272 -0.082018174 -0.05776493 -0.07428599
0002e0 52 49 63 bd 2d 38 76 bd 6b ea 6f bd cb c7 29 bd
       -0.055489846 -0.060112167 -0.058573168 -0.041450303
0002f0 91 1d 55 bd ff c2 3e bd c5 da 6d bd 85 8e aa bd
       -0.05203015 -0.04657268 -0.058069963 -0.08327965
000300 83 ad 3c bd fb 2a 89 bd 07 07 95 bd a0 50 61 bd
       -0.04606391 -0.06697651 -0.07276731 -0.05500853
000310 26 dc 3f bd 49 03 6d bd f7 c0 53 bd 3f 44 81 bd
       -0.04684081 -0.05786446 -0.051697697 -0.06311845
000320 31 43 42 bd cb 42 87 bd 49 3c 9e bd 87 b6 4d bd
       -0.04742736 -0.066045366 -0.07726342 -0.0502229
000330 55 6d a3 bd 37 70 81 bd b3 f8 4d bd 6f 2c 86 bd
       -0.07979838 -0.063202314 -0.050286006 -0.06551444
000340 89 2b 84 bd df bc 92 bd 5d e9 8c bd db 29 52 bd
       -0.06453616 -0.071649306 -0.06880448 -0.051309448
000350 02 49 a1 bd 44 42 3d bd 51 72 48 bd 0a e6 74 bd
       -0.07875253 -0.046205774 -0.048937146 -0.059789695
000360 1d bd a5 bd ee 09 52 bd fc 8c 85 bd 1c ff 4c bd
       -0.08092711 -0.051279 -0.06521031 -0.05004798
000370 62 b0 60 bd e6 68 6d bd ca 80 14 bd f4 9e 4e bd
       -0.05485571 -0.057961367 -0.036255635 -0.05044456
000380 16 8f 82 bd de 0e 3f bd 99 e8 2a bd 16 5e 3b bd
       -0.06374948 -0.046645038 -0.04172573 -0.045744024
000390 ef 6f ac bd 09 2a 9d bd 20 82 8e bd bd 52 17 bd
       -0.08419787 -0.07674033 -0.06958413 -0.03694414
0003a0 2f 94 40 bd 0e 21 a9 bd 46 e5 a6 bd b5 8a 5c bd
       -0.04701632 -0.08258258 -0.08149199 -0.05384322
0003b0 b7 54 29 bd 2d 4a 95 bd b3 b6 ac bd 1d bb 9e bd
       -0.041340556 -0.072895385 -0.084332846 -0.07750533
0003c0 ae 04 98 bd cf 09 29 bd f1 7a 9f bd 49 c1 65 bd
       -0.074227676 -0.04126912 -0.07787121 -0.056092534
0003d0 f9 ee 10 bd 61 ff 4c bd 15 43 6e bd 88 49 29 bd
       -0.035384152 -0.050048236 -0.058169443 -0.04132989
0003e0 90 3d 86 bd d4 3a 6d bd 76 c9 99 bd 1a 2e a5 bd
       -0.06554711 -0.05791743 -0.07509129 -0.08065434
0003f0 c0 0c 84 bd f8 ed 71 bd 21 67 96 bd 85 78 86 bd
       -0.06447744 -0.059064835 -0.07343889 -0.06565956

conv2.bias f4 [32]
000000 41 11 4b bd 41 e0 21 bd 6e 8a 97 bd c4 30 87 bd
       -0.049577 -0.039520506 -0.0739945 -0.06601098
000010 53 05 15 bd 06 7c 48 3e 95 ed db 3e 23 11 61 bd
       -0.03638203 0.19578561 0.42954698 -0.054947983
000020 0b c6 91 bc ad d3 d3 bc 0a 14 ac bd 85 ac 5f bd
       -0.01779463 -0.02585777 -0.0840226 -0.054607887
000030 8a a0 8e bd 21 c4 81 bd ff 65 9d bd 1d 98 72 3d
       -0.06964214 -0.06336237 -0.0768547 0.059227098
000040 7e f0 c9 bc 7d a7 16 bd 20 fc 86 bd 48 3a 3d bd
       -0.024650808 -0.036780823 -0.06591058 -0.04619816
000050 cd ef 72 bd 2e ad 66 bd 58 88 32 bd 5e 36 a5 bd
       -0.059310723 -0.0563175 -0.04358706 -0.0806701
000060 c3 b2 7c bd 08 1e 26 bd 5c 8f 2a bd 96 c8 f7 bc
       -0.061693918 -0.040555984 -0.041640624 -0.030247014
000070 d9 b2 9d bd 57 e3 2e bd 21 28 ab bd 0a 67 2d bd
       -0.07700128 -0.042697277 -0.08357263 -0.042334594

fc1.weight f4 [256, 32]
000000 e7 e1 6e 3e 68 47 05 3c e8 59 4b 3b 5c cd d2 bd
       0.23328362 0.0081347 0.003102893 -0.102930754
000010 f1 bd 9a bc 5a ad 20 be 32 87 3a be 69 ad da 3c
       -0.0188894 -0.15691128 -0.18215635 0.026694017
000020 a5 56 a5 3d 80 f3 de bd 39 0f 0f 3c 4e 51 00 3e
       0.08073167 -0.10886288 0.008731657 0.12531015
000030 5d 8e a2 3d 75 9b ed bd e3 cc cd bd bc 6d ca 3d
       0.0793731 -0.11601917 -0.10048845 0.098842114
000040 00 6e 02 3f 90 9a 2c bc 19 9d 15 3e 07 0f 4e be
       0.50949097 -0.010534897 0.14610709 -0.2012292
000050 09 d4 ec 3d ee 88 52 3d 5f c0 13 3e 67 42 d2 3c
       0.1156388 0.051400118 0.14428852 0.025666429
000060 de 12 86 3c b9 f8 07 3e 71 b2 6c bc 20 e9 ea 3d
       0.016366418 0.13278474 -0.014446841 0.11470246
000070 58 ba 03 3e a7 f4 97 3d 2c e6 f8 3d 76 69 16 3c
       0.12864053 0.074197106 0.12153277 0.009180417
000080 57 64 46 be b5 c2 6a be 97 98 b8 3d 73 40 ec 3d
       -0.19374214 -0.22925837 0.09013479 0.1153573
000090 da cc 0e be 66 d9 40 3e 2b 8e 88 3e 3e eb 0d be
       -0.13945332 0.18832931 0.26670966 -0.13859269
0000a0 9c 22 23 be 5c 17 b6 3d 0a 12 2a be 7b ab af bd
       -0.15931171 0.08891174 -0.16608444 -0.08577629
0000b0 4a b6 a2 bc 36 8f 63 bd e4 95 23 be da c0 0e 3e
       -0.019862313 -0.0555565 -0.15975147 0.13940755
0000c0 db ae bf 3e 22 1f 42 be 65 4f 4c be a3 39 25 bd
       0.37438092 -0.18957189 -0.19952162 -0.04033817
0000d0 60 23 67 3d 07 7d ce 3d dd 45 34 3c 3f d5 89 3d
       0.05643022 0.10082441 0.011002985 0.067301266
0000e0 b6 9b 7a 3c 8a e1 b4 bd 8a ea e3 3c c7 16 df bd
       0.015295913 -0.08832081 0.027821798 -0.10893016
0000f0 db c6 69 3d c2 b0 c5 bd 0e b6 34 bc 24 d2 b2 bd
       0.05707441 -0.096528545 -0.011029733 -0.087314874
000100 a4 27 20 3d 8d 29 3e 3d 9a cc b2 bd 68 1f bc bd
       0.039100304 0.046426345 -0.08730431 -0.09185678
000110 9f 16 a3 3d 45 4d bb 3d d2 1f 69 bd 21 6a 6c 3d
       0.07963299 0.09145597 -0.05691511 0.0577184
000120 1e e4 3e 3b 2e f8 0a be 29 6b 7c bb d5 b7 26 be
       0.0029127668 -0.13571236 -0.003851602 -0.16281064
000130 a0 6e 8a 3d 44 00 91 bd 6f f3 29 3e 4d f8 c6 bd
       0.06759381 -0.07080129 0.16596769 -0.09715328
000140 8f 6d 50 3c e4 0e 6c be 20 b4 c8 bd 1d 95 cc 3d
       0.012721433 -0.23052555 -0.09799981 0.099893786
000150 58 80 02 3d 39 66 1d 3d 0c 2a 7d bd a0 e0 66 bd
       0.03186068 0.038427565 -0.061807677 -0.056366563
000160 6f 70 09 bd d1 f8 56 3d db e1 ab 3d 94 8d 44 3c
       -0.03355449 0.052483384 0.08392688 0.0119966455
000170 e1 8a 7d bd 81 18 af 3d 0a cd 0b be d7 b3 20 be
       -0.061900023 0.085495956 -0.13652435 -0.15693603
000180 42 a0 17 3e 6c 28 d9 bd 74 9c 1a 3e d0 17 0e 3e
       0.14807227 -0.10603413 0.15098745 0.13876271
000190 97 72 50 3d 39 40 16 3e f6 4d 24 3e 8d fb bd bd
       0.05089053 0.14672936 0.16045365 -0.09276495
0001a0 29 95 2d 3c 0f 7e 3f bd 8c 8f c7 bd 79 a9 6c bd
       0.010594645 -0.04675108 -0.09744176 -0.05777881
0001b0 43 69 aa 3d c8 5e 9b bd 2d 19 dc 3d 6c f9 1d 3e
       0.08320858 -0.075864375 0.107469894 0.15427178
0001c0 b9 a1 1c 3f b8 63 11 3e 67 6f b4 bd a4 ce 36 be
       0.6118427 0.14198196 -0.08810311 -0.17852265
0001d0 1b b6 f1 3c f7 d1 a5 3d 2e 23 e2 3d 77 8d 53 bc
       0.02950578 0.08096688 0.11041866 -0.012912146
0001e0 79 56 24 3e e9 dc 4f 3e 96 ba 0f be b3 50 7d bb
       0.16048612 0.20299114 -0.1403602 -0.0038652837
0001f0 32 c2 2c 3c 8b b7 b1 bd 43 41 79 3d 03 e0 01 3e
       0.010544347 -0.08677586 0.060853254 0.1268311
000200 ec ba db 3c a0 ae e1 3d 52 a6 68 3e 6f 08 49 3d
       0.02682253 0.11019635 0.22719696 0.04908031
000210 70 43 a1 3d db e5 dc 3c 2e 0d 9f 3d 1c 73 d1 bd
       0.07874191 0.026965072 0.07766186 -0.102270335
000220 61 87 89 bd 51 b8 3f 3c 76 02 16 be 52 ea 58 3c
       -0.067152746 0.011701659 -0.14649376 0.01323946
000230 b1 ed 81 bd f3 49 da bd b3 76 65 3e 93 be 17 be
       -0.06344164 -0.10658636 0.22408561 -0.14818792
000240 66 bd 6d be cd 24 8e 3b ea fb 6b bd a0 13 c1 bd
       -0.23216781 0.004337883 -0.05761329 -0.09427571
000250 33 95 8c 3d c3 c6 0f be 6a d8 a3 bd c2 c9 dd 3d
       0.06864395 -0.14040665 -0.08000262 0.10829498
000260 ae 6e 08 3e e0 80 d1 3d 2b ab dc b8 f1 a5 54 be
       0.13323471 0.10229659 -0.000105223 -0.20766427
000270 9a 5c 41 3e 5f f0 19 bc 19 85 5f bd 6e d7 b8 be
       0.18882981 -0.009395688 -0.05457029 -0.3610186
000280 71 c4 20 3e 78 b0 0f be fc a4 12 be 80 75 a2 3d
       0.15699936 -0.14032161 -0.14320749 0.079325676
000290 9e f8 1f be 1b 15 ed 3d ae 7f b6 3b 02 a7 53 bd
       -0.15622184 0.11576291 0.00556942 -0.051672943
0002a0 ab d6 13 3e 6e a8 51 3e 31 78 28 be c1 1f 02 3e
       0.14437358 0.20474407 -0.164521 0.12707426
0002b0 18 a7 28 be 6c cb 06 3e f8 e7 cb bd dd 6b 6c be
       -0.16469991 0.13163537 -0.09956354 -0.23088022
0002c0 78 78 29 be 77 e3 68 bd 77 7c fa 3d 09 0d 20 3c
       -0.16549861 -0.056857552 0.12230771 0.009768733
0002d0 16 2c ce bd b3 c3 c2 bd b5 a8 02 be 96 a5 f6 bc
       -0.100670025 -0.09509983 -0.12759669 -0.030108254
0002e0 76 08 a6 3d 96 9c 0a be 1b c9 b7 3d 63 5b 09 be
       0.081070825 -0.13536295 0.08973905 -0.13413768
0002f0 be 23 f2 3d 58 f1 b5 bc ff d6 19 3d 62 23 d9 be
       0.118232235 -0.022209808 0.037558552 -0.42409807
000300 9b f7 d8 3d be 19 a8 3d 16 dc 58 bc 46 c2 41 3d
       0.10594102 0.08208035 -0.013236066 0.047304414
000310 69 c4 14 bc 4e 2a c9 3d 16 f6 d9 bd d1 ea 11 bd
       -0.009080031 0.09822522 -0.1064264 -0.03562433
000320 39 78 05 3e fb 42 b6 bd 2e 0b c1 bc 36 37 09 be
       0.13034143 -0.08899494 -0.023564901 -0.13399968
000330 fc 4d 97 3d b0 9e 07 3e e1 b4 6a 3e 11 d9 c8 bd
       0.07387921 0.13244128 0.22920562 -0.09807027
000340 9f ee b5 bd 2a c0 df bd 33 c8 13 bb 24 a0 1c be
       -0.08883404 -0.10925324 -0.0022549748 -0.15295464
000350 e8 06 1b be 72 14 19 3c 4b 05 0d 3c b4 2b dd 3d
       -0.15139353 0.009343253 0.008607219 0.10799351
000360 12 eb 43 3d f3 4a 1b 3e 27 bb 78 bc b8 ed a4 3d
       0.047831602 0.1516531 -0.015181339 0.08053154
000370 c6 57 cf 3d 5d 27 45 3e 21 1f 55 3e 46 c8 18 bd
       0.10124163 0.19253297 0.20812656 -0.03730037
000380 5d cf 3c be 97 7e 99 3b eb 4d 7e bc f5 28 2a 3d
       -0.18438478 0.00468428 -0.015521507 0.041542966
000390 f2 b1 f9 bd 92 cb ef 3d 12 c0 a3 bd 7a b8 e7 bd
       -0.121921435 0.1170875 -0.07995619 -0.11314483
0003a0 98 08 54 3d 93 2d 12 be 6b 94 2e 3d c5 6b f0 bd
       0.05176601 -0.14275198 0.04262201 -0.117393054
0003b0 89 ff 00 bd ca 4b 5c be 5f 46 41 be 4a 3e ea 3d
       -0.031493697 -0.21513286 -0.188745 0.11437662
0003c0 d8 43 92 3e 2f e1 95 bd 91 64 d1 bc a4 3e 19 be
       0.28567386 -0.07318341 -0.02556065 -0.14965302
0003d0 55 42 b6 3d 6d 29 04 3e 4e 7f d0 3b 2b ec ab 3d
       0.088993706 0.12906428 0.006362832 0.08394655
0003e0 0d 79 f8 bd 96 f1 44 be 47 a8 ec bd ee d6 2d bc
       -0.121324636 -0.19232783 -0.11555534 -0.010610325
0003f0 bf 7b 1c be 85 95 b4 3d f4 71 ac 3b 10 e1 51 bd
       -0.1528158 0.08817581 0.0052626077 -0.051240027

fc1.bias f4 [256]
000000 b6 ac cb bd 0e 23 77 bd d3 43 46 be fc 0c 24 bd
       -0.09945051 -0.060336165 -0.1936181 -0.040051445
000010 b6 13 e2 bc ad be 8a bd b1 41 18 be d2 b1 6b bc
       -0.02759729 -0.0677465 -0.1486881 -0.014385657
000020 63 5c a8 bd d4 f6 15 bd b7 09 15 be e5 ca 4c 3c
       -0.08220746 -0.036612347 -0.14554487 0.012499546
000030 cf 95 44 be 1e d3 50 be fc b8 b6 3d a9 eb 58 be
       -0.19197772 -0.20393035 0.08922002 -0.21183647
000040 ba 67 2f be 86 6f 13 be 98 79 c1 bd a2 d8 88 bd
       -0.17129412 -0.14398012 -0.0944702 -0.066819444
000050 74 68 96 bd f5 db 58 bd 10 8c 01 3f 56 73 d4 bd
       -0.073441416 -0.052944142 0.50604343 -0.10373561
000060 a7 b0 38 bd 68 3c 3f bd b9 fe bb bd 3a 2d b9 bd
       -0.045090344 -0.046688467 -0.09179444 -0.090418294
000070 43 2a dd bb 7c c4 81 bd 32 55 fd bb 49 ac 3f 3d
       -0.0067494228 -0.063363045 -0.0077311033 0.046795163
000080 c1 0c e3 3e d6 d5 24 bd 81 5e 95 bd a6 d5 e9 3c
       0.44345668 -0.040242992 -0.07293416 0.028544258
000090 c7 c7 cb 3e 67 a8 74 bd c9 a8 ef bc 6c eb 1c 3e
       0.39800856 -0.059730913 -0.029255288 0.15324181
0000a0 99 16 9c 3d 4d 62 c9 bd 95 c3 18 3e 02 6a f9 bc
       0.07621498 -0.098332025 0.14918359 -0.030446056
0000b0 ff 99 e7 bd b1 6e 5a be 85 8b 6f be fd 8e 19 bd
       -0.11308669 -0.21331288 -0.23393066 -0.03748988
0000c0 06 09 0d be 13 4b 10 be 43 b9 f2 bd 6a f9 bb bd
       -0.13772973 -0.14091139 -0.11851742 -0.09178431
0000d0 1b 32 d4 3d 77 43 5d 3c eb c4 82 bd 29 de ac 3d
       0.10361119 0.013504854 -0.06385215 0.08440811
0000e0 6f 26 1b be 85 83 4b bd de eb 8a bd 6c 8a 35 be
       -0.1515138 -0.049685974 -0.06783269 -0.17728585
0000f0 2c ed 06 be 20 db 1a be 93 23 a5 bd ee c6 2e be
       -0.13176411 -0.15122652 -0.08063426 -0.17068073
000100 69 11 a6 bd b8 55 11 3e c7 c8 af bd 34 ef 8c bd
       -0.081087895 0.14192855 -0.08583217 -0.06881562
000110 cc e9 1b be a3 e7 03 3e 38 63 a3 bd c3 b1 59 bd
       -0.15225905 0.12881331 -0.07977909 -0.053148042
000120 83 92 26 be c3 36 36 be 99 b0 3a be ad 63 25 be
       -0.16266827 -0.17794327 -0.18231429 -0.16151305
000130 f7 cd a5 bd 4f 19 7f bd 2b 2b ed bd 96 05 b0 bd
       -0.08095925 -0.062279996 -0.11580499 -0.085948154
000140 b4 81 2c bc da d7 9b 3d 3c cf 28 bd 57 8e 07 be
       -0.0105289705 0.0760953 -0.04121326 -0.13237892
000150 d9 01 c0 3d ea 76 a8 bc a0 d9 f3 bd f4 dd 6d bd
       0.093753524 -0.020564515 -0.11906743 -0.058073
000160 c2 98 08 be d0 0a dd 3d c8 c7 93 bd cc fc 7c bd
       -0.13339522 0.10793078 -0.072158396 -0.061764523
000170 0a c6 45 be d4 b0 e6 bd e5 e8 41 be f4 76 08 be
       -0.19313827 -0.11264196 -0.18936498 -0.13326627
000180 4f cb 61 be 1f 85 5d bd a1 1b e3 bd 99 02 38 3d
       -0.22050212 -0.054082032 -0.11089254 0.044924352
000190 af 70 2d bd 56 27 15 3e 69 64 41 be d0 34 b7 bd
       -0.04234379 0.14565787 -0.1888596 -0.0894562
0001a0 94 ee 59 bd de 5d 9d bc 0d 1d 84 bd a5 b4 3c bc
       -0.05320604 -0.019209798 -0.064508535 -0.011517678
0001b0 fe 82 a8 bd a8 47 b8 bd 37 70 e7 bd 7e 46 22 be
       -0.0822811 -0.08998042 -0.113007 -0.15847203
0001c0 81 f5 9d bd 11 fa a0 bd 55 e3 8f bd aa b8 a7 bd
       -0.07712842 -0.078601964 -0.07025782 -0.08189519
0001d0 c1 ac 5a be c2 ba 6d bd 9d 22 42 be 39 c4 54 bd
       -0.21354963 -0.058039434 -0.18958516 -0.051944945
0001e0 a5 3d 91 bd bc 18 44 bd 1a f0 4b bd fb ba 73 bb
       -0.07091836 -0.04787515 -0.049789526 -0.0037190306
0001f0 41 dd 3c bd 62 5b 01 be 03 59 fa bc 63 8f 65 be
       -0.04610944 -0.12632516 -0.030560022 -0.22417979
000200 97 12 e1 bd 15 4a 81 be 9e 2e 77 bd 3b 93 98 bd
       -0.10989874 -0.25251833 -0.060347192 -0.07449957
000210 f8 0e 49 bd 4f e5 0d be c4 69 e6 bd cf c0 98 bd
       -0.04908654 -0.13857006 -0.11250642 -0.0745865
000220 33 a9 94 bd 6a 16 39 be 3a a6 9b bd f7 2f 8e bd
       -0.07258835 -0.18074957 -0.076000646 -0.06942742
000230 ec e1 34 3e b5 e2 33 be 54 e2 4f be c7 67 8f 3e
       0.17664307 -0.1756695 -0.20301181 0.28008863
000240 88 47 e5 bd ba 96 62 3c f8 f0 77 bd a3 cd da bd
       -0.11195284 0.013829881 -0.06053254 -0.10683753
000250 52 0d 6e bd cd 0a 21 be 40 d6 2a 3e 78 ce 8c bd
       -0.058118172 -0.15726776 0.16683292 -0.06875318
000260 9b ca d2 bd db b3 ef bd 78 ec 7a bd 09 26 5c be
       -0.1029255 -0.117042266 -0.06126067 -0.21498884
000270 38 5f e2 bd 7a be 5f bd 00 eb ca 3d 3e 99 a2 bd
       -0.11053318 -0.054625012 0.09908104 -0.07939385
000280 02 c3 b0 bd 19 5b 8a bd 0d e5 a9 bd 2a 7c 83 bd
       -0.08630945 -0.06755657 -0.08295641 -0.06420167
000290 18 9a 4a 3c 6d 71 16 bd 11 a1 75 3e c0 a9 ee 3d
       0.01236584 -0.036729265 0.23987223 0.11653471
0002a0 61 9c 09 be a1 0e 14 be 9d 7d ee bd aa 26 14 be
       -0.1343856 -0.14458705 -0.116450526 -0.14467874
0002b0 bd ea 15 be 8c 51 31 be 37 00 5f be 70 95 c6 bc
       -0.14640327 -0.17316264 -0.21777426 -0.02424118
0002c0 24 af 9f bc 13 70 85 bd 75 8a 6b bd 88 6b 8c bc
       -0.019492693 -0.06515517 -0.05750509 -0.017141119
0002d0 6b 41 25 3d c7 2c 06 be da 94 8e bc 72 8f 8b bc
       0.04034559 -0.13103019 -0.017404962 -0.017036173
0002e0 a9 0e e5 bc 5b 92 5b 3d fe 12 0b bd 85 62 a9 3e
       -0.027961092 0.053606372 -0.03395366 0.33082977
0002f0 2b 84 56 bd c7 42 fb bc 99 f0 a8 3e de 4a 36 3e
       -0.05237214 -0.03067149 0.3299606 0.17801997
000300 74 72 76 be a8 df 47 bd 6e 00 23 be 69 aa 2e be
       -0.24067098 -0.04879728 -0.15918133 -0.17057194
000310 c1 d1 96 3e 90 7f 12 be d2 ac 8e bd c1 76 1d be
       0.29456905 -0.14306474 -0.069665566 -0.15377332
000320 6c b6 31 3e e3 59 af bd 8b 61 20 be fb 40 37 be
       0.17354745 -0.085620664 -0.1566221 -0.17895882
000330 97 e8 89 bd cc 4a 1a bd a8 31 4d be 23 69 51 bd
       -0.06733816 -0.037668988 -0.20038474 -0.051125657
000340 7e 7d 4e 3e bb c2 43 be 2f 24 b4 bc 1e f3 5e bd
       0.20165059 -0.19117253 -0.02198991 -0.054431073
000350 41 00 43 be c1 e7 d5 bd dd 47 27 bd e1 4b 8d bd
       -0.19043066 -0.10444594 -0.04084002 -0.068992384
000360 59 bb eb bd c8 9b 8f bd 50 81 ce bd 54 1c 6a be
       -0.11510343 -0.07012135 -0.10083258 -0.22862369
000370 bc 28 03 be 65 c4 90 3d 0c 5f 60 bd f7 45 b3 bd
       -0.12808508 0.07068709 -0.054778144 -0.08753579
000380 51 10 d5 bd 3f 18 38 bd 20 80 10 bd 99 8c 7b 3e
       -0.10403503 -0.044944998 -0.03527844 0.24565352
000390 94 6d 58 be 52 37 77 bd 77 aa c7 bd 04 3f 22 be
       -0.2113555 -0.060355492 -0.097493105 -0.15844351
0003a0 2e 5a 73 bd f8 b3 8c be bd 4f d7 bd cb 6c 19 be
       -0.059412174 -0.27481055 -0.10513256 -0.14982907
0003b0 41 aa a2 bd c0 d1 3d be a8 3c 42 be 0e 26 49 bd
       -0.079426296 -0.18537045 -0.18968451 -0.049108557
0003c0 ec af 6c be 1a 2e 01 bc fa 9b d0 bd 76 13 e7 3d
       -0.23113984 -0.007884527 -0.10186 0.11283009
0003d0 e1 41 fb bc 4e e9 57 be c6 e6 e4 bd 28 69 d5 bd
       -0.030671062 -0.21085092 -0.11176829 -0.104204476
0003e0 e6 e8 13 be 87 d9 59 be 14 c7 39 be 02 5b 86 be
       -0.14444312 -0.21274386 -0.18142349 -0.26241308
0003f0 59 b7 0b be 6d 80 fc bd 96 b4 b7 3b e9 de 30 be
       -0.1364416 -0.12329183 0.0056062443 -0.17272533

fc2.weight f4 [128, 256]
000000 00 ed b2 bd a1 ba 1f 3d 12 e9 56 bb 6e 59 b3 bd
       -0.087366104 0.038996343 -0.003279273 -0.08757292
000010 ab 34 3e bb 2c 81 40 bd a5 14 93 3c 98 90 d4 bd
       -0.0029023092 -0.046998188 0.01795418 -0.103791416
000020 f0 e8 d9 bb 62 42 16 bc 3b ee 81 bc 36 84 31 3d
       -0.0066500828 -0.0091711 -0.015860667 0.043338977
000030 40 71 89 ba 1a 9c d4 bd 14 c7 96 3c c3 47 8c bc
       -0.0010486022 -0.103813365 0.018405475 -0.017124062
000040 b3 fa 10 3c 3f 77 46 bd 88 86 f2 3c 80 1f f1 bb
       0.008848834 -0.048453566 0.029605165 -0.0073584914
000050 d0 12 78 bc e4 ca 9e 3c 87 4e d9 bd ab 5c f4 3d
       -0.015141204 0.019383855 -0.10610681 0.119317375
000060 c5 8c b3 bd 0e 78 f5 3c 54 f0 11 3d 20 47 8d bd
       -0.08767084 0.029964473 0.035629585 -0.06898332
000070 37 6f 9a bd ee 04 15 bc e2 96 38 3d 03 63 16 bd
       -0.07540744 -0.009095414 0.045065768 -0.03671552
000080 3a 38 b5 3c 56 5e 30 bd 54 4f 64 3c 64 83 e0 bc
       0.022121537 -0.043058716 0.013934929 -0.027406402
000090 84 7a d1 3c 17 74 8a bd fc 99 71 bd 0c 9b e1 bb
       0.025571115 -0.06760424 -0.05898474 -0.006884938
0000a0 e7 66 b2 bd 76 c6 0b bd ee 63 d4 ba 95 3f fd bd
       -0.08711033 -0.034124814 -0.0016204098 -0.12365643
0000b0 26 64 3b bd 55 9f 8b 3b a4 d8 08 be 55 b3 23 3d
       -0.045749806 0.004260937 -0.13363892 0.039965946
0000c0 fd 3a 9a bd c1 9b c4 bd 03 55 53 bd c5 b6 01 bb
       -0.07530782 -0.0960002 -0.051594745 -0.0019792777
0000d0 5b cf 9e bd 9b ba b2 bd 25 ab 60 3d e3 90 7e 3c
       -0.07754394 -0.087269984 0.054850716 0.015537473
0000e0 80 24 93 3d 92 16 53 3c 57 53 86 bd 6f ae c1 3c
       0.07184696 0.012883799 -0.065588646 0.023642747
0000f0 6e ff 33 3c 2e c7 5d bd 35 47 50 bc 90 e5 1c 3d
       0.010986192 -0.05414503 -0.01271229 0.038304865
000100 7e 80 0e be e9 29 23 3d 94 b4 0d bd c1 1a a9 3d
       -0.13916203 0.03983489 -0.03459604 0.08257056
000110 99 ce 14 bd 16 d6 b1 3c 88 0c 70 bd 64 59 37 3d
       -0.03632984 0.02170853 -0.0586057 0.044762984
000120 2d 94 7a 3b f1 65 fa bc dd 4b 87 3d f4 8f 5c 3d
       0.0038235292 -0.030566188 0.06606267 0.053848222
000130 87 ad 6b bb 53 89 07 3d fb 9a 11 3e c1 84 bb 3b
       -0.0035961585 0.033089947 0.14219277 0.0057226126
000140 6e cb ed 3c 7a 3e 99 bd 78 4a 5c bd 21 c5 3e bd
       0.029027667 -0.074826196 -0.053781956 -0.046574716
000150 9d 53 e4 bc b2 5e da bc 54 4e 95 bd 7b 08 f2 bd
       -0.027871901 -0.026656482 -0.072903305 -0.11818024
000160 32 9a c2 bb 5a 68 c8 bd 7c 9e 57 bc 46 7e 5f bd
       -0.0059387917 -0.097855285 -0.013160344 -0.054563783
000170 07 40 c8 3d 46 3f 7e bd 70 f2 20 3d 29 8f a1 3c
       0.09777837 -0.06207206 0.039293706 0.019721584
000180 cd 7e 36 bd f5 a9 9f 3c 6d 06 8e 3a 9c 75 80 bd
       -0.04455452 0.019490222 0.0010835655 -0.06272432
000190 04 b7 6f bd cc 92 9e bc 9c 05 6c bc 7c ab e6 bc
       -0.058524147 -0.019357108 -0.014405634 -0.028157942
0001a0 52 0f f9 bc e5 7b ab bd 51 28 6e bb 43 46 bf bd
       -0.030402813 -0.083732404 -0.0036339948 -0.09339573
0001b0 24 58 01 bd 80 e2 9f 3a 2f 2e 5e 3c 46 69 02 bd
       -0.031578198 0.001219824 0.013560816 -0.031838678
0001c0 29 5a 77 bd 7e e2 03 3e b4 c1 e2 bc 54 5a a6 3c
       -0.060388718 0.12879369 -0.027680255 0.020306744
0001d0 8d 6d 29 3d 3a b5 c1 3c fc 4c 6f bd 98 60 1f bd
       0.04136424 0.023645986 -0.058423027 -0.03891048
0001e0 a8 2f 03 be 4a 9e 72 3c 7e bc 1d 3d 62 9f aa bd
       -0.12811148 0.014808247 0.03850984 -0.08331181
0001f0 b5 96 3c bb f3 12 b4 3d 07 59 a9 3b 12 80 96 3b
       -0.0028776352 0.08792677 0.0051680836 0.004592904
000200 00 72 9c 3d d4 69 11 bc 47 61 4a bc c6 4c a9 bd
       0.07638931 -0.008875329 -0.012352294 -0.082665965
000210 f7 0f e5 bc 78 ba 12 3d f2 79 59 3b 40 78 75 bc
       -0.027961714 0.03582236 0.0033184257 -0.014982283
000220 c5 98 45 bd 92 da 8c bb 86 1e 88 3d c1 3a 71 3c
       -0.048241396 -0.0042985165 0.06646447 0.014723481
000230 46 74 3b 3c 56 dc 9d bc 51 dc 94 3d 99 d1 1e bd
       0.011441296 -0.019270103 0.072685845 -0.038774107
000240 d4 1c 8b bb dd 53 4f bb 1d b2 90 3c 98 88 29 3c
       -0.00424538 -0.003163568 0.017663056 0.010347508
000250 a9 78 91 3d 63 dd 4c bd dc d8 75 bd 39 67 6a bd
       0.07103092 -0.05001582 -0.060021266 -0.057227347
000260 f6 7e 38 bd 93 2e f0 3d e1 49 08 3d a3 11 43 3b
       -0.045042954 0.11727633 0.03327358 0.002976515
000270 34 e2 6f 3c 02 b6 46 bd c9 13 8c bc ba f1 5d 3c
       0.014641333 -0.04851342 -0.017099278 0.013546402
000280 e4 22 bc bd 0b ea 85 bd f1 05 0c 3d 43 42 00 3e
       -0.09186342 -0.06538781 0.034185354 0.12525277
000290 05 fd 74 bc 5a 4d 90 bd 3c 59 2a bc a9 9b 7f 3c
       -0.014952903 -0.07046004 -0.010397252 0.015601077
0002a0 2d 83 1a bd 71 f7 fb 3c 7d 06 55 bd 48 7e db bc
       -0.037722755 0.030757638 -0.05200814 -0.026793614
0002b0 f0 ae ea bc 15 8a 0c 3c fc 0a cb 3d 0e 21 63 bd
       -0.02864787 0.008577843 0.099142045 -0.055451445
0002c0 c8 a1 6a bc db a2 7f bd 82 d7 b4 bc 30 1a a0 bd
       -0.014320798 -0.06241117 -0.022075418 -0.07817495
0002d0 7a 42 65 3d 9c 9f bf bc 4c eb ae bd 2d 97 b2 bd
       0.0559716 -0.023391537 -0.08540973 -0.08720241
0002e0 27 19 53 bd 74 64 bd 3c 93 fd ef 3c f8 3d 87 bd
       -0.05153766 0.023119189 0.029295718 -0.066036165
0002f0 af 6a ba bd 14 6e 87 bd 20 00 08 be 89 93 a5 bc
       -0.091023795 -0.066127926 -0.13281298 -0.020211952
000300 f1 c0 72 3d 3b 23 83 bd 98 f7 44 3d 92 fa c2 3c
       0.059266035 -0.06403204 0.048087686 0.023801122
000310 c2 45 b6 bc 1b b6 ff 3c 92 51 9b 3c 4a 91 fa bc
       -0.02225006 0.031214764 0.018959794 -0.030586857
000320 ef d9 3a 3c 31 30 aa 3d 98 2c d4 bc 9b 09 b5 3c
       0.0114044985 0.08309973 -0.02590017 0.022099307
000330 be 52 6a 3d 5d d5 a7 3d 82 40 76 bd 31 b5 2b bd
       0.057207815 0.08194993 -0.060120113 -0.041920844
000340 47 21 93 3b c5 20 c5 bd 2f be f1 bc 38 b6 00 bd
       0.004490051 -0.09625391 -0.029509632 -0.031423777
000350 ab b4 87 bb 24 61 71 3d b3 27 e0 3c 3a 3e a8 bd
       -0.0041414103 0.05893053 0.02736268 -0.08214994
000360 ac 9e 67 bd c8 ef a6 bd c6 d6 c2 3d c7 f1 5c bd
       -0.056547806 -0.081512034 0.09513621 -0.053941514
000370 ea b3 db 3c 5b bb 29 3c dc 6e 96 bd d8 97 a6 bd
       0.026819188 0.01035961 -0.073453635 -0.08134431
000380 b0 ea d2 3c 38 93 5d 3d f5 69 e9 3d b1 65 25 bd
       0.025746673 0.054095477 0.11397163 -0.040380184
000390 3f d3 b9 3b 20 19 84 bd 05 fd 79 bd 67 51 37 bd
       0.0056709344 -0.06450105 -0.061032314 -0.044755366
0003a0 2f 9e c2 3d b9 cb e9 3d 2a 06 6c bc 40 29 4e 3d
       0.095028274 0.1141581 -0.0144057665 0.050332308
0003b0 f6 5a 32 3b 7d 14 3c 3c c4 be 42 3d 8a 07 32 3c
       0.0027214861 0.011479494 0.04754521 0.010866055
0003c0 46 40 cf bd 35 67 b1 bc ed 0b 63 3c 6a 7e 80 bd
       -0.10119681 -0.021655658 0.013857824 -0.062741116
0003d0 3e c5 9d bb 85 3b ba bd be d8 d4 3d d1 9a c0 bc
       -0.004814773 -0.09093384 0.10392903 -0.023511322
0003e0 b2 2c 8f bd 4b a0 4a bd d6 a7 d9 3d 6a b1 5a 3d
       -0.06990947 -0.049469274 0.10627715 0.05339185
0003f0 3a 45 46 bc c5 35 aa bd 19 96 01 bc 0c 72 d3 bc
       -0.012101466 -0.08311037 -0.007909321 -0.025811218

fc2.bias f4 [128]
000000 2c 32 8e bd b7 b4 a8 bd 84 0b 6c be 61 9d c6 3c
       -0.06943163 -0.082375936 -0.23051268 0.024244966
000010 5c bb b5 bd 9c 2d 3d bd 18 fc 86 bd 0a 2f c4 bd
       -0.088736266 -0.046186075 -0.06591052 -0.095792845
000020 0b be bb 3d 4d 80 1b be f2 66 98 bd b5 a6 96 bc
       0.09167107 -0.15185662 -0.0744151 -0.018390039
000030 2b 78 98 3d 5e 97 8f bd 24 19 d2 bc de 63 dc bd
       0.07444795 -0.07011293 -0.025646754 -0.10761236
000040 a4 c5 d0 bd 3a ff 92 bc bc 67 87 3e d3 f3 88 3e
       -0.10193947 -0.017943967 0.2644633 0.26748523
000050 e3 66 f2 bc 50 2c 36 bd 2c 3b e0 3a 8d f3 72 bd
       -0.029590076 -0.044475853 0.0017107478 -0.0593143
000060 f9 dd 7a bd b6 c7 54 3e 8a 9f 54 bd fd b5 41 bd
       -0.061246846 0.20779309 -0.05190996 -0.0472927
000070 84 35 8c bd e9 ad ea bd a2 81 03 be 5b 1a 0d 3d
       -0.06846145 -0.11458952 -0.1284242 0.034448963
000080 22 b5 17 bd 0b a9 ac 3d 5b d3 2e bd 4c 3a 9b 3d
       -0.037037976 0.0843068 -0.042682033 0.075794786
000090 78 b4 45 bd a9 68 87 3e a9 e1 ee bd 3c 53 61 bd
       -0.04826781 0.26447037 -0.11664135 -0.05501102
0000a0 61 ea 52 3d 30 20 cf bb dc f8 24 be 30 e4 46 bd
       0.051493052 -0.0063209757 -0.16110557 -0.04855746
0000b0 dc 75 12 bd 78 67 37 be 8f 39 b8 bd 54 7f 71 bd
       -0.03575693 -0.17910564 -0.089953534 -0.05895932
0000c0 5d ad 49 bd 94 6e 13 bd 16 f3 b2 bc 38 29 80 bc
       -0.049237598 -0.035994127 -0.021844428 -0.015644655
0000d0 bb 41 8e 3e 2e ac 9b 3d 74 e3 a0 bd 8f 86 b6 bd
       0.27784523 0.076012 -0.07855883 -0.08912384
0000e0 90 23 85 bc bb 7f c4 bd 19 46 b9 3e bc f0 4b 3c
       -0.01625231 -0.09594675 0.36186293 0.012447532
0000f0 e2 6a d8 bd e1 6d b0 bd 43 d3 b3 bd f6 9e 61 3d
       -0.10567261 -0.08614708 -0.08780529 0.055083238
000100 e1 2b 13 bd 91 0c e7 bc c0 68 ea bc b0 66 01 be
       -0.035930518 -0.028204234 -0.028614402 -0.12636828
000110 f9 ef 7a bd ee d0 3d bd 06 fd 1c 3d b4 10 f2 3b
       -0.061264012 -0.04634183 0.03832724 0.007387245
000120 7b 19 53 bd 26 1b 43 3d f4 2e f9 bc f9 97 2c bd
       -0.051537972 0.047633313 -0.030417897 -0.04213712
000130 82 27 09 3e 0c fb 5f bd 73 df c8 bd 18 6a 2a bd
       0.13393977 -0.054682776 -0.098082446 -0.041605085
000140 fb 55 bf bc 4c 73 e8 3c e8 3b d0 bd 53 0d 85 bd
       -0.023356428 0.02837529 -0.10167676 -0.06496682
000150 be 33 ea bd a6 ce be bd ed 33 ba 3e c2 ec 78 bd
       -0.1143565 -0.09316759 0.3636774 -0.060772665
000160 b7 f0 ea 3c 45 38 2b bc ad 4e b0 3a a4 0a 05 bd
       0.028679235 -0.010450427 0.0013451182 -0.03248085
000170 6a 22 29 bd 27 35 d5 bd dd 6f 5b bd 3f d9 8a bd
       -0.041292585 -0.10410529 -0.053573478 -0.06779718
000180 fa 48 98 bc 2b 2e 98 bd a5 21 c3 bc a6 18 d8 bd
       -0.018589485 -0.07430681 -0.023819754 -0.10551576
000190 51 e5 07 bd 2e ce d1 3e 36 d0 c5 3d ee dd 26 bd
       -0.033177678 0.40977615 0.09658854 -0.040738992
0001a0 99 92 e5 bd 4a 20 ab bd ca 6d d8 bd 01 85 e1 bd
       -0.11209602 -0.08355768 -0.105678156 -0.110116966
0001b0 55 8c fd bd 09 07 c1 bd 56 18 c8 3e 69 f3 18 3d
       -0.12380282 -0.0942517 0.39081067 0.03734151
0001c0 a4 c4 a1 ba f0 5a 54 bd 40 ce 40 bd 49 f0 95 3d
       -0.0012341929 -0.051844537 -0.047071695 0.073212214
0001d0 84 82 28 3d 68 6b 9e bd 48 08 70 bd 73 85 10 bd
       0.041140094 -0.0773533 -0.058601648 -0.035283517
0001e0 bb 59 d6 bd a8 71 bc 3c 16 7e a8 3d 42 6a 80 3d
       -0.104663335 0.023003414 0.08227174 0.06270267
0001f0 01 fb 0d 3d b0 55 56 ba 01 b9 27 3a 35 c3 37 bd
       0.034663204 -0.00081762206 0.0006398112 -0.0448639

fc3.weight f4 [2, 128]
000000 50 83 b7 bd 59 d8 87 bd 1d 6e 1e be 1e 16 68 3d
       -0.08960593 -0.06633062 -0.15471692 0.056661718
000010 9a ff bb 3d 7d e2 fe bc bf b1 92 3d de b5 4c bc
       0.091796115 -0.031113857 0.071628086 -0.012494532
000020 1b 4d 21 3d 55 a5 38 3e 91 85 33 3c 03 64 ba 3c
       0.039380174 0.18031819 0.010957138 0.022752767
000030 50 49 c6 3d 64 b2 ed bc ba bd 03 bd ac 02 89 3c
       0.09681952 -0.029015727 -0.03216336 0.016724907
000040 ae cc a9 3d 1d a9 ca 3d 1b 7d d5 bc a3 22 c0 bd
       0.08290993 0.09895537 -0.026060631 -0.093816064
000050 6f 30 c7 ba aa 43 90 3d c0 7e ad 3d 6c d5 38 3d
       -0.001519693 0.07044156 0.08471441 0.04512541
000060 3e f5 82 3c ba 5b 53 bd a2 b4 aa 3c 9d d4 53 bb
       0.015986081 -0.05160115 0.020838086 -0.0032322772
000070 e8 d7 2b 3b 27 e2 bf 3c a4 39 20 3d 07 b1 e2 3d
       0.002622122 0.023423268 0.03911747 0.110689215
000080 c3 2f 4a 3d 3c 9e 8b 3d aa 87 f2 bc 29 52 d4 3d
       0.049361955 0.0681729 -0.029605705 0.10367233
000090 67 8a 69 3b a4 91 55 be 1f 9a 23 bc d0 90 dd 3c
       0.0035635473 -0.20856339 -0.009985476 0.027046591
0000a0 19 b5 9b 3d cd 28 c4 3b 6e 8d 37 3c f7 38 0f 3d
       0.07602901 0.005986309 0.011203153 0.034966435
0000b0 ea f5 21 b9 06 9d 17 bc de bf b3 bb 1c f1 e5 bc
       -0.00015445767 -0.009253746 -0.005485519 -0.028069071
0000c0 04 ba 6b 3d dd d8 bd b9 a7 19 49 bc 31 82 0d 3e
       0.057550445 -0.00036210465 -0.012274182 0.13819195
0000d0 26 81 77 bd 53 7b 66 3d 7a 13 72 3c ce d6 a3 3c
       -0.0604259 0.056269955 0.014775151 0.019999888
0000e0 7b b3 de 3c a8 a6 b3 bc e2 97 37 be 39 3c 97 bc
       0.027185192 -0.021930054 -0.17929032 -0.018461334
0000f0 12 fd a3 3c 05 f6 16 3c db 95 46 3d dc e9 57 bd
       0.020018134 0.009213929 0.048482757 -0.05271326
000100 59 e2 8b bc f7 1f c8 bc 5b 6c bf bb fc 6a ef bd
       -0.017075704 -0.024429305 -0.0058417744 -0.116903275
000110 90 81 2d bc f4 4b cf bc 44 be 88 bd b2 56 18 3c
       -0.010589972 -0.025304772 -0.06676915 0.0092980135
000120 3f dc 11 bd da 45 6c 3d 90 0c 3c bc 99 79 82 3d
       -0.035610434 0.057683803 -0.0114776045 0.06370849
000130 a7 7a dc bc 5b 63 37 3d 68 fa e0 3d d8 6a a3 bc
       -0.026913954 0.044772487 0.10985261 -0.019948408
000140 51 aa 5e bc c1 f4 12 3d a3 64 df ba db 5b 42 bd
       -0.013590411 0.035877947 -0.0017043542 -0.04745088
000150 29 43 8a 3d 4d 00 41 3d d9 16 0c bf 3b 48 cb bc
       0.06751091 0.047119427 -0.5472236 -0.024814716
000160 b3 0e 32 3d 83 59 bd bc f8 45 a1 3d cf 95 de bc
       0.04347105 -0.023113972 0.078746736 -0.027171044
000170 24 e9 f2 3c 4c c9 93 3b 0d c3 a1 3b 79 63 98 3d
       0.029652186 0.0045100804 0.004936582 0.07440848
000180 f1 a3 d4 3d b7 4c 03 3d b4 f3 08 bc 5f d0 d8 3c
       0.10382832 0.032055583 -0.008358885 0.026466547
000190 fe 4a 2a 3d 36 c9 1a be 5b 50 cc 3d 3b fa 59 3c
       0.041575424 -0.15115818 0.09976264 0.0133042885
0001a0 0c 93 c4 3c 37 d6 ca bb 88 2f 8a bb a6 92 71 3c
       0.023995899 -0.006190087 -0.004217092 0.014744436
0001b0 72 77 34 3b d9 39 10 3c 69 4c 5c be f9 33 96 3d
       0.0027537015 0.008802854 -0.21513523 0.07334132
0001c0 f8 3e 0c 3e a0 34 14 bc 00 a9 8a bc 4d dc c0 3d
       0.13695896 -0.00904575 -0.016926289 0.09417019
0001d0 fd e6 b4 3d c6 12 80 bd 1a c9 de 38 ea 5e 5e bc
       0.0883312 -0.06253581 0.00010623243 -0.013572434
0001e0 62 69 f9 3c 0a 1e 15 bd af a8 d7 bc 79 de 8e bc
       0.030445758 -0.0364056 -0.026325552 -0.017440068
0001f0 15 e1 ca 3d 90 22 cb 3c 35 b8 86 bc d0 6f 94 3d
       0.09906212 0.024796754 -0.016445259 0.07247889
000200 d2 42 61 bd 06 40 97 3c 22 40 61 3e 65 08 27 bd
       -0.054995365 0.018463146 0.21997121 -0.04077949
000210 00 8d a9 3c 85 9b f4 bb 21 ed 4a 3a 09 d8 9d ba
       0.020697117 -0.0074648284 0.00077410234 -0.0012042533
000220 2b 4c 7a bd a5 f8 00 be 6d f0 bd 3d db 36 39 bd
       -0.061107796 -0.1259485 0.09274373 -0.04521833
000230 4f d0 63 bd d6 26 a7 bd 26 87 87 bd 2c 43 aa bc
       -0.05561858 -0.08161704 -0.066175744 -0.020783983
000240 92 bf 8c 3c 88 cf e4 bd ad c0 26 3e 33 aa fc 3d
       0.017181192 -0.11172396 0.16284437 0.123371504
000250 75 58 c9 3b e3 c8 d7 bc cc 0a 76 3a a5 30 65 3c
       0.006144578 -0.026340907 0.0009385764 0.013988649
000260 db 99 01 3e b2 ff 88 3c 33 70 52 3b 2b 44 0c 3d
       0.12656347 0.016723488 0.0032110333 0.034244698
000270 31 64 87 bb 33 d9 be 3c 8e a0 30 3d 80 52 81 bc
       -0.004131817 0.023296928 0.043121867 -0.01578641
000280 92 15 7a 3d 47 94 88 bd 92 60 18 bd 4d 34 e5 bd
       0.061055727 -0.06668907 -0.03720147 -0.11191616
000290 b1 e0 88 bc ca 55 06 3e fb 5f 93 bd eb d8 2e bb
       -0.016708704 0.13118663 -0.07196041 -0.0026679586
0002a0 2f 3f ed bb b6 5a 87 3d b9 ef 09 be 00 53 3f bd
       -0.007240198 0.066090986 -0.13470353 -0.046710014
0002b0 b7 0e 03 bd 82 11 1c bd b1 2c 89 bd ce 38 8c 3c
       -0.031996455 -0.038102634 -0.06697977 0.01711693
0002c0 09 2f b6 bd 86 e9 ae 3d f1 89 6d bd da 27 bd 3c
       -0.0889569 0.08540635 -0.05799288 0.023090292
0002d0 21 40 bb 3d 87 6f c7 bb 24 cb 9a bd 97 56 46 bc
       0.09143091 -0.006086293 -0.07558277 -0.012105606
0002e0 f2 58 6e bd bb 69 86 3d eb 36 45 3e b5 65 81 bd
       -0.058190294 0.06563135 0.19259231 -0.06318227
0002f0 ea 09 ab bd a1 de 8a bd 6e 04 6a bd 12 8d 48 bd
       -0.083515 -0.06780744 -0.05713313 -0.04896266
000300 fd 67 bc bd 25 b3 f1 bd 17 ef 24 3d b3 17 8c ba
       -0.09199522 -0.11801747 0.040267076 -0.0010688215
000310 b9 71 ea bd 97 cc a9 3d b2 ea 8a bd e2 dc 98 bd
       -0.11447472 0.082909755 -0.06783046 -0.07464005
000320 c6 c3 54 3d 98 5a b6 bd 51 6b 89 39 de cc 25 bd
       0.051944517 -0.08903998 0.00026210633 -0.04047858
000330 3f 05 24 3d 5d 73 61 bd 18 4a d7 3c 2f 14 e1 bd
       0.040044066 -0.05504166 0.026280448 -0.10990178
000340 ad 2a 22 3c 21 48 6c bd 09 a6 85 bc e0 c6 32 3d
       0.00989787 -0.057685975 -0.016314523 0.043646693
000350 58 02 63 3c 41 e5 b1 3b 12 dd ea 3e 6b 99 05 bd
       0.013855539 0.0054289405 0.45871788 -0.032617014
000360 ae ac 5f 3d e1 92 c9 bd d1 58 e2 bb 5c d4 15 be
       0.05460804 -0.09842468 -0.0069075604 -0.1463179
000370 a0 a5 c0 ba 0b 65 66 3d 1c 19 8b bd 70 44 5c 3c
       -0.0014697798 0.056248706 -0.067918986 0.013444051
000380 92 93 0d bc 53 0e 50 bc dd 05 42 bd c7 5e 12 3d
       -0.008641141 -0.012698728 -0.047368873 0.035734918
000390 bd e3 53 bc 79 61 51 3e d6 e5 b5 bd 3b 2a d3 bd
       -0.012932715 0.20447339 -0.08881728 -0.10310789
0003a0 c8 2b 03 bd cd f7 d3 3c 9a a8 cf 3c 41 a5 65 bd
       -0.032024175 0.025874997 0.02534895 -0.0560658
0003b0 b2 17 b0 bc b2 f1 1e 3d 7b 34 40 3e 63 1a ae bc
       -0.021495674 0.038804717 0.1877002 -0.021252817
0003c0 0f 4a 17 be 3c 23 20 bd 28 5c 88 3c d3 e2 e2 bb
       -0.14774345 -0.039096102 0.016645506 -0.006924012
0003d0 54 5f 57 bd 18 66 28 3d f4 cd d8 bc 41 d9 cf 3c
       -0.052581146 0.04111299 -0.026465394 0.02537215
0003e0 d7 28 48 bd 27 b5 c0 bd 4f 1e bd bc 40 21 e0 bc
       -0.048867073 -0.09409552 -0.023085741 -0.027359605
0003f0 5e fa 9d bd c0 fc da 3c a8 15 a9 3b 36 04 2b bd
       -0.077137694 0.026731849 0.0051600523 -0.041752063

fc3.bias f4 [2]
000000 2e 33 a0 3d 8e b1 3e bd
       0.07822262 -0.046556048
