Project 3-Open set recognition/Project/Weights/8_weights.pth (torch, 387487 bytes, 10 tensors)

conv1.weight f4 [64, 1, 7, 7]
00000000: 9078 0d3e 79d4 6c3c 33b4 09be ebe1 2a3e
00000010: 3d4d 153d 69b4 12bd 8e6b 1e3e 89fe 123e
00000020: 51ed 22bd 72f9 6bbd 6cfe 2f3e da3d 943c
00000030: f916 5ebd 8c0d d33d 6bd2 873e fd9e 363b
00000040: 510b 89bd 7ef5 283e eed2 753c e608 9fbd
00000050: 092d dc3c 6e40 443d 197f 1b3d 6c4c 13bd
00000060: ca8b 6cbd c642 363d 2f3d d2bd 17aa a3bd
00000070: fac0 033e 1f76 0e3d d0b7 07be 1320 843d
00000080: 3c96 6a3c ee4b 9bbd 5d07 403e 10a4 4dbd
00000090: 615c 26be 9c29 06be 24bf ed3d acec a03d
000000a0: 4cf6 79bd 4e81 b73d e2de 54bd 6251 0c3d
000000b0: b5fe 223e de62 25bc 2ba4 c03d 8eb0 14bd
000000c0: 2835 963d d2d1 91bc 5f22 9fbe d3d2 4dbc
000000d0: e246 863e e775 8a3d 029f 6ebd 98e0 983d
000000e0: df44 28bd 64b8 bebd 6bca 5b3d ac22 323e
000000f0: 7f3f 723e 37fd 2a3e df72 9b3d 469f 77be
00000100: 0259 93bd f431 c43e af21 a13d 4dda cbbb
00000110: d3c8 a2bc 1e00 a3bd 873f 56be 56e4 883e
00000120: 7c4f a73e 1c71 9a3e d60c 35bd 39d7 903a
00000130: 32b5 02be 37aa 57be bfa0 963e 8d9f b33d
00000140: 8017 5fbd 15b6 49be ce3a a3bd de44 49bd
00000150: 217f 333e 1026 a63e 3b3f 27ba 8fda 4abc
00000160: b644 0dbe 3f4a 08be e69d 513d 152f 463e
00000170: 3e98 3e3e bd03 123d ceb9 40bd 4322 05be
00000180: c332 653d 87da a03d cba1 0abe 7909 afbc
00000190: 7066 f23d 2d1a 3f3e 9c47 993e 380e ba3e
000001a0: 5ced a93e 93e4 00ba 5712 183e 7998 843e
000001b0: ff1f 9c3e 08b9 7a3d 5465 2a3d 20e7 8a3d
000001c0: 62c5 8f3e acb0 2a3e 27fb ed3c 5a19 32be
000001d0: 21ea 113e 1315 243e bb45 13bd a55d 113f
000001e0: 338e 983d 8160 acbe cdf7 cabd 82a0 a9bc
000001f0: 24f5 123e 9e3c 013e 09f1 273f 0f60 36be
00000200: bf03 7cbe 59d7 61be 6737 fe3d b3e6 d53c
00000210: 4f9c b63d 50a6 003f 776e 383e ff72 4fbe
00000220: 1c57 31be 2132 adbd 07c1 8abd 6c55 963d
00000230: a1ef 7c3e 3663 a63e 3bf3 ab3e a8bb adbd
00000240: 0d9d 7cbe bd50 66bd 4efe f83d a4d8 01be
00000250: d1ae 6dbe 3c5f 3ebe 143a d53d 012d 3d3e
00000260: 3494 52bd 2c81 943c 63ab d3bb 2e21 bbbd
00000270: d0e6 753e 1592 b33e 29cd 6f3e 114d 05be
00000280: 0b6f 09be a41f 20be bd2e 8ebc 6406 803e
00000290: ca97 3c3e bac3 01be 4d1b 0dbd 5518 423e
000002a0: 59f7 5d3e cb47 b53e db76 553e be48 17bd
000002b0: 28ba eebd 06f4 b03b 383c 2bbb fb9b 6a3d
000002c0: 8e82 4a3d 6a23 983d a7fd 61be 1f51 47be
000002d0: 3a4b 39be a92d 76bd 2656 993d 53a9 d03d
000002e0: 09d2 08be 58e3 443d 8e50 0ebe ab8a 0f3e
000002f0: df9a 163d 3fb5 433e 3b8e d0bd b1a0 213d
00000300: abc4 e5bd ec88 56bd e14e 73bc 4390 623d
00000310: 1e40 413e 290f 323e 9eef c03d 1ee8 0dbd
00000320: 4c1c a73d 3d9c 6a3c 92b4 bb3e 2ffc 0c3e
00000330: 7a8f 2a3e ffb1 1e3e 3ff9 94bd dd3e a23c
00000340: 919e fa3c f401 113e 5faa 433d 4b2f 91bb
00000350: d046 bbbd bd92 b8bd d2b0 32bd b242 db3c
00000360: 678a 633e d6ef 4f3e 28d5 033e 09a4 0c3e
00000370: 5bf9 963d df34 ea3d 4436 ac3d 7182 c63d
00000380: cf54 33bd 875a 4e3d 6e15 8dbd eb54 a9bd
00000390: 7b0e 1e3d bb4b 203e f69a 78bd e4e7 20be
000003a0: af14 9ebd b3ed a13d a247 07bc 975b 2bbd
000003b0: c4a3 36be 694b 8f39 38aa b3bd a529 3abd
000003c0: ad60 fe3d 0124 5d3e e5dc f6bc 2b3d 03bd
000003d0: 71c6 95bd 669a 2e3d 5f00 1a3e 1306 333e
000003e0: 3d18 cf3e 6f75 bb3e a07c 00be bca4 4dbe
000003f0: 0cee fc3d fb23 013e 20f5 83bd a4e9 953d
0.13815522 0.014454954 -0.13447647 0.16687743 0.036450613 -0.035816584 0.15470716 0.1435491
-0.039777104 -0.057610936 0.17186898 0.0180959 -0.054221127 0.10305318 0.26527724 0.002786576
-0.066916116 0.16499898 0.015003903 -0.07765369 0.026876943 0.047913007 0.037963007 -0.035961553
-0.0577505 0.044497274 -0.10265576 -0.079914264 0.12866583 0.034780618 -0.13253713 0.0645143
0.014318045 -0.07582842 0.18752809 -0.05020529 -0.16246177 -0.1310181 0.11608723 0.078576416
-0.061025903 0.0896021 -0.05197037 0.0342573 0.15917476 -0.010094373 0.094063126 -0.03630119
0.073343575 -0.017800245 -0.3108091 -0.012562471 0.26225954 0.06760769 -0.05825711 0.07464713
-0.041081306 -0.093125135 0.053659838 0.17396039 0.23657034 0.16698156 0.07590269 -0.24181852
-0.07194711 0.3831936 0.07867753 -0.006221092 -0.019871151 -0.07959007 -0.20922671 0.26736706
0.3267783 0.3016442 -0.044201694 0.001105047 -0.12764433 -0.21061026 0.29419515 0.08770666
-0.05446577 -0.19698365 -0.079702005 -0.049137942 0.17528965 0.32450914 -0.00063799665 -0.01238121
-0.13795742 -0.13309573 0.051175974 0.19353898 0.18612763 0.035648096 -0.047052197 -0.13001351
0.055956613 0.07854181 -0.13538282 -0.021366822 0.11835945 0.18662329 0.29937446 0.36338973
0.33188903 -0.0004916873 0.14850746 0.25897577 0.3049316 0.061211616 0.04160054 0.06782365
0.2808028 0.16668957 0.029050423 -0.17392483 0.1424947 0.16023664 -0.035955172 0.56783515
0.07448997 -0.33667377 -0.099105455 -0.020706419 0.14351326 0.1262078 0.65602165 -0.17810081
-0.24610804 -0.22054805 0.12412911 0.026110983 0.08916532 0.5025377 0.18010889 -0.20258711
-0.17318386 -0.08456827 -0.06775098 0.07340512 0.24700786 0.32497567 0.33584008 -0.08483058
-0.24669285 -0.05622934 0.1215788 -0.12680298 -0.23211218 -0.18591017 0.10411468 0.18474199
-0.05141087 0.018128 -0.00645964 -0.09137188 0.24013829 0.3507239 0.23418106 -0.1301768
-0.13421266 -0.1563707 -0.01735627 0.25004876 0.18417278 -0.1267232 -0.034449864 0.18954594
0.21676387 0.35406336 0.20846121 -0.036934607 -0.116566 0.0054001836 -0.0026128422 0.05727766
0.049440913 0.0742863 -0.22069417 -0.19464539 -0.18095103 -0.06010214 0.07487135 0.10188546
-0.13361372 0.048068374 -0.13897917 0.14017741 0.03676879 0.19112109 -0.10183378 0.039459888
-0.11219152 -0.052376673 -0.014850349 0.05531336 0.18872115 0.17388596 0.09420703 -0.034645192
0.08159694 0.014319477 0.36661202 0.13768075 0.16656294 0.15497588 -0.072741024 0.019805366
0.030593188 0.14160901 0.0477699 -0.0044306866 -0.09144366 -0.09012363 -0.04362566 0.026765201
0.22220765 0.20306334 0.12874281 0.1373445 0.073717795 0.114358656 0.08408788 0.096928485
-0.04378205 0.050379302 -0.06888853 -0.0826815 0.03858803 0.15653889 -0.060694657 -0.15713459
-0.07718789 0.07906666 -0.008256825 -0.041835394 -0.17835909 0.0002733127 -0.08772701 -0.04544987
0.12420783 0.21595766 -0.030134628 -0.032040756 -0.0731324 0.042627715 0.15039204 0.17482786
0.4044818 0.36613032 -0.1254754 -0.20082372 0.12350091 0.12611382 -0.06443238 0.07319954

conv1.bias f4 [64]
00000000: 5b1a a6be 4110 c0bd 7802 67be 7297 aabe
00000010: 777b f0be f39e afbd f32e b2be 03ed 06be
00000020: f2a7 15be 1b95 9fbe 5a2d 1dbe fe9f dabe
00000030: 25ba bebe 042b 1fbe 59a6 d3be 70f9 8cbe
00000040: d791 69be 877d 2cbe 0091 83bc 4197 08bf
00000050: cc08 d33c 18c6 a2be 42b8 c9bd ed97 91be
00000060: d34c 93bd 8585 a7be 7a4a b9be e31f 98be
00000070: 9e66 c9be 02e1 c1be 52cc d5be de1b 59be
00000080: 7c57 9cbe 2e55 19bf 133c e3be 1d15 f6be
00000090: fcce 98bd cbe5 08bf 65aa cbbe 86dc d0bd
000000a0: 1388 e8be 3d00 babe 8088 fdbd ccfd 0abe
000000b0: 9f6e ef3a d2df 6abe 3b63 cb3b eece ce3d
000000c0: 85a6 ac3d c110 dbbe 9b51 6cbe 042b eabe
000000d0: 5d0e f03c a93c 47be 7469 a3be a784 21bf
000000e0: f476 29be aef6 16bd ddc3 e1be 4b1d 5abe
000000f0: a4fb 2ebe 42ba 8bbe 9dee d9be 7c5b b1be
-0.32441983 -0.093781 -0.22559536 -0.3331867 -0.46969196 -0.08575239 -0.34801444 -0.1317635
-0.14614847 -0.31168446 -0.15349331 -0.4270019 -0.37251392 -0.15543753 -0.4133785 -0.27534056
-0.2280954 -0.1684476 -0.016060352 -0.53355795 0.02576103 -0.3179176 -0.098495975 -0.28436223
-0.071923874 -0.32719055 -0.36189634 -0.29711828 -0.39336103 -0.3786698 -0.41757447 -0.21202037
-0.30535495 -0.598956 -0.4438177 -0.48062983 -0.07461354 -0.53475636 -0.39778438 -0.101983115
-0.45416316 -0.36328307 -0.12379551 -0.13573378 0.0018267221 -0.22936943 0.0062068976 0.100980625
0.084301986 -0.4278622 -0.23078005 -0.45735943 0.029303724 -0.19456734 -0.31916392 -0.63093036
-0.16549283 -0.036856346 -0.44094744 -0.21300237 -0.17088181 -0.2729054 -0.4256486 -0.3464011

conv2.weight f4 [32, 64, 5, 5]
00000000: ae47 71bd 46cc 84bd d02c 54bd ed5f 7fbd
00000010: a031 83bd 0735 58bd a56c 3ebd 9dae 28bd
00000020: 0b84 29bd 8465 92bd b908 8ebd 7ba4 36bd
00000030: 531f 9fbd 975b 49bd aba7 80bd 28ad 66bd
00000040: b78f 6bbd 4e78 8ebd 6439 9abd aaa4 98bd
00000050: f712 2bbd ab2a 2ebd b215 94bd 12ba 51bd
00000060: b77b 10bd 9a8a a2bd e071 56bd 9798 a1bd
00000070: 143d 2bbd 0a29 94bd f901 79bd 5219 40bd
00000080: d217 87bd a215 96bd 5cc9 20bd 0f06 3bbd
00000090: b1cd 7dbd ebfb a5bd 305c 37bd ecae 17bd
000000a0: 9d12 17bd 84fe 41bd 0ed7 57bd 0ae5 9cbd
000000b0: bbda 18bd b4fe 53bd 82b7 17bd eb75 3abd
000000c0: 4aed 8dbd 2713 a9bd cb78 36bd fc3b 4abd
000000d0: f16c 24bd 75bc 8fbd 81b0 4dbd a7d0 3fbd
000000e0: 7cda 94bd faa4 1dbd 03e9 a6bd f6d0 8dbd
000000f0: 62db 17bd c793 5cbd 2aee 8dbd 097a 9abd
00000100: b24b a9bd fe30 47bd 0258 25bd bb61 2abd
00000110: 6194 16bd d539 5ebd bb9e 8cbd c1f5 aabd
00000120: 91ef a7bd 93b7 4fbd 4390 50bd 074c 9dbd
00000130: 7390 9ebd 8f1b 5dbd 0ee1 aabd aa92 60bd
00000140: 083d 13bd bfa3 3fbd 1f9e 64bd 847f 1dbd
00000150: f394 a9bd f4e9 59bd 035d 92bd f948 72bd
00000160: 54ea 88bd 45d8 58bd ccfc 2ebd fe1b a7bd
00000170: 8d07 18bd 7f43 11bd 9d6e 51bd e01a 9ebd
00000180: 6aef 76bd bc1e 1fbd e126 88bd d57a acbd
00000190: 4d26 acbd 6ea8 53bd 006a 59bd ce8a 91bd
000001a0: 23c2 16bd 1655 88bd e627 a4bd 4258 6fbd
000001b0: a2e0 34bd df15 95bd 3efa 40bd 5602 82bd
000001c0: 4fcc 8cbd 9331 4abd 2011 62bd a1de 16bd
000001d0: 50c7 8dbd fe09 3ebd b81a a5bd 53e4 11bd
000001e0: 990a 61bd 24c8 a1bd b111 9fbd e4f5 97bd
000001f0: 1183 9dbd 62ba 94bd 0dfe 4ebd 09aa 4abd
00000200: e5b2 85bd 16e9 1dbd 71b7 4bbd 3f5e 94bd
00000210: 286e 8bbd 9de2 69bd e20d a7bd 3aa4 10bd
00000220: fbd6 9ebd 5cde a9bd d390 9fbd 624f a1bd
00000230: 32af 31bd 0c6b 6dbd 2b76 9ebd 8640 66bd
00000240: 4b30 8abd 80a1 14bd 8425 3bbd 0223 27bd
00000250: 4607 9bbd 4dd3 2dbd 0748 95bd 356f 36bd
00000260: 0126 95bd c992 8bbd ace7 24bd a51f 18bd
00000270: 5312 9bbd d89b 16bd 5f48 42bd c58d 24bd
00000280: 6b83 28bd f843 74bd 5087 16bd d4e4 72bd
00000290: 4dce 27bd 5408 a4bd efac 99bd 223e 33bd
000002a0: 7ed3 79bd c5b2 a5bd 0389 16bd b48b 65bd
000002b0: 78af aabd 9e4e a2bd e5e6 7cbd 0030 55bd
000002c0: cd7a 30bd a95f 60bd 7edb 27bd 9c91 13bd
000002d0: 5861 24bd 1867 15bd 48f5 7cbd bd0e 78bd
000002e0: a179 26bd b48d 8ebd 300d abbd ece6 abbd
000002f0: 1fe2 9fbd 10f7 1ebd 00d0 1dbd 57a6 6fbd
00000300: 618e 86bd 3722 a3bd 5898 82bd ab46 a3bd
00000310: 71bb 50bd a294 57bd 8dd1 91bd b721 99bd
00000320: 6e53 8dbd 1a44 75bd 59f6 8ebd 76be 34bd
00000330: 96f0 9cbd a229 a8bd b556 20bd 0749 97bd
00000340: dcd9 5bbd ee19 86bd ce94 17bd b53d 32bd
00000350: ca2d 93bd 51d2 41bd f570 78bd c37d 82bd
00000360: b5d0 98bd 1969 83bd 97b5 adbd 49b8 1fbd
00000370: 357f 99bd 2493 70bd 25fb 99bd 3416 55bd
00000380: 6986 a7bd f3f4 68bd f4ea 96bd 2f87 7fbd
00000390: 4aa0 38bd 76c1 90bd 619b 8fbd eb20 39bd
000003a0: 5b00 a4bd f6aa 93bd e589 22bd ccba 37bd
000003b0: af4e 4abd 1781 2ebd 72c8 67bd 58d0 95bd
000003c0: d5b7 53bd b806 78bd 36c9 77bd 297a 74bd
000003d0: 0df2 4fbd bfc7 84bd cbee a2bd c71f 8ebd
000003e0: 803b 84bd 6812 99bd 3408 67bd 8237 a9bd
000003f0: 4481 1dbd e4e5 71bd 7936 84bd e63b 85bd
-0.05890625 -0.064842746 -0.05180055 -0.06234734 -0.064059496 -0.052784946 -0.04649033 -0.04118215
-0.04138569 -0.07148269 -0.069352575 -0.044590455 -0.077696465 -0.049159613 -0.0628198 -0.05631748
-0.057510104 -0.0695654 -0.07530478 -0.07453282 -0.041766133 -0.04252116 -0.072307006 -0.05120284
-0.035274234 -0.079365924 -0.052354693 -0.07890432 -0.041806296 -0.0723439 -0.060792897 -0.046899147
-0.0659634 -0.07328345 -0.03925453 -0.045660075 -0.06196374 -0.0810469 -0.04476565 -0.037032053
-0.036882985 -0.047361866 -0.052695327 -0.07660873 -0.037317973 -0.051756576 -0.03704024 -0.04552261
-0.06930025 -0.08255606 -0.04454879 -0.04937361 -0.040142957 -0.07018367 -0.050217155 -0.046829846
-0.07268235 -0.038487412 -0.08149912 -0.06924622 -0.037074454 -0.05385187 -0.06930192 -0.075428076
-0.08266391 -0.048630707 -0.040367134 -0.04159711 -0.0367626 -0.05425437 -0.06866213 -0.08347655
-0.081999905 -0.05071218 -0.05091883 -0.07680517 -0.07742395 -0.05398136 -0.08343707 -0.05482737
-0.035946876 -0.04678702 -0.05581486 -0.038451687 -0.08280363 -0.05320163 -0.07146647 -0.059151623
-0.066853195 -0.052940626 -0.042721555 -0.08159636 -0.037116576 -0.03546476 -0.05113088 -0.0771997
-0.060286917 -0.03884767 -0.066480406 -0.08421866 -0.08405743 -0.0516743 -0.053079605 -0.07106553
-0.036806237 -0.06656854 -0.080154225 -0.05843378 -0.04415954 -0.07279562 -0.04711365 -0.06348102
-0.06874906 -0.049363684 -0.055192113 -0.03683341 -0.069227815 -0.046396248 -0.08061737 -0.035618138
-0.054941747 -0.07899502 -0.07767046 -0.07419947 -0.076910146 -0.07262112 -0.05053525 -0.049478564
-0.06528262 -0.038552366 -0.04973549 -0.072445385 -0.0680812 -0.05710088 -0.08156945 -0.03531287
-0.07755848 -0.08294365 -0.07791295 -0.07876469 -0.04337997 -0.057963416 -0.077373825 -0.056213878
-0.067474924 -0.03628683 -0.045690075 -0.04080487 -0.07569747 -0.04243784 -0.07289129 -0.04453965
-0.07282639 -0.068151064 -0.040260002 -0.037139554 -0.075718544 -0.036769718 -0.0474323 -0.040174264
-0.041140955 -0.059635133 -0.036750138 -0.05930026 -0.040968228 -0.08009401 -0.075036876 -0.043760426
-0.06099271 -0.08090738 -0.03675176 -0.056041434 -0.08334249 -0.07925151 -0.061743636 -0.05204773
-0.043085862 -0.05477873 -0.04098081 -0.036027536 -0.040131897 -0.03647527 -0.061757356 -0.06056093
-0.040643338 -0.069606215 -0.08352125 -0.08393654 -0.07806801 -0.038809836 -0.038528442 -0.058508243
-0.06570125 -0.0796551 -0.063767135 -0.07972463 -0.050960008 -0.05263198 -0.07120047 -0.07477134
-0.069006786 -0.0598794 -0.06980581 -0.04412695 -0.076630756 -0.08211066 -0.03914519 -0.07386976
-0.053674564 -0.065479144 -0.037007146 -0.04351588 -0.07186468 -0.047319714 -0.0606546 -0.063716434
-0.07461683 -0.0641653 -0.08481901 -0.038994107 -0.07494966 -0.058734074 -0.07518605 -0.052023128
-0.081799336 -0.056874227 -0.073690325 -0.06238478 -0.04507474 -0.0706815 -0.07012058 -0.04519741
-0.0800788 -0.072103426 -0.039682288 -0.044855878 -0.049391445 -0.04260358 -0.056587644 -0.07315129
-0.051688988 -0.060553282 -0.060494624 -0.059686814 -0.050767947 -0.06483411 -0.079557024 -0.06939655
-0.06456661 -0.07474214 -0.056404307 -0.082625404 -0.038453355 -0.05905713 -0.06455702 -0.06505565

conv2.bias f4 [32]
00000000: 7de7 a0bd 11df 84bd 233d 99bd 04d7 763c
00000010: 9b0e a5b9 58fe 71bc 381a 80bd 0cf7 92bd
00000020: 7eb5 a3bd 3f78 28bd ad6c 5e3d 53c1 093e
00000030: e081 a4bd f776 0ebd f0ed 1dbd a242 b93c
00000040: 41f8 8fbd 7205 08bd 497c 1fbc 0f0b 20be
00000050: 0227 a1bd 7f6b 7abd 4230 26bd 14a8 8cbd
00000060: e44a 82bd fd8b 153e 3282 4ebd 5cba 41bd
00000070: 98b7 f7bc 88ee 33bd e768 63bd b7fd 6b3e
-0.07856653 -0.06487859 -0.07482364 0.015065912 -0.00031482134 -0.014770113 -0.06255001 -0.07176027
-0.07993601 -0.0411303 0.05430286 0.13452654 -0.08032584 -0.034781422 -0.038556993 0.02261478
-0.070297725 -0.033208318 -0.009734222 -0.15629219 -0.07868768 -0.061137673 -0.040573366 -0.06867996
-0.063619405 0.14604183 -0.050417133 -0.047296867 -0.030238912 -0.043928653 -0.055519965 0.23046003

fc1.weight f4 [256, 32]
00000000: 3d98 723d 4e90 bdbd 585c 1c3e 84c2 a3bd
00000010: 4dc6 55be 599c fd3d 46a4 e63d b649 f93d
00000020: b076 2dbe ea2d 98bd e4c0 12be 2b00 663d
00000030: 3edc 5f3d c6a6 b5bc bdd1 07be b112 65bd
00000040: c274 46be 2eb1 32bd dcae 813d 2468 50bd
00000050: a605 27be f996 b9bc 648d 05be eac3 1a3e
00000060: 7875 e7bd f1fd d3bd c092 9a3d ef60 be3d
00000070: 6394 f9bc 5727 a93d be1c 8e3d 1042 c2bd
00000080: 749d df3d 1650 c83d 6b71 113d c0e1 3b3e
00000090: 4c3b 55be f944 01be 0ecf 40be 9d4c d1bd
000000a0: ed0c acbd c4c9 17be 2e52 5c3d 74d4 263e
000000b0: c13a 0fbe 9227 b73d 6bdb 48bd 7c24 3c3e
000000c0: a19f 80bd c7c0 aabd 92d3 073e 78eb abbe
000000d0: 671d 943d 7b63 6cbe 6438 ab3c 9e7c 7f3d
000000e0: 79a8 383d 1284 073e 47cb a4bd a31a 0fbe
000000f0: 8c4e b13e f94d 11be 6b23 a23d 48fd 0c3e
00000100: 0b7b e3bd 64cd 933d 3009 b0bd 7b57 7a3d
00000110: cbb8 833c 1429 68bc bdb5 30bd bf69 94bd
00000120: 2276 a3bc 73dc e6bb 781d ae3b 8878 95bd
00000130: 6409 b63d f669 8d3d bcc1 5abd f3d9 eebd
00000140: f2b3 0a3d bd34 22bd f886 453d 69da e53d
00000150: 5b8e 5fbd 8c6a 873b 80e2 993d eeda 9d3c
00000160: 7112 b1bd 2c4d ee3c 4d25 a2bd 76c1 34be
00000170: f560 a1bd 8bb3 913d cf11 92be 22a6 4cbe
00000180: 18e9 d2bd 06c9 16bc 9e63 fcbd 5502 dcbd
00000190: 627e 5b3c 0b53 bdbc 6732 1b3d a3dc 70bd
000001a0: 86fc 9e3d d165 1bbe 33a1 053b a38c 8a3c
000001b0: e8e3 f93d cefc 71bd 737d eb3d 34d0 43be
000001c0: 68e8 7e3d 6f74 303d e48f 983d bc91 333e
000001d0: 4e33 de3d 1e64 0a3c 3383 4b3d 5515 403d
000001e0: fb73 843d fb6a 80be 811b 13be 1eb4 da3c
000001f0: 574c 90bd 368c 2ebe 4312 49bd 5834 58be
00000200: b7e1 0cbe 3b22 e6bd d05d ab3d d179 1dbd
00000210: 9513 afbd fb3c be3d e7ef ba3d 69bf 61bc
00000220: 1297 8a3d 6736 453e 7e66 38be 8dc0 35bd
00000230: 0e20 17be 86bc 6c3c 59d6 be3d 5bce d7bd
00000240: d40b f13d dd89 77bd 3c5e 2fbe b8be 23be
00000250: 3ac4 263b a7d5 af3d e0e1 28be a709 24bd
00000260: 9892 55bd e161 483b 2436 ad3d 7a1c 1bbe
00000270: f540 c7bc 6b2f 13be 589a 60be db1a 603d
00000280: 5050 d2bd f893 273d 8128 11be 5c21 2ebe
00000290: 220f 46be eb71 bebd 19fd bc3d bac9 b0bd
000002a0: d9d8 a2bd 160d 07be 0925 1abe d0bd fbbd
000002b0: 077f 04be b38a cbbb c828 203e 0eb7 54be
000002c0: 1f34 71bd e4b5 33bd f53f 733d 4ba2 bbbc
000002d0: dbaa ac3d a258 a4bd 18bf 5b3d 9704 25bd
000002e0: 7604 9ebd c0a3 7fbd 75d1 c23d 09f3 b53d
000002f0: 051f d43c 04ea 12bd 5d34 79bc 711d b2bd
00000300: fa32 5fbd 6d38 16be 5b4f 343d 51a7 6dbb
00000310: c3d8 1cbe d135 f4bd 9033 103e 09f9 13bd
00000320: 8e23 0f3d 13a1 283e d04d 1bbe 5972 673e
00000330: 84cc e43d 30f2 00be 9e37 0fbe 9779 4bbe
00000340: 7071 013e c74a e93d d41f 623e dcd8 f83d
00000350: b8e1 29bc b218 b7ba f362 193e cc7d 3e3d
00000360: e26a dbbc 2b1d da3e 448a 383d 53a6 23be
00000370: 94f9 373f 2db4 603d 7928 2cbe 99b5 173e
00000380: a23e 893c 8726 69bb 7360 2bbe 0884 cebd
00000390: a0c0 31bc 9273 fa3d bf4a 00bd bb87 0cbe
000003a0: 4365 ed3d d4ec e7bd 531c 6abe be03 38bd
000003b0: 9500 c23d a1be 87bc 9c3d 2dbe f14a e3bd
000003c0: 2fc1 bbbd ea3a 8c3d cb60 7f3c eaff 29be
000003d0: 1393 e43c e9d0 d63d c7c6 003d a3b7 09bd
000003e0: fb67 80bb 4ee1 713c b91e c23d 003b 28be
000003f0: 93ce 3dbe b483 223e d66f 383b c4f7 c13d
0.059227217 -0.092560396 0.15269601 -0.07996085 -0.20876427 0.123833366 0.112618014 0.12172262
-0.16939807 -0.074306324 -0.14331394 0.056152504 0.0546534 -0.02217425 -0.13263603 -0.05592603
-0.19380477 -0.043626003 0.0633218 -0.050880566 -0.16310748 -0.022654997 -0.13042217 0.15113798
-0.11301702 -0.1035117 0.075475216 0.09295832 -0.030466264 0.082594566 0.06939076 -0.09485257
0.10918704 0.097809 0.035508554 0.18347836 -0.20823401 -0.12623967 -0.18828985 -0.10219691
-0.08400903 -0.14823061 0.05378931 0.16291982 -0.13987257 0.08943094 -0.04903738 0.18373293
-0.06280447 -0.083375506 0.13264301 -0.33578086 0.072321706 -0.23084824 0.020900913 0.062374704
0.045082543 0.13233975 -0.080465846 -0.13975005 0.3463024 -0.141899 0.07916912 0.13768494
-0.11107453 0.072169095 -0.085955024 0.061118584 0.016079327 -0.01416995 -0.04314207 -0.07246732
-0.019953791 -0.0070453226 0.0053135715 -0.0729838 0.0888851 0.06904976 -0.053407416 -0.11662664
0.033863015 -0.039601076 0.04822442 0.11223299 -0.05457912 0.0041325744 0.075139046 0.019269433
-0.086460955 0.029089533 -0.07917271 -0.17651924 -0.07879821 0.07114323 -0.28529212 -0.1998525
-0.10298365 -0.009203201 -0.12323688 -0.10742632 0.013396831 -0.023110887 0.037889864 -0.058804166
0.07763009 -0.15175559 0.0020390272 0.016912764 0.12201673 -0.059078984 0.11498537 -0.19122392
0.06223336 0.04307979 0.0744932 0.17536062 0.10849629 0.008446721 0.04968567 0.046895344
0.06467434 -0.2508162 -0.1436596 0.026697215 -0.07045811 -0.17045674 -0.04908968 -0.21113718
-0.13757978 -0.11236998 0.08367503 -0.03844625 -0.08548657 0.09288975 0.09127789 -0.013778546
0.067670956 0.19259034 -0.18007848 -0.044373084 -0.14758322 0.014449244 0.09318227 -0.10537406
0.11769834 -0.06043421 -0.17125791 -0.15990722 0.002544655 0.08585673 -0.16492414 -0.040048268
-0.052141756 0.0030575918 0.08457592 -0.15147582 -0.024322966 -0.14373557 -0.21933877 0.05471311
-0.10269225 0.0409126 -0.14175607 -0.17004913 -0.1934171 -0.09299072 0.09227962 -0.08632226
-0.07951517 -0.13188586 -0.1505319 -0.12292063 -0.12939082 -0.0062116026 0.15640557 -0.20772955
-0.058887597 -0.043874636 0.059387166 -0.022904536 0.084310256 -0.08024718 0.053649038 -0.04028758
-0.077156946 -0.062412024 0.09512607 0.08884246 0.025893698 -0.035867706 -0.015210238 -0.08697022
-0.054491974 -0.14669962 0.04402099 -0.0036263058 -0.15317063 -0.11924327 0.1408217 -0.03612617
0.034946017 0.16467695 -0.15166402 0.22602214 0.11171821 -0.12592387 -0.1398606 -0.19870602
0.12640929 0.11391216 0.22082454 0.12150738 -0.010368757 -0.0013969152 0.14979152 0.046506688
-0.026784364 0.42600378 0.045053735 -0.15981416 0.718652 0.05485933 -0.16812314 0.14815368
0.016753498 -0.0035575943 -0.16736011 -0.10083777 -0.010849148 0.122290745 -0.031321283 -0.13723652
0.1159158 -0.11324468 -0.22862367 -0.044925444 0.09472767 -0.016570391 -0.16918033 -0.11098278
-0.09167706 0.068471745 0.015587042 -0.1660153 0.027902162 0.10489065 0.03143957 -0.033622395
-0.0039186454 0.0147631895 0.09478516 -0.16428757 -0.18535833 0.15870553 0.0028142831 0.09471086

fc1.bias f4 [256]
00000000: 73eb dabd 946d 193d 374f 8b3e 7f31 2fbe
00000010: b5b8 8d3c bd5a 57be 48ee aabd 7fbc e8bd
00000020: 906d acbd 26fa 85bd df7a 18be 9296 1fbe
00000030: dc7b 923d 5569 233d 15d9 093e 48d2 8b3e
00000040: 30a1 8f3e ac61 9ebc 8d4e 3cbe ddd1 413d
00000050: 3972 773d 564a 35be 796d 233d fb33 a93b
00000060: b791 ee3e 83a3 f33e 3d92 16bd ff65 02be
00000070: 0463 f1bd 1f8d 1b3e 9a1c 7e3e ddc6 02be
00000080: 0323 f23d 435d b53d 7f64 9cb8 ebc8 693d
00000090: e278 4bbe 4e27 f03c 85cd 8a3d 43a8 903c
000000a0: 2505 1bbd 6f70 b13e dd24 1b3d 1319 57bd
000000b0: d9bd 3abe 03c2 953c 1922 093d fe0b db3e
000000c0: 5b70 c53e 04d2 953e ad6e e03e 69c0 57be
000000d0: d605 04bd 3766 013d 8dff aa3d cc3d 083e
000000e0: b569 d93d 5f63 12bd aae2 923e d865 95bc
000000f0: 9672 11be f76e 8ebe d62a c3bd 0c7a d8bb
00000100: 3aac b2bd 75ee cebd 7424 9abd b489 c5bc
00000110: d857 ffbd ca15 5c3e c032 e7bd bd24 b83e
00000120: c925 d73d 844e 82bd e406 ecbd 0ba1 33be
00000130: e7a0 533e 9df0 cabc 4c0a afbd cf21 8dbd
00000140: 0e16 b7bc 580d 41be 4f97 4d3d 1b3e 9bbd
00000150: ed4a 1fbd 7f37 ccbd a309 c4bd 567c 12bc
00000160: 0872 30be 18e8 bb3d a63f b43d e96b 22bc
00000170: d377 743e d533 5cbe fc1b 13be 74bd 31bd
00000180: 33ed 28be 2103 943e b36a d2bd 46a6 a63d
00000190: d365 a23d 527e 6fbe 3ff3 8dbd d6f9 63bd
000001a0: cde2 2abe 7b1e 483e 06be 863e 6727 76bd
000001b0: 8285 25be 3b5e f73e 32cc 4b3e 5a03 0ebe
000001c0: 24e1 84be 0762 123c 667f ca3d b6c3 213d
000001d0: 5118 00bd bd87 3ebe fca5 44be 1fbb 003c
000001e0: a2a3 a5bd 34e3 67be 49a3 6c3d 074b e2bd
000001f0: e684 163d feeb de3d d420 8c3e 418f 0dbe
00000200: ccd9 d3bc 24fa 873d 7b95 f23e 4e1a e7bc
00000210: fb04 0b3f 9bbf 343d f380 fbba fa64 2fbe
00000220: c24c bd3d e32b a73d c560 003d 4702 66be
00000230: 55af c23c 17ae eebd 8d50 3bbe 7940 0dbe
00000240: 2586 d8bd 13f5 40be 9bf3 90bd 708f 21be
00000250: 0d76 403d f1be 93be c474 3a3e 29b5 643e
00000260: 2e09 4ebe 6edf 473d 02a5 823d b012 fcbc
00000270: d032 82bd 60b4 27be 9660 6dbe f2dc 033e
00000280: 886e 083f 9f26 36be 8222 1cbc f099 d53e
00000290: 152e 8dbd 1c0e 3b3e b1bd b53c 16c6 b3bc
000002a0: 8546 0abe b5f0 e3bd 4073 363c cca8 943d
000002b0: a9e4 49bd 3fff 46be ca09 253d f5ef ee3e
000002c0: 8ba8 36be a53c 043f 5694 0a3e f511 f3bd
000002d0: 9dec 0abd 5123 c83e d04c 803d b68e 63be
000002e0: 017a 54bc 03dd 6dbe 7535 6cbe e2b8 52bd
000002f0: 48ba 78be 978b 30bc cbdb 133e e88c c6bd
00000300: 4b92 a23e f7e1 13be 2feb 4ebe cde3 6cbd
00000310: 6517 12bd c5b3 0e3e 7d04 e7bc e989 41bd
00000320: 5234 21be 20b3 52be cef5 693e 2ab2 b7bd
00000330: 8d73 4bbe 02ef 31bd 8ec0 46be 655b d33b
00000340: ac02 b03d 9158 b53e 57fe 38be df57 213e
00000350: acd4 9cbd 0303 17be e44d 583e 7c53 67be
00000360: 90d4 36bc d082 5f3e a377 20bc b444 01bd
00000370: b8e9 98bc e855 dc3a a641 c4bb 308a f5bd
00000380: 6c39 03be b23b 42be c4a1 b23e 9260 87bc
00000390: eafc 0cbc 02d0 893c 092a 9bbd bbc7 8ebd
000003a0: 693a 72be ee3c 2abe c2ef fdbd deac 4c3d
000003b0: 7817 8ebe 7931 1d3a 55fc 13be b441 42bc
000003c0: 1f95 a73d c0c5 1bbd 6dec 89be fca5 b33c
000003d0: e4ce 243e 7fa1 1cbe e449 42bd f53c 1ebe
000003e0: b85e 40be 4158 afbd 0603 d53e 676e 753e
000003f0: 0602 0dbd 2841 0e3e c3c6 273d 02fb 65be
-0.106894396 0.037458017 0.27208874 -0.17108725 0.01729999 -0.21030708 -0.0834623 -0.11364078
-0.08419335 -0.06541853 -0.14890622 -0.15584782 0.071525306 0.039895374 0.13461716 0.2730887
0.28052664 -0.019333683 -0.1838934 0.04731928 0.060411666 -0.17704138 0.039899323 0.0051636673
0.46595547 0.47585687 -0.036760557 -0.12734221 -0.11786464 0.15190552 0.24815598 -0.12771173
0.11823084 0.08855679 -7.4573785e-05 0.057076376 -0.19870332 0.029315617 0.06777481 0.017658358
-0.037846703 0.34656093 0.037876952 -0.052514147 -0.18236484 0.018280989 0.033479784 0.42782587
0.38562283 0.29261792 0.4383444 -0.21069492 -0.032232128 0.03159162 0.08349524 0.13304824
0.10615865 -0.0357393 0.28688556 -0.01823704 -0.14203867 -0.27819034 -0.09529655 -0.006606346
-0.08724256 -0.10104076 -0.07526484 -0.024113514 -0.12467927 0.21492687 -0.11288977 0.3596553
0.10505254 -0.06362632 -0.11524752 -0.17541902 0.20666848 -0.024772936 -0.08546886 -0.06891214
-0.022349384 -0.18852746 0.050193127 -0.07580205 -0.038889814 -0.099715225 -0.095721506 -0.008940777
-0.17231 0.09175128 0.088012025 -0.009913423 0.23873834 -0.21504147 -0.14366144 -0.043393567
-0.16496734 0.28908637 -0.102742575 0.08137183 0.07929578 -0.23388031 -0.06931161 -0.055658184
-0.1668808 0.19542877 0.2631685 -0.06009617 -0.1616421 0.4831408 0.19902113 -0.13868466
-0.2595302 0.008934504 0.098875806 0.039493285 -0.03127319 -0.18606468 -0.19203943 0.007857113
-0.08087851 -0.22645265 0.05777291 -0.110494666 0.036747836 0.10884856 0.27368796 -0.13824178
-0.02586069 0.066395074 0.4737967 -0.028210785 0.54304475 0.04412804 -0.001918821 -0.17128363
0.09243156 0.081626676 0.031342287 -0.22461806 0.023765245 -0.11654299 -0.18292446 -0.13794126
-0.10572461 -0.18843488 -0.07077714 -0.15777373 0.046987582 -0.28856614 0.18208605 0.22334732
-0.2012069 0.048797064 0.06379129 -0.03077063 -0.06357348 -0.16377401 -0.23181376 0.12877253
0.5329366 -0.1778817 -0.009529712 0.41719007 -0.06893555 0.18267101 0.022185178 -0.02194504
-0.13503464 -0.111298956 0.011135876 0.07258758 -0.049290333 -0.19433306 0.04029254 0.46667448
-0.17837732 0.51655036 0.13533148 -0.118686594 -0.03391706 0.39089444 0.06264651 -0.22222409
-0.012968541 -0.2322884 -0.23067267 -0.05144585 -0.2428981 -0.010775468 0.14439313 -0.096948445
0.31752238 -0.14441667 -0.20206903 -0.057834435 -0.035666842 0.13935764 -0.028200382 -0.047250662
-0.15742615 -0.20576143 0.22847673 -0.08969529 -0.19868298 -0.043440826 -0.19409391 0.006450104
0.085942596 0.35419133 -0.18065773 0.15756176 -0.076577514 -0.14747243 0.21123463 -0.2259044
-0.011159077 0.21827245 -0.009794149 -0.03155966 -0.018666133 0.001681027 -0.005989271 -0.11989248
-0.12814873 -0.18968084 0.34889042 -0.01652554 -0.008605221 0.016822819 -0.07576377 -0.06971689
-0.23655094 -0.16624805 -0.12399246 0.049969546 -0.2775228 0.00059964467 -0.14451726 -0.011856485
0.081827395 -0.038030386 -0.2693819 0.021929733 0.16094548 -0.15295981 -0.04743375 -0.15452941
-0.18786132 -0.08561755 0.4160387 0.23967896 -0.034425758 0.13892043 0.04096104 -0.22459033

fc2.weight f4 [128, 256]
00000000: 4aee 6dbd a451 82bd 45c9 c7bd e008 e0bc
00000010: b9dc 0bbd f485 68bd 2a00 54bd 48f2 2abd
00000020: 4c56 623d ac35 073d 6a01 7b3d b0aa 0dbd
00000030: b9c9 73bd 8136 e9bd 7465 c2bd 1078 7cbd
00000040: 7da2 9bbd 745d d5bd 00a2 dabb 39ea dfbd
00000050: d6a5 9fbd 6496 7c3d f561 85bd 15d5 2bbd
00000060: 074a d6bd 87f0 ecbd 7ff0 92bd 60fb 4fbd
00000070: e79c 8abd a483 19bd 395c babd f026 3ebd
00000080: 21ca 3fbd f4e7 62bd 5cbd 54bd 21e7 94bd
00000090: c463 963c d520 d4bd 0274 82bd c470 a5bd
000000a0: 043e a6bd ced7 75bd 220b f4bc 446c c2bc
000000b0: 5e74 6b3d 273a bbbd 47ca f4bd f73e d7bd
000000c0: a959 30bc a200 453d 1cb3 5fbc 003c 00bb
000000d0: adc8 963a 7ea2 ddbb 8f65 a4bd 2863 9dbd
000000e0: 0022 16bd fc4e 6abb 1cc1 f4bd 63f9 c9bd
000000f0: b8c2 9c3c 847b 05bd f8f2 453d 7b5d 94bd
00000100: c769 08bd 38ac 84bd c6c0 41bd 9a05 91bd
00000110: 88c0 5c3c 6939 aabc 3cd2 a23c 64cb bdbd
00000120: a949 57bd 841e c3bd 2f4a 61bc 805a a13b
00000130: 0a13 7cbd f0b6 a8bd c17a a7bd 4b08 b83a
00000140: cfc8 09bc 6af3 78bd ba8a 2bbd f465 a63c
00000150: 2915 8bbd b294 4d3d f0fc c6bc d35b cabd
00000160: 3a77 07bd e925 47bd 3de0 66bc a8b2 8cba
00000170: fa67 2cbd 546e 2d3d 5290 f0bd 4098 44bd
00000180: a009 58bd df95 e1bc 1881 383c 9fb1 5ebc
00000190: 5ace a7bc 68f6 463d 67c9 c7bc f8fd afbd
000001a0: 7632 693d acc9 acbd 5dfc dcbd 94bb 1abd
000001b0: 900d e73b 957d bdbd 8046 803a b0d6 f63b
000001c0: e040 b5bc 561e e8bb f8a6 b2bd 605d e9bd
000001d0: ffdd 6cbd ce21 5a3d dc1d 7ebd 6fad cfbd
000001e0: ff84 b9bd e086 e23b e1d2 1cbb a060 74bd
000001f0: cf91 aebd 1f64 10bb f66f 623d 021e 313d
00000200: 5e4a 1fbd 1a87 98bd 19e3 83bb fdc4 0fbd
00000210: 438f e4bd 08e3 a6bd cbf2 d2bd d230 1cbd
00000220: 95b0 a53a 72cd d1bd 8b26 45bd 3045 b6bc
00000230: 8689 7ebc 2223 503d ce8c 323d 100e 903b
00000240: 3af7 d4bd c05a 203b c1dc f0bc 5cfb f7bc
00000250: 5dae 1fbd b43b b8bc e0a9 133b b43b bfbc
00000260: 149e 2b3d f6e1 01bd 8e45 dbbd 429b 89bd
00000270: 8590 a3bd 44d7 1cbd d0e2 c5bb 3540 a3bd
00000280: 963f abbc f427 a13c 04c1 34bc a83d e43c
00000290: 724c 8bbd 4a59 09bd a077 f8bd 7951 ebbb
000002a0: acbf cabc 0826 94bc 488e f8bd 7be0 e9bd
000002b0: 1e49 50bd 2a04 52bd d0ec 9cbc 65c8 afbd
000002c0: b804 b33c b37e d2bd a16b 82bd c6d3 6abd
000002d0: 898c e5bd 6d10 bcbd ecaf 6abd d87c 713c
000002e0: 3439 5cbd 14ae debc d78b ffbc 6310 cfbd
000002f0: a0d8 73bc 892d 62bd cd12 b5bb d6d7 29bd
00000300: de93 98bd 9113 31bd 2022 2fbc 9b3e 20bd
00000310: 49ef f2bc e92b bfbd c8cf 53bd 84d6 07bc
00000320: 8a5d 67bd 7191 41bc ac3b a0bd 3004 2cbc
00000330: f0bd 1d3d d650 5abd a85b cf3c 4505 7abd
00000340: 1408 e9bd e91e 67bd 2a39 47bd cd69 12bd
00000350: 30ff e43c f0a8 93bc e165 debd f0a6 1a3c
00000360: 00c6 853a 443c 223d 186f ce3c 6738 43bd
00000370: e76f d0bb 3460 c93c 27c3 84bd 4cf4 56bd
00000380: d4fd 193d d04a 69bd 7719 f7bd 9ac4 e8bd
00000390: 624e dabd 8bae 75bc f8a7 a83a 0622 543d
000003a0: d024 6dbc 48c8 3e3d 20a3 e4bc cd9b 43bd
000003b0: c49d d23c 8d6d 47bc 805e a03c ee8a f7bd
000003c0: 7306 e4bd 4068 a4ba 0007 4f3b a061 a3bd
000003d0: 2056 4dbd 06e7 52bd 7a3e b9bd 2815 bebc
000003e0: 14ea 0c3d 8d16 17bd 2a1d 4fbd f8af 92bc
000003f0: c883 9bbc cbca 4fbd e589 b4bc 10f0 9ebb
-0.05808858 -0.06363228 -0.09755186 -0.027347982 -0.034146044 -0.056768373 -0.05175797 -0.041734964
0.05525808 0.03301017 0.061280645 -0.03458661 -0.05951855 -0.11387349 -0.09492007 -0.061637938
-0.075993516 -0.104182154 -0.006672144 -0.10933346 -0.077953026 0.06166686 -0.065128244 -0.041951258
-0.10463338 -0.115693145 -0.07174777 -0.05077684 -0.06768208 -0.037479058 -0.09099621 -0.046423852
-0.046823625 -0.05539699 -0.0519384 -0.07270647 0.018358119 -0.10357825 -0.06369783 -0.08078149
-0.08117297 -0.06002026 -0.029790465 -0.023733266 0.057484023 -0.09141951 -0.11952644 -0.105100565
-0.010763564 0.048096307 -0.013653543 -0.0019567013 0.0011503898 -0.0067637553 -0.08027183 -0.07684928
-0.03665352 -0.0035752645 -0.11950895 -0.0986202 0.019135818 -0.032588497 0.048327416 -0.072443925
-0.033304002 -0.064781606 -0.047302984 -0.070811465 0.013473637 -0.020779328 0.019875638 -0.09267309
-0.052560482 -0.09527305 -0.013750597 0.0049241185 -0.061541595 -0.082380176 -0.0817771 0.0014040557
-0.008409693 -0.060779013 -0.041880347 0.020312287 -0.06791145 0.050190635 -0.024290532 -0.09880795
-0.033072688 -0.04862014 -0.0140915485 -0.0010734396 -0.042091347 0.042341545 -0.11746277 -0.04799676
-0.052743554 -0.027537284 0.011261247 -0.013592153 -0.020484138 0.048574835 -0.024388028 -0.085933626
0.05693289 -0.08436903 -0.10790322 -0.037776545 0.0070511773 -0.092524685 0.0009786636 0.007532917
-0.022125661 -0.0070836945 -0.08723253 -0.11394763 -0.0578289 0.053254895 -0.062040195 -0.10140502
-0.0905857 0.006913051 -0.0023929405 -0.05966246 -0.085239045 -0.0022032333 0.055282556 0.04324151
-0.03888928 -0.074476436 -0.004024875 -0.035099972 -0.111601375 -0.081487715 -0.10300215 -0.038132496
0.0012641127 -0.10244264 -0.04813246 -0.022249788 -0.015535718 0.050814755 0.043591313 0.0043962076
-0.10398717 0.0024468154 -0.029402139 -0.030271225 -0.038984645 -0.022489406 0.0022531673 -0.023343898
0.041898802 -0.031709634 -0.10706626 -0.06719066 -0.07986549 -0.03829123 -0.006039001 -0.07971231
-0.020904344 0.019672371 -0.011032347 0.027861431 -0.0680169 -0.03353242 -0.12132192 -0.007181343
-0.0247496 -0.018084541 -0.12136513 -0.114197694 -0.05085098 -0.051273502 -0.01915589 -0.08583144
0.021852836 -0.10278072 -0.06368185 -0.05733087 -0.112084456 -0.091828205 -0.05729668 0.014739238
-0.05376549 -0.027182616 -0.03119461 -0.101105474 -0.01488319 -0.055219207 -0.005525923 -0.041465603
-0.074500784 -0.04323155 -0.010689288 -0.039122205 -0.029655116 -0.09334547 -0.051711828 -0.008290891
-0.05648569 -0.011814461 -0.078238815 -0.010499045 0.038511217 -0.053299747 0.02531226 -0.06104018
-0.11378494 -0.056425963 -0.0486385 -0.03574543 0.027953714 -0.018024892 -0.108592756 0.009439215
0.0010206103 0.039608255 0.025199458 -0.04766121 -0.006360996 0.024582006 -0.06482535 -0.052479073
0.037595585 -0.056956112 -0.12065404 -0.11365624 -0.106594816 -0.014995228 0.0012867441 0.05179026
-0.014474109 0.04657772 -0.027909815 -0.047756005 0.025709994 -0.012172115 0.019576311 -0.120870456
-0.111340426 -0.0012543276 0.0031589866 -0.07977605 -0.050130963 -0.051489852 -0.090451196 -0.023203447
0.03440292 -0.03688674 -0.050564922 -0.017906174 -0.018983737 -0.050730508 -0.02203841 -0.004850395

fc2.bias f4 [128]
00000000: f7c7 fcbc e04a 8bbd 27e6 b6bd 5e17 32bd
00000010: df77 23bd 8b20 80bc 951b 1d3d 7335 e1b9
00000020: cd66 443c 3980 4dbb 877a 2fbc cb7b 7abd
00000030: 9598 ac3d 5c98 9a3d e3e8 49bd 3b11 153d
00000040: 8894 15be c540 18bb a136 8bbd 62ba 17bd
00000050: 06e3 cfbd 8e9b 8e3d b135 0e3d 7add 3a3d
00000060: fd78 d1bd c7bc 14bd 1c15 a73d 4fbf 02bd
00000070: db8d dd3c 3205 b5bd 9ad0 15bc f1e7 d53d
00000080: 2aac d4bd b6c7 b03d c852 b3bd 1efc 8fbd
00000090: a101 423d 29d3 81bd e3c6 51be df0d 5ebd
000000a0: 1f1c 78bd 4001 3cbd 206e e5bd 01da b13c
000000b0: 049f 51bd 0961 9d3d 901e c8bb 06f8 a8bc
000000c0: 19cf e5bd d5da a53d 7a51 073a c3cc de3c
000000d0: 5475 f1bc e119 88bd 93ac 62bd 149f 85bd
000000e0: 9c94 95bd 53f3 e6bd 2252 8abd f8f0 a1bd
000000f0: 6dbc 41bc 2099 6cbb 80b2 093d 7e8b 81bd
00000100: bccf d43d 1a69 51be a761 3fbd 32d7 24be
00000110: 4eed cd3d 4854 90bc 3ba3 b8bd c3b7 3fbb
00000120: 56d6 5a3d 84ed c3bd c26f 8bbd 12a0 a9bd
00000130: 3f6f 08bd b639 5c3d 4542 c4bd 873e b2bd
00000140: 9f75 c5bd 1b54 b8bd 5bce 5cbc 029d d6bd
00000150: 1973 0b3b 7856 f03c ab3e 2dbd 796b c1bd
00000160: 001f e73d 5b2f d7bd 66f7 143d a1cb a1ba
00000170: 9c24 153d a81f 5ebd baa5 0dbd ccfa 5cbc
00000180: 1baa babd 8a66 4fbd e7d2 993d 65e7 9d3e
00000190: 5097 c73d 0d3f aa3d f1f8 b0bc 3cff 90bd
000001a0: 6003 40bd f7dd ca3e 6c86 c33d 12b1 613d
000001b0: a3a0 4cbd 9f77 00bd 55f4 e4bd 1d71 8e3d
000001c0: 51ee c53c 9b91 ebbc b080 ccbc 3539 a3bb
000001d0: 1f03 65bd ac1f e3bc bc7f b2bd 4d4f 55bc
000001e0: 344d 0bbe 62a5 5abd a0f1 84bd 6a57 2c3c
000001f0: 601d a7bd 5200 95bd 8409 b4bd 1ace c43d
-0.03085707 -0.06801391 -0.08930617 -0.043479316 -0.03990924 -0.015640518 0.038356382 -0.00042955167
0.0119874 -0.0031356944 -0.010710365 -0.061153214 0.0842754 0.075485915 -0.049294364 0.036393385
-0.14607441 -0.0023231965 -0.06797529 -0.037042983 -0.10150723 0.069632635 0.034719173 0.045621373
-0.10228155 -0.036312845 0.08158323 -0.031920727 0.027045181 -0.088388816 -0.009143973 0.1044463
-0.103844 0.08631842 -0.08756024 -0.070305094 0.047364835 -0.06339104 -0.20486026 -0.054212447
-0.060573693 -0.04589963 -0.11202645 0.021710398 -0.05117704 0.076845236 -0.006107159 -0.02062608
-0.11221141 0.080983795 0.0005161982 0.027197247 -0.029474892 -0.06645561 -0.05534036 -0.06524482
-0.073037356 -0.11276879 -0.06753947 -0.07907289 -0.011824709 -0.0036102012 0.033617496 -0.06325434
0.10391185 -0.2045025 -0.046723988 -0.16097715 0.10055028 -0.017618313 -0.09015509 -0.0029253818
0.053427063 -0.09566787 -0.068084255 -0.08282484 -0.033309218 0.053765975 -0.095829524 -0.087033324
-0.09641575 -0.09000417 -0.013476933 -0.104791656 0.002127832 0.029338107 -0.042296093 -0.09444327
0.1128521 -0.10507079 0.03636875 -0.0012344011 0.036411867 -0.05422941 -0.034581877 -0.013487529
-0.09114476 -0.0506349 0.075109296 0.30840603 0.097456574 0.08312807 -0.02160308 -0.07079932
-0.04687822 0.3962247 0.09547123 0.055100508 -0.049957883 -0.03136408 -0.11179415 0.069551684
0.02416149 -0.028755954 -0.024963707 -0.004981185 -0.05591118 -0.027725063 -0.0871577 -0.013019395
-0.1360367 -0.053380378 -0.06491399 0.010518888 -0.081599 -0.07275452 -0.087908775 0.09609623

fc3.weight f4 [2, 128]
00000000: d0df 0f3c 59fb 27bd 8045 9aba d756 2fbd
00000010: e92b aabc 61d0 e0bc c3d8 f73c cf18 653d
00000020: 89f1 0b3e a0da 453d 8033 033e f3f2 c53d
00000030: 396d 903d 966e 733c e00c 79bc da70 b13d
00000040: 81c0 1bbe 6993 323d 3ec2 8b3c 347e 5a3d
00000050: 56b2 833b 1ca6 5c3c eb4b 493d 6aa7 b6bc
00000060: 6e7e 443c b37b 9c3d bfec 98bc 50f1 b83b
00000070: f365 b53d e823 c63c 4279 5d3d 4843 9c3d
00000080: e6eb cbbc 9367 a83d 6385 d53c 3d68 07bd
00000090: fce6 78bc c87d 11bd e76f dd3d b6ea 9c3d
000000a0: 5c8e 963d 04ec 87bc 99de fb3d 2062 123c
000000b0: 25ab f13c a55b 2fbd f3ad 72bd 9a59 b03c
000000c0: 458c 84bd f26d 523c f39e 4a39 b0bb 40bd
000000d0: a495 b9bc 1de6 5ebe 6b43 6e3d f4c3 b6bd
000000e0: e69e f93b a9ff 7f3d 2415 1c3d d2a2 23bd
000000f0: 6f76 123e cc58 d9bc 08c9 ad3d ca1c 63bd
00000100: f92e e63d dec1 47be 2dbc 5d3d 39d5 03bd
00000110: fb9b 9c3d 2f0e fdbc ff78 093d f73b 893d
00000120: 9f83 f43c 9f09 6f3d de31 b33c dc4a 47bd
00000130: d135 633c 8352 73bd e568 fdbb 77e9 d53d
00000140: 8f39 a13c c76d b03c e566 24bc e0bc 00bd
00000150: 9a3d f0bc a8ca 393c 257c 78bd e563 95bc
00000160: 19bc 733d b7f3 83bc ea7b 49bd 222f 8f3d
00000170: ab5b dc3c 508e 2d3c d654 f3bb deb9 ba3d
00000180: b367 bb3d 3dd6 fabc 3864 ee3b 2453 7dbe
00000190: 3264 923d 9e7c 0cbd 525a 813d 7498 83bd
000001a0: 9d11 35bd d927 7dbe 8a2d d53d 910f 99bd
000001b0: f19f a9bc 040a 6d3d c2a7 16bd 6c53 723d
000001c0: 19eb 8fbc 9d66 9a3b 6a5f 2a3d 1fb3 2fbc
000001d0: 5507 a6bd 0f40 0a3c 801d 82bc 2ed1 40bc
000001e0: 5d85 ec3d b265 933b fd42 42bd 97b3 bebc
000001f0: 08ba 87bd e49d f13d 483c 2c3c 6184 9cbb
00000200: cef5 eeba 33f2 09bd ca96 24bd f9c8 35bd
00000210: b2bd 033d 56f3 323c 7193 07bc 5add 52bc
00000220: 9903 dbbd 8855 7abd f704 0f3c 56fe a4bb
00000230: 7230 fbbc 497a 3cbb 3ef4 c3bb 8533 cebd
00000240: 1538 e73d f6bb dbbc 5b4d ebbc e476 8e3c
00000250: 85c5 813d cb4c b3bd 5c6d 47bd 8ca6 0fbd
00000260: 59b1 b23d 3dda 5b3c c2d3 24bd c297 a33c
00000270: 3b18 89bc d105 a6bb 05b5 8fbc ce60 a3bd
00000280: db33 0fbe 425c e7bd 8253 dc3d 4615 82bc
00000290: 8d1d 03bd f949 c7bd 5a5a 68bd ef50 a73c
000002a0: b300 c8bc 6f3c 353c d758 9d3c eef2 2dbd
000002b0: 4d33 b1bd c577 a5bb 9c17 9dbd 1758 bbbc
000002c0: 8db5 193d 2762 cdbd c837 78ba fbe6 20bd
000002d0: b44f febd e5b0 853e edb0 4d3d d572 9d3d
000002e0: afcc aabd 3844 3fbc efb3 31bd 0a8e a8bd
000002f0: 8fe9 e23c 3661 b23d 6fe7 e7bd 99b7 8abb
00000300: 4efd d7bd 8818 513e e949 f93c 71d0 343d
00000310: ee89 cdbd 83f3 f43c fe52 b53d 7edf 32bd
00000320: 5cc5 02be f09c e33c def7 a9bd 2b39 1fbd
00000330: 63b3 5fbd 5fd6 ffbc cab2 3cbd f5cd 31bd
00000340: 4fb9 e13c 58c3 863b 8e5a d1bd 0747 40bd
00000350: 6e78 c6bc f7c2 febd ed29 98bc ca52 aabd
00000360: d377 823d eaee 8cbc a20e 9abd dfb3 da3b
00000370: ed74 b6bc 071e 41bb adde 15bd 46d9 84bc
00000380: f5b9 913b 70ac f3bd 2c0b b8bd b655 203e
00000390: 577e d6bd 6939 c03c bf25 2cbd cac5 a239
000003a0: 46d6 d4bd 69cd 973e 5d6f b5bd 7f70 88bd
000003b0: b603 71bd b2e6 74bd 0b4d 923d 53df b33d
000003c0: bb52 0ebd 22c9 9bbd d7a0 8b3c bf8f 9c3c
000003d0: cc4b 643d 0deb abbd 207d 49bd 275e b7bd
000003e0: 9ca0 03bd af5a b03c 8788 af3d 5e3d 89bc
000003f0: dd4b 77bd 1e4c 07be 33c4 42bd b0ef 3abb
0.008781388 -0.04101119 -0.001176998 -0.042807426 -0.020772891 -0.027443113 0.030254727 0.055931862
0.13666357 0.0483042 0.12812614 0.096654795 0.070520826 0.014857909 -0.015200824 0.08664103
-0.15210153 0.043597613 0.017060395 0.053343013 0.004019062 0.013467338 0.049144667 -0.022296626
0.011993034 0.07640781 -0.018667577 0.005644001 0.08857336 0.024187043 0.05407072 0.076300204
-0.024892759 0.0822288 0.02606458 -0.033058394 -0.01519179 -0.035520345 0.10812359 0.07661955
0.07351372 -0.016592033 0.122983165 0.008934528 0.029500553 -0.04281201 -0.059247922 0.0215271
-0.06472067 0.012843596 0.00019323434 -0.047053993 -0.022654362 -0.21767469 0.058169764 -0.08924094
0.007617819 0.062499676 0.0381061 -0.0399502 0.14302991 -0.0265316 0.08485609 -0.055447377
0.11239428 -0.19507548 0.054134537 -0.032185767 0.076469384 -0.030890552 0.033562656 0.067008905
0.029847918 0.058358785 0.021874364 -0.048655376 0.013867811 -0.05940486 -0.0077334517 0.104449205
0.019680766 0.02153672 -0.010034298 -0.031430125 -0.029326249 0.011339821 -0.06066527 -0.01823611
0.059505556 -0.016107423 -0.04919044 0.06991412 0.02689918 0.010593012 -0.0074258847 0.091174826
0.091506384 -0.030619735 0.0072751306 -0.24738747 0.07148017 -0.03429853 0.06316055 -0.064255625
-0.04420625 -0.24722232 0.104090765 -0.07473672 -0.020706149 0.05787088 -0.03678108 0.05916159
-0.017568158 0.0047119395 0.0415949 -0.010723858 -0.08106867 0.008438124 -0.015883207 -0.011768622
0.115488745 0.004498207 -0.047427166 -0.023278994 -0.066272795 0.11797693 0.010512419 -0.004776523
-0.0018231214 -0.033678245 -0.040182866 -0.044381116 0.03216333 0.010922274 -0.008274899 -0.012870157
-0.106940456 -0.061116725 0.008729211 -0.005035202 -0.030662749 -0.002875941 -0.0059800437 -0.1006842
0.11289994 -0.026823025 -0.02872341 0.017390676 0.06336502 -0.087548815 -0.048688278 -0.03507094
0.08725233 0.013418731 -0.04024101 0.019969825 -0.016735187 -0.0050666113 -0.017542372 -0.079774484
-0.13984625 -0.11296894 0.10758115 -0.015879285 -0.032010604 -0.09730906 -0.05672679 0.020424334
-0.024414396 0.011061772 0.019207401 -0.042468004 -0.08652363 -0.005049678 -0.07670519 -0.022869153
0.037526656 -0.10028487 -0.0009468761 -0.03928278 -0.12417546 0.26111522 0.050217558 0.07687918
-0.083398215 -0.011673979 -0.04338449 -0.08230217 0.02769926 0.08709948 -0.11323439 -0.0042333123
-0.10546361 0.20419514 0.03043075 0.044144098 -0.100360736 0.029901272 0.0885372 -0.04367017
-0.12770599 0.027784795 -0.0829923 -0.03887288 -0.054614436 -0.03123015 -0.046068944 -0.043409307
0.027554182 0.0041126423 -0.1022235 -0.046942737 -0.024227347 -0.1243953 -0.01857468 -0.08316572
0.06370511 -0.017203767 -0.07522322 0.0066742743 -0.022272551 -0.002946736 -0.036589313 -0.016216885
0.0044472166 -0.11898124 -0.08986506 0.15657696 -0.10473316 0.023464875 -0.042028185 0.00031046412
-0.10392432 0.29648903 -0.088591315 -0.06662082 -0.05884143 -0.05979032 0.07143601 0.0878283
-0.034746867 -0.076067224 0.017044468 0.019111512 0.055736348 -0.08394442 -0.049191594 -0.08953505
-0.03213559 0.021527616 0.085709624 -0.016752895 -0.060375083 -0.1321263 -0.04755039 -0.0028524213

fc3.bias f4 [2]
00000000: 7644 0cbb 6662 fcbb
-0.002140311 -0.0077021597
