Project 3-Open set recognition/Project/Weights/9_weights.pth (torch, 387487 bytes, 10 tensors)

conv1.weight f4 [64, 1, 7, 7]
000000 c8 5d 8b 3e 93 7f 99 3e 2c 99 a5 3d 2e 00 61 3c
       0.27219987 0.29980144 0.08085856 0.013732953
000010 23 99 78 3e 15 e3 fd 3d dc 7d 79 3e 24 bf 30 3e
       0.24277167 0.12396828 0.24364418 0.17260414
000020 72 8f b9 bd 76 64 03 be d3 81 dc bd 48 54 69 3e
       -0.09060563 -0.12831292 -0.107669495 0.22786057
000030 db ec 29 3e d9 60 6e 3e 27 e6 b6 3e c6 c4 65 be
       0.1659426 0.23279132 0.35722467 -0.22438344
000040 56 d7 95 be 2d 70 6b bd 68 7f 35 3e 57 96 9a 3e
       -0.2926585 -0.057480026 0.17724383 0.30192825
000050 0d 61 46 3e 81 17 a2 3e 6d 77 61 3c ea aa 02 3c
       0.1937296 0.31658557 0.0137613835 0.007975319
000060 f9 62 a4 3d 06 53 b9 3e 3e 30 8e 3e d9 b1 dd bc
       0.0802669 0.36196154 0.2777118 -0.027062343
000070 77 86 06 3e 79 ce de bd b8 d9 aa 3e 9e b7 03 3f
       0.13137232 -0.10879225 0.3336923 0.5145205
000080 2c ea bc 3e fb 12 0c bd 39 18 07 be 4a 75 8b bd
       0.3689741 -0.03419779 -0.13192834 -0.068094805
000090 b1 72 e5 bc 61 f0 94 3d 0e 1a f8 ba bd 7f b9 bd
       -0.02800879 0.07272411 -0.0018928663 -0.09057567
0000a0 f7 39 57 be 67 95 19 be d4 6f 77 bd a9 01 07 be
       -0.21018206 -0.14998399 -0.060409382 -0.13184227
0000b0 bc 47 2f bd d8 2a 3e be 77 82 1b be c9 e2 64 be
       -0.04279302 -0.18571031 -0.15186487 -0.22352137
0000c0 50 e2 ac be a4 5b b0 3d 12 3f f6 3d 57 a4 86 3e
       -0.33766413 0.08611229 0.120237485 0.26297256
0000d0 f2 ec 73 bd 9a 35 7d 3d 6f bc f1 3d eb db 3c 3e
       -0.05955214 0.061818697 0.11803519 0.18443267
0000e0 73 b2 84 3e bc df c5 3d c4 2b f4 bc 04 ac 91 bd
       0.25917396 0.096618146 -0.029806025 -0.071128875
0000f0 3b 48 0f be ee f3 53 3d bd a7 18 3e ee 31 83 3e
       -0.13992397 0.0517463 0.14907737 0.2562403
000100 01 68 5b 3e b7 c8 be 3d 14 bb 83 bd ee 79 15 bd
       0.21426393 0.09315627 -0.06432167 -0.036493234
000110 5f ee 9c bd 04 60 8a 3e 8d cf ac 3e 96 f4 28 3d
       -0.07662653 0.2702638 0.337521 0.04124888
000120 8e 8f 21 3e c5 52 15 bd 35 64 33 be 11 7e 5d 3d
       0.15777418 -0.03645589 -0.17518695 0.054075304
000130 49 ce 55 3e 64 eb dd 3e 2f ec 9f 3d d7 7a cf 3d
       0.20879473 0.4334365 0.0780872 0.10130852
000140 f8 70 15 bd 04 83 00 be fa 0a 4b bc ea 6a 0e 3e
       -0.03648469 -0.12549978 -0.012392754 0.13907972
000150 65 d0 a1 3e 73 d7 53 3d ac b9 0c 3e 4c 57 b7 3d
       0.31604305 0.05171914 0.13742703 0.089521974
000160 8b 5f 3d bb 4c 15 04 bd 6e ab d3 3d 31 13 a1 3e
       -0.002889606 -0.032246873 0.10335432 0.31459954
000170 ef a8 e0 3b f2 47 23 bb 9a bd 97 bc 8f 23 7e 3e
       0.006856076 -0.002491471 -0.018523026 0.24818252
000180 dd 94 9f 3e 77 e5 a0 3e f5 d5 9b 3e f5 59 fd 3e
       0.3116826 0.31425068 0.30436674 0.49482694
000190 c7 9a 41 3f fa c9 ff 3e d3 0e a3 3e ee b5 d5 3e
       0.75626796 0.49958783 0.31847247 0.41740364
0001a0 3d 83 cd 3e 9c 5c fd bd ef a1 5b bc 9e 64 22 3e
       0.4013919 -0.123711795 -0.013405307 0.15858695
0001b0 0e 02 a2 bd 53 74 3d be 21 05 c5 bd 42 7f 20 be
       -0.07910548 -0.18501405 -0.09620119 -0.15673545
0001c0 3f 67 ea bc f5 55 58 be a2 5d 5f be 42 e7 4b be
       -0.028613685 -0.2112654 -0.21813062 -0.19912437
0001d0 51 e2 90 be 50 65 5d be 17 e4 92 be b6 b4 31 be
       -0.28297666 -0.21620679 -0.28689644 -0.17354092
0001e0 c0 48 02 bc 9b 5d 18 be 2c c8 d1 bd 93 80 ff bd
       -0.007951915 -0.14879458 -0.10243258 -0.124756955
0001f0 dd 0d 36 be cf 6e 86 be b1 9c 9b 3d 9a 1a 3a bd
       -0.17778726 -0.26256415 0.07598246 -0.045435525
000200 90 50 df bd a8 be 3b 3d 3a 96 5b be f5 87 c5 bd
       -0.10904038 0.04583612 -0.21444026 -0.09645072
000210 09 1f da bd 33 42 1c 3d ce b6 ac 3c c7 bd 4c bd
       -0.10650451 0.03814907 0.021083262 -0.049985673
000220 d6 c9 43 3b f0 c6 06 bd 10 53 3e be fc b1 c9 ba
       0.0029874942 -0.032904565 -0.18586373 -0.0015388126
000230 7e ac 95 3e a6 4b 69 3e e4 39 e2 3e 36 f0 2a 3f
       0.29233164 0.22782764 0.44184792 0.6677278
000240 a6 4a 4d 3f 1f d8 46 3f 1f af 06 3f b6 ae 9e 3e
       0.8019203 0.77673525 0.52610964 0.3099267
000250 74 92 d8 3e d7 dd c2 3e 71 47 37 3f af ed 5a 3f
       0.42299235 0.38059875 0.71593386 0.85518926
000260 07 84 2b 3f 2d 38 ea 3c f8 80 ba 3d a1 bc 35 bd
       0.6699833 0.02859124 0.0910663 -0.044369344
000270 d0 cf 46 ba 5d e4 15 3f eb 2b 14 3f ad 3e 09 3f
       -0.0007584067 0.5855158 0.57879514 0.5361126
000280 bf 30 8c 3e 98 1b 5f 3c 03 6d 48 bd e1 df 40 3d
       0.2738094 0.013617419 -0.048932087 0.047088508
000290 24 bc 9c 3e 06 c6 91 3e 37 83 5d 3e 42 ac 05 3e
       0.3061229 0.28471392 0.21632086 0.13053992
0002a0 61 bd 22 be aa 53 a0 bd 10 f2 21 be cd ea fa bd
       -0.15892555 -0.07828458 -0.15814996 -0.12251816
0002b0 7f da 95 be 66 e1 85 be 1c ca d5 3e 53 7b 61 3d
       -0.29268262 -0.26148528 0.4175576 0.05504925
0002c0 51 c2 c9 bd 14 9d d3 3d d5 2c 90 be 15 53 88 be
       -0.09851516 0.10332695 -0.28159204 -0.26625887
0002d0 de b6 e0 3c 76 23 3a 3f 98 3c 0a bc 9e d4 52 bd
       0.027430948 0.7271036 -0.008437298 -0.0514723
0002e0 a5 c3 2c be b5 68 02 3d f0 ad 3e be 75 7a cc 3d
       -0.16871507 0.031838138 -0.1862104 0.09984294
0002f0 ca 3b 7c 3f df 0c 34 bd 1c 2d a6 bd 83 ab 48 bd
       0.9852873 -0.043957587 -0.08114073 -0.04899169
000300 7d 02 1a 3e da 3e 20 bd 7a 49 cc 3d 7a b1 7a 3f
       0.15040012 -0.03912244 0.09974952 0.9792706
000310 88 6e 2a 3d 6a ac 9a 3c 66 c0 44 3e b2 3b e4 3d
       0.041609317 0.018881042 0.19214019 0.111441985
000320 ae dc 88 3e 43 0e 70 3e 30 24 2f 3c c2 85 09 bc
       0.26730865 0.2344294 0.01068978 -0.008393707
000330 d0 43 be 3d 22 6c 60 bd 82 d8 83 be 24 57 66 3d
       0.09290278 -0.054790623 -0.2575112 0.056235448
000340 22 c6 ae 3d a5 26 d7 bd 44 9e 84 3e 86 3f 1b 3e
       0.085338846 -0.10505418 0.25901997 0.15160951
000350 98 db 63 3d 27 1f 81 be da 5c e9 bd d8 ee a5 3e
       0.055629343 -0.2521908 -0.11394663 0.32408786
000360 db d5 07 3e 7f 74 91 3d 96 05 ce 3e bd 10 fe 3d
       0.13265173 0.07102298 0.40238637 0.12405536
000370 37 ea 53 3d a5 2c 31 3e 59 78 c9 3e e6 4a c7 3e
       0.051737037 0.17302187 0.3934963 0.3892433
000380 02 62 87 3d e8 b1 a3 3e 1e 9b 71 3e 0d 9f 08 3e
       0.066104904 0.3197167 0.23594329 0.13341923
000390 ad 06 69 3e da 23 2f 3e e0 e6 bd 3d 45 71 a0 3e
       0.22756453 0.1710352 0.092725515 0.31336418
0003a0 00 e0 9e bd 7b 42 8b 3d 05 08 84 3d 2f 15 db 3d
       -0.07757568 0.067997895 0.06446842 0.106974
0003b0 39 62 01 3c de 3b 9f 3d fb a1 5d 3e 77 14 a9 be
       0.007896953 0.07775091 0.21643822 -0.33023426
0003c0 d5 33 64 be 6b d6 f0 bc 58 01 55 3c b0 4a 42 bd
       -0.22285397 -0.029399117 0.013000809 -0.04743451
0003d0 05 4f 57 bc b5 3c da bd e9 69 90 3d bf 4a e0 3d
       -0.013141398 -0.1065611 0.07051451 0.10951757
0003e0 f1 78 d5 3d 7f 86 f8 bd 8c e2 cd bd ec fd c2 bd
       0.10423458 -0.12135028 -0.10052976 -0.09521088
0003f0 d5 92 22 be 91 61 36 bd 36 d1 28 bd a4 d9 7c be
       -0.15876324 -0.04452664 -0.041215144 -0.24692398

conv1.bias f4 [64]
000000 0f 35 d6 be aa ca 01 bf a8 be 1b be 66 21 ab bd
       -0.41837355 -0.50699866 -0.15209448 -0.083559796
000010 36 b4 54 be c1 f7 52 be ee 57 98 be f8 85 9f be
       -0.2077187 -0.20602323 -0.29754585 -0.31156898
000020 fc a1 57 bd 56 b4 bc be be c5 b6 be 9e d3 ea be
       -0.052644715 -0.36856335 -0.3569774 -0.45864576
000030 55 6f 54 be d4 a8 6b be b2 cb ab bd 8e 77 c7 bd
       -0.20745595 -0.23013622 -0.08388461 -0.097396
000040 33 6e ae be 4c 78 d5 bd ee 4e 36 3b d4 5d c4 be
       -0.3406845 -0.104233354 0.0027818042 -0.38352835
000050 13 9b 77 be 6d 9b cd be 60 5e 0b be 80 ab 7f be
       -0.2418025 -0.40157643 -0.1361022 -0.24967766
000060 19 f8 58 be 27 a0 91 bd 74 a5 59 be 1b 6e 10 be
       -0.21188392 -0.07110625 -0.21254522 -0.14104502
000070 46 6a ab be 8f 90 62 bd 85 27 1a bf 07 dc 93 be
       -0.33479518 -0.055313643 -0.6021655 -0.28878805
000080 92 e1 5e be ed 39 95 3c 97 60 fb 3b 72 a0 24 be
       -0.21765736 0.018216098 0.0076714265 -0.1607683
000090 c6 d7 de be 86 1c a6 bd d0 30 8e be 37 c7 23 be
       -0.43523997 -0.08110909 -0.27771616 -0.15993963
0000a0 19 a9 4e be 6e c2 8b bd e9 28 81 be 89 81 b2 be
       -0.20181693 -0.06824194 -0.25226524 -0.34864452
0000b0 38 a5 18 be 82 27 bc be 16 37 94 be 86 77 79 be
       -0.14906776 -0.36748892 -0.28948277 -0.24362001
0000c0 d9 ce ba 3b 4d 29 06 bf dd 62 bf be d0 e2 a2 be
       0.0057009277 -0.5240677 -0.37380114 -0.3181367
0000d0 c8 5a 9a be 78 0d 87 be 06 b7 c8 be f4 69 97 be
       -0.30147386 -0.26377463 -0.39202136 -0.29573023
0000e0 57 7d 3f be a5 06 36 be 48 66 e1 39 de 26 7a be
       -0.18700157 -0.17775972 0.0004299155 -0.24428889
0000f0 3f 20 48 be f2 77 a5 be 83 85 0a be 38 12 5c 3c
       -0.19543551 -0.32318074 -0.13527493 0.013432078

conv2.weight f4 [32, 64, 5, 5]
000000 5c c6 1e bd 03 fa 6e bd fc ca 79 bd 5f d7 85 bd
       -0.03876339 -0.0583439 -0.060984597 -0.065352194
000010 d9 ca 82 bd b9 b0 87 bd c6 30 3c bd f5 a9 91 bd
       -0.06386346 -0.06625504 -0.04594495 -0.07112495
000020 c8 6d 2a bd 86 5a 1a bd 03 b8 86 bd 34 5d 43 bd
       -0.0416086 -0.037683986 -0.06578066 -0.047696307
000030 a5 d2 33 bd 49 be 34 bd 31 dc 8d bd 97 fb 36 bd
       -0.04390206 -0.044126783 -0.06926764 -0.04467353
000040 26 d8 88 bd 00 b2 85 bd 8c ce 76 bd b8 4b 48 bd
       -0.06681852 -0.065280914 -0.060255572 -0.048900336
000050 22 69 13 bd 6c e4 72 bd 16 31 79 bd a3 73 8a bd
       -0.035988934 -0.05929987 -0.060837828 -0.06760337
000060 ab c1 92 bd 2b 7b 9f bd 0a 6d 92 bd ed 8a 8e bd
       -0.071658455 -0.07787164 -0.07149704 -0.06960092
000070 fd 00 aa bd 10 c5 66 bd 11 6f 30 bd 40 4f 16 bd
       -0.0830097 -0.056340277 -0.04307467 -0.036696672
000080 ed 82 6a bd ab b6 83 bd e9 f0 5a bd 81 df 89 bd
       -0.057253767 -0.064313255 -0.053452406 -0.06732083
000090 96 fb 94 bd 6a be 80 bd 4b b7 90 bd 48 4d 9c bd
       -0.07274549 -0.062863186 -0.0706621 -0.07631928
0000a0 c6 97 1a bd ea ca 3b bd 4b 2c 37 bd 7e a2 62 bd
       -0.0377424 -0.04584781 -0.044719975 -0.055330746
0000b0 bd de 6e bd c4 55 48 bd ee 10 a9 bd 53 f6 99 bd
       -0.05831789 -0.048909917 -0.08255182 -0.07517686
0000c0 2f b7 27 bd 9c ae 69 bd c0 88 94 bd f1 16 82 bd
       -0.040946182 -0.057051286 -0.072526455 -0.06352032
0000d0 ca ed a7 bd 76 46 95 bd 2f 2b 40 bd 9c 5c 8a bd
       -0.081996515 -0.0728883 -0.046916183 -0.06755945
0000e0 7f 13 8c bd 72 d0 0f bd d4 af 30 bd 2f cd 9e bd
       -0.06839656 -0.0351109 -0.043136433 -0.077539794
0000f0 b3 48 95 bd 1f 1a 52 bd d7 a3 6d bd be 5a 8e bd
       -0.07289257 -0.051294442 -0.058017578 -0.069509014
000100 32 9a 65 bd 36 a3 3d bd 7b d5 8e bd b2 df 22 bd
       -0.056055255 -0.04629823 -0.06974312 -0.039764114
000110 37 54 9b bd cc ec 92 bd a9 ea 69 bd 37 8e 39 bd
       -0.07584422 -0.07174072 -0.057108555 -0.045301642
000120 d6 cd ac bd 53 74 a1 bd 01 a7 9e bd 7e 3f a8 bd
       -0.084376976 -0.07883515 -0.07746697 -0.08215235
000130 0a a4 80 bd 0b eb 36 bd 63 91 45 bd 60 71 8f bd
       -0.06281288 -0.04465775 -0.048234355 -0.070040464
000140 50 32 31 bd 7a ae 91 bd aa 9d 49 bd 7a 4c 8d bd
       -0.043260872 -0.07113357 -0.049222626 -0.06899352
000150 00 19 68 bd 01 f7 8a bd 54 c8 6a bd 2e 57 8b bd
       -0.056664467 -0.067853935 -0.057319954 -0.068037376
000160 f6 d1 4d bd 30 46 a8 bd 01 0c 92 bd 96 f1 8c bd
       -0.050249062 -0.08216512 -0.07131196 -0.06882016
000170 00 9d 8c bd 92 63 80 bd d9 6e 2e bd 5c f8 93 bd
       -0.06865883 -0.062689915 -0.04258618 -0.07225105
000180 ba c5 87 bd 0f 03 4f bd 7c b8 a7 bd dd a4 a5 bd
       -0.0662951 -0.050540026 -0.081894845 -0.08088086
000190 67 b6 22 bd b2 d4 41 bd 0e 12 6d bd 3b e8 6b bd
       -0.039724734 -0.047321983 -0.057878546 -0.05759452
0001a0 ab e1 6f bd eb d1 6e bd d4 c1 50 bd fc 55 2b bd
       -0.058564823 -0.058305662 -0.0509661 -0.041830048
0001b0 ad 77 78 bd 21 94 97 bd df 11 ae bd 15 ca 41 bd
       -0.060661007 -0.074013 -0.084995024 -0.04731186
0001c0 06 27 97 bd d6 94 80 bd 18 c9 8e bd af 32 91 bd
       -0.0738049 -0.06278388 -0.06971949 -0.07089745
0001d0 56 e4 41 bd fa 7f 31 bd ff 57 57 bd 30 0f 5b bd
       -0.0473369 -0.04333494 -0.052574154 -0.05348128
0001e0 0a 1c 3b bd ad b1 9d bd 9b 3a 94 bd 09 93 54 bd
       -0.045681037 -0.076999046 -0.072377406 -0.051898036
0001f0 3e bd 84 bd 44 cb 33 bd 20 cc 4f bd dc fa 9a bd
       -0.064814076 -0.04389502 -0.05073178 -0.07567379
000200 5a c4 11 bd d3 f6 4e bd 25 f6 98 bd d4 b3 53 bd
       -0.035587646 -0.05052836 -0.07468823 -0.05168517
000210 e6 01 6d bd 0a 06 9f bd d4 43 1e bd 0d 37 29 bd
       -0.05786314 -0.07764824 -0.038638905 -0.041312266
000220 11 72 99 bd 32 37 5b bd 31 c5 47 bd 77 9d 80 bd
       -0.074924596 -0.053519435 -0.04877204 -0.06280034
000230 34 a0 4c bd 41 95 3f bd fc e0 28 bd 1a 13 31 bd
       -0.04995747 -0.0467732 -0.041230187 -0.043231107
000240 3b 1f 6c bd 1f a6 1e bd 48 0b 96 bd 1e a9 92 bd
       -0.05764697 -0.038732644 -0.073263705 -0.07161163
000250 8f 5c 93 bd bf dc 11 bd f7 f3 25 bd e4 16 82 bd
       -0.071953885 -0.03561091 -0.040515866 -0.06352022
000260 93 a0 9f bd 98 b9 6b bd ae 9f 89 bd 95 d2 48 bd
       -0.07794299 -0.057550043 -0.067199096 -0.04902895
000270 28 34 72 bd 1d ba 73 bd fa b5 a5 bd 5f 74 22 bd
       -0.05913177 -0.059503663 -0.0809135 -0.03966176
000280 d5 ef 7d bd f7 d7 a0 bd fe 16 8a bd 0a 8a ac bd
       -0.0619963 -0.07853692 -0.06742667 -0.08424766
000290 b5 e7 84 bd 0f ce 51 bd 2d cd ac bd b1 12 89 bd
       -0.06489507 -0.051221903 -0.08437572 -0.06693018
0002a0 c8 1f 80 bd 9f 2f 93 bd 0e b3 a6 bd ba c7 64 bd
       -0.06256062 -0.071868174 -0.08139621 -0.055854537
0002b0 a7 19 22 bd be 11 95 bd ee d0 21 bd 30 96 69 bd
       -0.039575245 -0.07278775 -0.03950589 -0.057027996
0002c0 90 27 3a bd 63 c8 5c bd cf fe 98 bd b2 5f 6d bd
       -0.045447886 -0.05390204 -0.07470476 -0.05795259
0002d0 5a 50 8f bd cd 62 7b bd 70 99 58 bd 04 cd 34 bd
       -0.06997748 -0.06137352 -0.052880704 -0.04414083
0002e0 45 97 8f bd c6 5c 26 bd e3 5d 2d bd a8 6c 87 bd
       -0.07011274 -0.04061582 -0.042325865 -0.066125214
0002f0 04 09 7c bd ce f2 25 bd e9 d4 5f bd b9 86 4a bd
       -0.061532035 -0.04051476 -0.054646406 -0.049444888
000300 6e d9 2c bd 20 83 94 bd 04 5e 2e bd 8f 0c a1 bd
       -0.042199545 -0.072515726 -0.04257013 -0.078637235
000310 d9 58 99 bd a1 82 66 bd 2c 86 28 bd 0e 39 75 bd
       -0.074876495 -0.05627692 -0.04114358 -0.059868865
000320 42 5f a1 bd 2d 98 7b bd d1 d3 4a bd 68 9b 36 bd
       -0.07879497 -0.061424423 -0.04951841 -0.0445818
000330 a4 cb a5 bd 69 50 1a bd 0f 42 81 bd 2b c0 a0 bd
       -0.08095482 -0.03767434 -0.06311428 -0.07849153
000340 fe b0 10 bd b8 f6 43 bd ea 04 81 bd 9c 5c 55 bd
       -0.035325043 -0.04784271 -0.062997654 -0.052090272
000350 97 7e 69 bd 32 d4 23 bd 9b 37 a7 bd 78 29 a8 bd
       -0.05700549 -0.039997287 -0.08164903 -0.082110345
000360 ad 4f 91 bd d9 a0 42 bd 6b e6 44 bd 14 7c 7c bd
       -0.07095275 -0.047516678 -0.048071306 -0.061641768
000370 d8 2a 18 bd 13 2e 87 bd 0c e9 9f bd cc fa 84 bd
       -0.037150234 -0.06600585 -0.07808122 -0.06493148
000380 79 29 a8 bd 04 55 80 bd 0d 5a 6a bd 01 6d 83 bd
       -0.08211035 -0.062662154 -0.057214785 -0.06417275
000390 68 8a 44 bd 68 e7 7e bd 31 4e 94 bd 30 2e a4 bd
       -0.047983557 -0.062232405 -0.07241476 -0.08016622
0003a0 4f 19 58 bd e8 ed 83 bd 8c b5 4a bd 29 86 62 bd
       -0.05275851 -0.064418614 -0.049489543 -0.055303726
0003b0 e2 d0 0f bd f0 f9 30 bd 00 74 60 bd d3 38 a7 bd
       -0.035111316 -0.04320711 -0.054798126 -0.08165135
0003c0 95 52 17 bd 00 e2 93 bd 9e 36 48 bd 4e f6 54 bd
       -0.03694399 -0.072208405 -0.048880212 -0.051992707
0003d0 0d 0a 88 bd 5d 9a 37 bd ab e9 3b bd cb 33 79 bd
       -0.06642542 -0.044824947 -0.04587714 -0.06084041
0003e0 44 f4 21 bd 6e b4 38 bd 88 ac 74 bd 17 19 80 bd
       -0.03953959 -0.045093946 -0.05973485 -0.062547855
0003f0 b3 5e 4b bd 5b 48 98 bd 43 a3 18 bd 26 c9 18 bd
       -0.04965086 -0.07435676 -0.037265074 -0.037301205

conv2.bias f4 [32]
000000 60 0d 79 bd 6e e1 a2 bd 74 10 99 bd 99 8a 8a bd
       -0.06080377 -0.079531536 -0.07473841 -0.06764717
000010 11 5c 55 bd c7 c8 4d bd 0f cf 7a bd 2f 2a 9f bd
       -0.052089754 -0.050240304 -0.061232623 -0.07771718
000020 f0 7d 96 bd 2c 6c 9f bd 25 6a 59 bd 6d f4 47 bd
       -0.073482394 -0.07784304 -0.053079743 -0.048817087
000030 93 91 40 bd d5 ec 4f bd b1 fd 45 bd 0b 97 3b bd
       -0.04701383 -0.05076297 -0.048337642 -0.045798343
000040 10 7b 2b bd f4 9f 99 bd 1e 17 28 bd 93 f1 5d bd
       -0.04186541 -0.07501212 -0.04103767 -0.05418546
000050 d2 19 9d bd 79 7a 79 bc c9 bf 92 bd 09 98 71 bd
       -0.076709405 -0.015226954 -0.07165486 -0.058982883
000060 e6 de 12 bd 05 aa e6 3d b0 ca 45 bd f2 8b 61 bd
       -0.035857104 0.112628974 -0.048289 -0.055065103
000070 ad 7f 99 bd 91 25 4d bd 92 c6 4b bd 66 2c 7d bd
       -0.07495055 -0.050084654 -0.04974992 -0.06180992

fc1.weight f4 [256, 32]
000000 0c c1 c5 bd c6 79 63 be 75 27 db 3d 44 9b 04 be
       -0.096559614 -0.22214422 0.10700885 -0.12949854
000010 fb 6e e0 bc 95 23 91 bd ce 20 35 3d 2e 67 58 bc
       -0.02739667 -0.07086865 0.044220738 -0.013208194
000020 1a 25 58 bd f4 49 d2 bd a5 61 4d be 95 4e 15 be
       -0.052769758 -0.10268012 -0.2005678 -0.14580758
000030 31 3d 44 be 35 de 43 be 03 98 06 3d ee f1 ea 3d
       -0.19163968 -0.19127734 0.032859813 0.11471926
000040 d1 90 05 be cb 21 12 be bd d1 df 3d e5 aa e0 3d
       -0.13043524 -0.14270703 0.10928676 0.109700955
000050 7c 37 e0 bd fa 8d 06 3c 54 d4 13 3d 9d 32 34 3c
       -0.10948083 0.008212561 0.036091164 0.010998395
000060 16 ee 4c be 98 73 09 be b2 dc 2b 3d 98 cc 83 bd
       -0.20012698 -0.13423002 0.04195852 -0.064355075
000070 0b d2 b4 bd a2 40 b0 bd 74 83 e6 bd 68 ab fa bd
       -0.08829125 -0.08606078 -0.112555414 -0.122397244
000080 2b 41 c5 3d bb d8 86 3d f0 62 1e be 8f 24 d7 3d
       0.096315704 0.06584307 -0.15467429 0.1050502
000090 9b 8f 2f be a7 44 11 be d7 93 0f 3e f6 06 28 be
       -0.17144625 -0.14186345 0.1402124 -0.16408905
0000a0 ea e9 12 3e 0e c0 9a 3d 58 d5 10 be 2f 5b d0 3d
       0.14347044 0.07556163 -0.14143884 0.10173642
0000b0 fa b1 ab 3d 27 07 47 3d 85 72 ae 3c b5 f4 c7 bd
       0.08383556 0.048590805 0.021294842 -0.09763471
0000c0 4b 84 7d bc ce 5d 1e be 41 42 b1 be 46 12 1f 3e
       -0.015473436 -0.15465471 -0.3462086 0.15534315
0000d0 0d 2e df 3b 6d ea b7 bd b1 ff fb bc 33 c0 1b 3e
       0.0068109096 -0.0898026 -0.030761572 0.15210037
0000e0 0a 2f ef bd 5c f2 a1 bd f2 53 a4 bc 2a 21 96 3d
       -0.11678894 -0.079075545 -0.02005956 0.07330544
0000f0 d7 96 1b be 20 c0 fe 3d 6f 41 a0 3e 5d 6d c7 bd
       -0.1519426 0.12438989 0.31299922 -0.09737656
000100 78 4d af 3b 83 8e 83 bd 5d 0f 4a 3e 4f fa 9d 3c
       0.005349811 -0.06423666 0.19732423 0.019284396
000110 8d 37 a7 3d 9c b7 ff bc 00 97 c2 3d c7 13 61 3c
       0.08164892 -0.031215481 0.09501457 0.013737625
000120 35 4a b5 bc 47 82 15 3e 68 c1 99 bc 9b b3 c1 bd
       -0.022130111 0.14600478 -0.018768981 -0.09458085
000130 db 90 82 bc 65 4f b2 3d 82 63 5b bd cc 05 4d be
       -0.015938213 0.087065496 -0.053561695 -0.20021743
000140 18 ef a3 3d f7 9f cd bd b2 37 77 bd 83 4f 61 3e
       0.08004588 -0.100402765 -0.06035585 0.22002988
000150 7c 96 89 bc 15 ba 60 bd 2b df 18 3d 1f 48 ac 3c
       -0.01679539 -0.05486496 0.037322205 0.021030484
000160 a1 f5 b2 3d 32 06 87 3e c9 c6 45 be 47 5c c3 3d
       0.08738256 0.26371914 -0.19314112 0.09539085
000170 9c a6 c4 bc 6f 66 b9 bd c4 9e 89 3e a1 2a 1a bc
       -0.024005227 -0.09052741 0.2687894 -0.009409578
000180 fe 98 65 3d a7 98 0c bd 24 2c 5f 3e 39 be c2 3c
       0.056054108 -0.034325268 0.21794182 0.023772346
000190 e7 67 74 3e 0b 8f f4 3d c6 5c 00 bd f7 fc 62 3e
       0.2386776 0.11941346 -0.031338476 0.22166811
0001a0 4b 3a 50 3e 63 0a 7a bd 5d e8 1d bd 51 95 47 3e
       0.20334737 -0.06104506 -0.038551677 0.19490553
0001b0 80 f9 38 3e b7 ad 94 bd a4 3c 25 bd 6c 63 c6 bd
       0.18063927 -0.07259696 -0.040341035 -0.09686932
0001c0 59 fa fe bb c6 0b 57 3e 62 0d 02 3e 06 e0 68 3e
       -0.0077813086 0.21000585 0.12700418 0.22741708
0001d0 9b 6f 5c 3c 69 b2 bb 3d e5 ea 50 3e 4e 95 e8 3c
       0.013454343 0.091648884 0.20402105 0.028391507
0001e0 82 f6 51 bc d4 31 77 be ad 5c f3 3c 56 87 b6 bd
       -0.01281512 -0.24140102 0.029707277 -0.08912532
0001f0 a1 b0 12 3d 7b 80 95 3b 3e 03 06 bc da 5e 8a 3c
       0.035812978 0.004562435 -0.008179484 0.016890932
000200 3c 62 8e 3d d3 0b e8 3d 5f b9 5f be 6f 97 c0 bd
       0.069523305 0.1133038 -0.21848057 -0.09403884
000210 c2 7c 21 bd 4a 71 91 bd fa 71 b1 3d 80 8c ca bc
       -0.03942562 -0.07101686 0.086643174 -0.024725199
000220 dd 23 19 be 86 80 2d 3e 08 47 1f be be c1 02 bc
       -0.14955087 0.16943559 -0.1555444 -0.007980762
000230 b6 47 9f bd 30 76 5b be 61 ce 0c 3e a5 17 c7 bd
       -0.0777735 -0.21431804 0.13750602 -0.09721307
000240 f3 35 d0 bd 3e a6 70 be f2 a3 59 bd 7b 63 7e bd
       -0.1016654 -0.23500916 -0.053134866 -0.06210659
000250 63 e0 8e bd c9 4d 1b 3e f3 76 ce bd 27 55 63 be
       -0.06976392 0.15166391 -0.100812815 -0.22200452
000260 e0 7f 64 bd 45 10 3e 3e 33 dd b5 bb c4 ef 58 3d
       -0.055786014 0.18560894 -0.0055500506 0.052963033
000270 45 e2 66 bc fc b5 97 bd 2e 48 a8 3e 03 47 88 bb
       -0.014092033 -0.07407758 0.3286757 -0.004158856
000280 e3 fe 42 3e d1 5b e1 3d 7c 8c 8f 3c aa fb 7c 3c
       0.19042544 0.11003841 0.017523043 0.015440861
000290 41 a7 d8 bd ef b8 4f 3d 35 48 4d 3e 5a 56 8b bd
       -0.10578776 0.050713476 0.20047076 -0.0680358
0002a0 7d ce ec 3b 76 65 02 bd bb 03 bf 3d ca 99 f3 bc
       0.0072267638 -0.031835042 0.093268834 -0.029736418
0002b0 20 7b 09 be 26 fb 40 3e 03 f4 13 3e ed 67 bb 3d
       -0.13425875 0.18845806 0.14448552 0.09150682
0002c0 ea 18 9c 3d 84 f2 13 3d a9 02 93 3d d0 64 56 3d
       0.076219395 0.036119953 0.07178242 0.052342236
0002d0 96 5d bf 3d 34 33 87 3c 7f d6 df bd 53 0d c0 bd
       0.09344022 0.016503908 -0.10929584 -0.093775414
0002e0 3e e8 eb 3b 68 3d 6b 3e 31 a0 11 3e 16 bc 51 3e
       0.0071993163 0.22972643 0.14221264 0.20481905
0002f0 71 15 54 3e 0d 0b e7 bc 17 cc a0 3e 98 14 12 be
       0.20711304 -0.028203512 0.31405708 -0.14265668
000300 26 e1 22 be 16 0a ea bd 71 b4 02 be 98 f4 17 bd
       -0.159062 -0.11427705 -0.12764145 -0.037098497
000310 1e 8f 31 be 85 5c 30 3e e1 ed f3 bd da 1f 0b bd
       -0.17339751 0.17222793 -0.11910606 -0.033965923
000320 dc 7a 63 bd 09 cd 88 bd 54 52 c7 bd c8 7f 12 3e
       -0.05553709 -0.06679732 -0.097325 0.14306557
000330 a7 d5 d6 3d 68 fd 10 3e 28 14 fd bd 1f a4 08 be
       0.1048997 0.14159167 -0.1235736 -0.13343857
000340 1a e7 8b bc 42 e3 5d 3d 50 ef a5 3d 44 87 33 3d
       -0.017077971 0.054171808 0.08102286 0.04383017
000350 83 df 13 3d ea 69 00 be 01 44 27 3e be 01 00 be
       0.03610183 -0.12540403 0.16334535 -0.12500665
000360 18 df 06 3e af 65 a3 bd 8e cc 61 be 5a 01 97 bb
       0.13171041 -0.07978379 -0.22050688 -0.0046083154
000370 19 33 d5 bb 0a b2 30 bd a6 c8 ce 3d 84 43 c0 3d
       -0.0065063355 -0.04313854 0.100968644 0.093878776
000380 1f 7b a2 bd 44 ca 9c bd ca 4c fa bd f6 77 8b 3c
       -0.0793364 -0.076557666 -0.122216776 0.017024975
000390 98 f7 36 be 95 75 a3 bd 22 23 a0 3d 0f 84 d4 bd
       -0.17867887 -0.07981411 0.07819201 -0.10376751
0003a0 cb 7c e3 3c bd a7 e8 bc 92 f9 16 be 27 af 30 bd
       0.027769467 -0.028400296 -0.14743641 -0.04313579
0003b0 f1 58 06 bc 11 a3 6d 3d 21 b3 d9 bd 66 88 b5 bc
       -0.008199916 0.05801684 -0.10629869 -0.022159766
0003c0 2d 15 0f be 5f ba b7 3c 4a 74 10 3b 01 f7 a0 bd
       -0.13972922 0.022427736 0.002204197 -0.07859612
0003d0 c2 20 98 3d 4e 3e a3 3d c1 60 89 ba e7 cd ff bd
       0.07428123 0.07970868 -0.0010481105 -0.12490445
0003e0 4c b9 12 bd 46 32 53 be df 55 4a bd a0 9b df 3d
       -0.035821244 -0.20624647 -0.0493983 0.10918355
0003f0 7c 05 1d bd 34 22 fd bd 85 1a 7e be cd ad 67 3d
       -0.03833531 -0.12360039 -0.24814804 0.056562234

fc1.bias f4 [256]
000000 da 12 5c bc 65 c2 8d be 3a f5 5d bd f3 7e c1 3d
       -0.013432229 -0.27687374 -0.054188944 0.09448042
000010 94 6e 41 bd 7b 9a ca bc 22 fd 6f be 56 f4 a3 3d
       -0.047224596 -0.024731865 -0.23436406 0.08005588
000020 17 d8 85 bd fa c1 81 bd 32 3b 28 be 56 5c e9 ba
       -0.065353565 -0.06335826 -0.16428831 -0.0017804008
000030 76 23 60 bd dd f4 26 bc 42 77 9b bd 08 9c 6a bc
       -0.05472132 -0.010190216 -0.07591106 -0.014319427
000040 69 33 88 bd 68 43 52 bd 19 fa ea bc 76 1e 07 3e
       -0.06650431 -0.051333815 -0.028683709 0.13195214
000050 41 7c e6 bd e7 00 68 3e 04 c7 e4 bd 59 66 a0 3d
       -0.11254168 0.22656594 -0.11170772 0.07832021
000060 2e 32 41 bd 06 85 6a bd 42 d3 0e 3e 82 d1 22 bc
       -0.047166996 -0.057255767 0.13947776 -0.009937646
000070 4c 15 5b bd 76 b8 92 3e e5 58 b8 bd 84 7a 9a bc
       -0.053487107 0.28656358 -0.0900133 -0.018857248
000080 15 66 5f 3e 60 a1 56 bd 96 17 56 bd 3b ba 62 be
       0.21816285 -0.052399993 -0.052268587 -0.22141354
000090 60 e8 08 be f9 ae 6a bc 93 3d 9c ba 26 cd 18 3e
       -0.13369894 -0.014323943 -0.0011920206 0.14922008
0000a0 73 f4 6c be d7 6f cd bb 65 5f 49 be b9 bb d0 bd
       -0.23140125 -0.006269436 -0.19665296 -0.10192055
0000b0 b6 05 d6 bc e9 36 12 bd 11 bc 4e 3e 42 cf 0f be
       -0.02612577 -0.035696898 0.20188929 -0.14043906
0000c0 03 e2 da bd 31 ec 98 be d2 cd fb bd ba 92 f2 bd
       -0.106876396 -0.298677 -0.122951165 -0.11844392
0000d0 6e 2d 20 3e e7 b8 67 bd fa 78 a2 be 99 5d de bb
       0.1564233 -0.05657282 -0.31732923 -0.00678606
0000e0 de e8 32 be 8e b7 56 bd 72 35 5e bd 51 87 c7 bc
       -0.17471644 -0.052421145 -0.05425019 -0.024356516
0000f0 80 74 d8 bd 95 df 18 bd cf f7 59 be 05 dc 3a bd
       -0.105690956 -0.0373226 -0.21285938 -0.045619983
000100 f9 e6 83 3d 52 d5 d8 bd 79 06 2d bd ec 26 0c bd
       0.06440539 -0.105875626 -0.0422425 -0.034216806
000110 96 61 44 bd 5b 86 80 bc bd 59 c7 bd b7 5b d7 bc
       -0.047944628 -0.015689066 -0.09733913 -0.02628885
000120 22 68 0d be bc 1a 61 bd 42 d5 b1 bc 64 88 4e be
       -0.13809255 -0.054957137 -0.021708135 -0.20169216
000130 af d6 50 bd 23 29 a5 3e 7a 31 7c bd 07 f2 2e be
       -0.05098599 0.32257947 -0.061570622 -0.17084514
000140 57 77 71 be 77 43 60 be ff f3 14 be 8a d8 2c bd
       -0.23580681 -0.21900736 -0.14546202 -0.042198695
000150 4e 8b fa bc 8e db 73 bd c7 90 b4 bd 54 8c 87 bd
       -0.030584004 -0.059535556 -0.088166766 -0.06618562
000160 75 2b 44 bd 32 d6 ae 3e d6 4f 57 bd a6 27 65 bd
       -0.047893006 0.34147793 -0.05256637 -0.055946015
000170 b1 e1 91 be 47 e8 36 bd 3e 93 9c bb 57 ee ad bd
       -0.284925 -0.04465511 -0.004778295 -0.08492725
000180 74 a1 4b bd db c5 9b bc 19 50 60 bc 85 22 a6 bd
       -0.04971452 -0.019015243 -0.013690972 -0.08112053
000190 a9 8c ab bd 21 9b df ba 00 49 37 bd b8 1b 24 3e
       -0.08376438 -0.0017059782 -0.044747353 0.16026199
0001a0 89 4d 6c be 09 3a 78 bd 01 1f b9 ba 7c 11 00 be
       -0.23076452 -0.06060222 -0.001412362 -0.1250667
0001b0 e0 55 a1 3d 1b 41 02 be d4 65 86 bd 52 f3 4e 3e
       0.078777075 -0.12720148 -0.06562391 0.20210007
0001c0 5c c5 34 bd 16 9d 46 be 10 f6 5a bd a8 c2 65 be
       -0.04413353 -0.19395861 -0.05345732 -0.22437537
0001d0 98 ae ae bd 85 86 2e bd 96 93 a4 bc d4 ef 3d bd
       -0.08529395 -0.042608757 -0.020089906 -0.046371296
0001e0 15 f4 59 bd a2 78 74 bd 47 b6 27 ba 52 4f 16 be
       -0.05321129 -0.059685357 -0.0006397706 -0.14678696
0001f0 e9 7c 9f bd af 01 0f be 28 39 e7 3d f4 58 42 bd
       -0.077874966 -0.13965486 0.112901986 -0.047448114
000200 a8 c1 1f 3e 0e 3e 81 bc bf 24 93 3e 74 07 e2 bd
       0.15601218 -0.01577666 0.28738973 -0.11036578
000210 60 41 23 bd 88 6d 8b 3e a7 d2 4e 3c f3 48 8f bd
       -0.03985727 0.27232003 0.012623466 -0.06996336
000220 55 4d 7f 3e 12 ac 7c bd ef 2e 8d 3e 45 01 56 be
       0.24931844 -0.061687537 0.2757487 -0.20898922
000230 51 48 be bd f2 70 9d 3e 6f c2 a2 bd 01 c2 94 bd
       -0.09291137 0.30750233 -0.079472415 -0.07263566
000240 77 bd 6a be b5 16 46 3e 4b a4 4d bd 32 ed 90 bd
       -0.22923838 0.193446 -0.05020551 -0.070764914
000250 4e 8f 82 bd ab f8 44 bd 1f f1 ae 3e 03 0e 84 bd
       -0.063749894 -0.04808871 0.34168336 -0.06447985
000260 92 38 ef 3b ab 80 ef bd 95 02 7f bd d7 f4 49 be
       0.007300445 -0.11694463 -0.06225832 -0.19722305
000270 dc c2 34 be d7 e2 5d be 66 54 91 bb fa 2b 3f be
       -0.17652458 -0.21668564 -0.00443511 -0.1866912
000280 6f c5 74 3b 0a dc 32 bd 2d ff 75 bd e5 38 2a ba
       0.0037349125 -0.043666877 -0.060057808 -0.00064934633
000290 20 ca 24 bd 3d 0f 72 bd cc c8 33 bd dd 37 80 bd
       -0.040231824 -0.059096564 -0.043892667 -0.06260655
0002a0 4a 44 b7 bb 81 7b 37 be 4e af 97 3d 9a 58 8c bd
       -0.0055928575 -0.17918207 0.074064836 -0.06852837
0002b0 fb ab 9a bb 02 36 12 bc c8 1c fa bd f6 f1 b8 bd
       -0.0047202087 -0.008924009 -0.12212521 -0.090305254
0002c0 d2 01 b4 bd 98 2c 47 bd b0 ba da 3a b3 fb cc bd
       -0.0878941 -0.048626512 0.0016687717 -0.10008945
0002d0 07 31 25 be 58 2d 83 be 34 57 26 bd dd 02 83 bd
       -0.16131984 -0.25620532 -0.040610507 -0.063970305
0002e0 ca ad 0f be d3 60 6e 3c ab 39 56 bd 0d de b5 bd
       -0.14031139 0.014549452 -0.05230109 -0.088802435
0002f0 29 7e c6 bd eb 4a 5b be 9b 2f 41 bc 6e 0e 5e bd
       -0.09692032 -0.21415298 -0.011791135 -0.05421298
000300 a3 c0 d3 bb c0 1d bc bd c7 49 51 bd 51 a8 df bd
       -0.006462173 -0.09185362 -0.05109575 -0.10920776
000310 8d 0c 54 bd 2d 81 85 3c bd e8 2e bd 31 03 27 3c
       -0.05176978 0.016296947 -0.042702425 0.010193632
000320 54 b7 4b be f0 90 02 3a da e0 1b be af 36 54 be
       -0.19894153 0.0004980704 -0.15222493 -0.20723985
000330 af 53 59 bd 90 e4 53 3e 07 38 3b bc 7d 6d 75 bd
       -0.053058323 0.20692658 -0.011426932 -0.05991887
000340 03 c8 5f bd c9 2e de bd 54 0c 20 bd be a6 2c bd
       -0.054634105 -0.10848767 -0.039074257 -0.042151205
000350 50 07 34 bd cc a3 30 be 2f 78 49 bd 3a 0e 3d be
       -0.043952286 -0.17249984 -0.04918688 -0.18462458
000360 e7 32 0c be 1b 3c 75 be d0 b2 50 bc 88 ad 32 be
       -0.13691293 -0.2394871 -0.012737945 -0.1744901
000370 a8 70 62 be dd 1e b7 3c b2 5f 25 be e5 99 e8 bb
       -0.22113287 0.022353584 -0.16149786 -0.007098424
000380 1e ab 6a bd fd 1f c7 bd b6 2b 0a be a6 e5 cb bc
       -0.057292096 -0.09722898 -0.13493237 -0.024889778
000390 73 e5 e5 bc 75 ac 4a be 0b b5 24 3d fb a8 1d 3d
       -0.028063511 -0.1979235 0.04021172 0.03849123
0003a0 54 65 73 be d1 a8 a3 bc 37 a7 25 be 24 a0 52 be
       -0.23769122 -0.019977959 -0.16177069 -0.20568901
0003b0 ee 41 49 bd 4a 67 bd bd de 6b 8c 3d 09 4d 6d bd
       -0.04913514 -0.092482165 0.068565115 -0.057934795
0003c0 2b 7c be bd b0 55 d9 bd 28 59 fe bc 7b 52 a0 bd
       -0.09301027 -0.10612047 -0.031048372 -0.07828232
0003d0 98 05 0d bc 7d f2 05 bd 97 fd 2b bc 95 c7 7e bd
       -0.008607291 -0.032701958 -0.010497472 -0.062202055
0003e0 40 c7 72 bd 59 b5 65 bd 1a 65 76 be d1 d0 81 bc
       -0.05927205 -0.05608115 -0.24062005 -0.015846642
0003f0 78 71 c6 bd 04 92 2b bd f4 c5 9a bd 5e a6 1a bd
       -0.09689611 -0.0418873 -0.07557288 -0.037756316

fc2.weight f4 [128, 256]
000000 27 eb 2d bc 18 ab 67 3d 63 b8 69 bd 46 0b 78 bd
       -0.010615147 0.056559652 -0.05706061 -0.060557626
000010 7a 0e c3 bd fa 20 c6 bd c2 92 5b 3d f8 7c 45 bd
       -0.095242456 -0.096742585 0.053606756 -0.048214883
000020 e0 0a e2 bc aa f3 5d bd 40 15 2f bc d4 48 da 3c
       -0.027593076 -0.054187454 -0.010686219 0.026646055
000030 f8 e9 08 bc 9e 0d b8 ba 03 b2 a7 3d e0 20 5f 3b
       -0.008356564 -0.0014042144 0.0818825 0.0034046695
000040 62 fc 82 bd 7c 5b 2f 3d 0c 1d 81 bc 2c e0 65 3c
       -0.063957945 0.042811856 -0.015760921 0.0140304975
000050 8a 8a 8d 3c 0c 51 55 bd 1f 8b e9 3c cb 23 7d bc
       0.017277975 -0.052079245 0.02850872 -0.015450428
000060 96 3c 1d bc bb 07 e6 bd c0 64 db ba cc 61 c3 bc
       -0.009596964 -0.11231943 -0.00167384 -0.023850344
000070 15 ae d0 3c c6 9a 01 bb b0 e9 31 bd 28 94 96 bd
       0.025473634 -0.001977609 -0.043435752 -0.07352477
000080 5d e6 86 3d c6 b1 ee bc 91 bb c0 bd 98 f8 e2 3c
       0.06586907 -0.029137503 -0.094107755 0.02770643
000090 ce 17 08 bd b0 96 53 3c 08 c5 43 3c d3 42 60 3b
       -0.033225827 0.012914345 0.011948831 0.0034219518
0000a0 5b f8 2a 3d 68 94 49 3c 25 3e 8a 3c d8 bd 34 bd
       0.041740756 0.012303449 0.016875336 -0.04412636
0000b0 fb 9e 47 3b 55 64 33 bd 0f b6 85 bd 9a 0c f0 bc
       0.003045975 -0.043796856 -0.065288655 -0.029302884
0000c0 52 c5 24 3d 7c d1 18 bd 4a 14 34 3d 92 f2 fe 3c
       0.04022724 -0.037309155 0.04396466 0.031121526
0000d0 40 76 7f 3d 37 cd 40 bc 1e 88 2d bd 88 bf 54 3d
       0.06236863 -0.011767677 -0.04236614 0.05194047
0000e0 80 7b da ba 84 90 95 bd be 24 ae 3d c8 8e 55 3c
       -0.0016668886 -0.07302955 0.08503102 0.01303453
0000f0 6b 5c 7d bc 68 c9 1b 3c 25 d6 20 3d cc b0 39 3d
       -0.015463929 0.009508468 0.039266724 0.045334622
000100 49 2d ec ba 06 6d 03 3d cc 23 d6 3c 0d 57 bf bc
       -0.0018018867 0.032086395 0.026140116 -0.023356939
000110 2e 66 83 3d d5 9e eb bd 51 a0 73 3c e8 7f 43 3d
       0.064159736 -0.11504904 0.014869765 0.047729403
000120 e8 af db bc 43 7d 94 bd 66 99 1b 3d 2e 2f 33 3d
       -0.026817277 -0.07250454 0.03798809 0.043746166
000130 a9 eb f5 bc 1c 12 17 3d 04 ca 96 3c 9c 71 78 3d
       -0.030019598 0.036882505 0.018406875 0.06065522
000140 f0 0a 88 bb 00 e9 5e bc 63 8a 04 bc 11 e9 c4 bc
       -0.0041516945 -0.013605356 -0.008089635 -0.024036916
000150 82 a0 be bd 9b f7 92 bb 33 76 bc 3d f4 6c e2 3c
       -0.09307958 -0.0044850833 0.09202232 0.027639844
000160 20 f5 da 3b 1b 7d 11 3d 5a 47 05 3d de 32 cc bd
       0.006682053 0.0355197 0.03253875 -0.0997064
000170 92 7c 5d bd 8d 02 7d bd da fc 0a 3d 7c ae 4e 3d
       -0.054073878 -0.06177001 0.033932544 0.05045937
000180 eb 54 a3 bd d8 51 e3 3c 32 81 a5 bd 20 5c 7c bd
       -0.07975181 0.027748987 -0.08081283 -0.061611295
000190 e4 6b b0 3c b4 54 db 3d 8a e8 8c b9 94 56 19 bd
       0.021535821 0.10709515 -0.00026876136 -0.037436083
0001a0 00 69 89 bc 20 4d 37 3b 60 0d 42 bb 55 ff e6 ba
       -0.0167737 0.0027969554 -0.0029610023 -0.0017623702
0001b0 1d 6b 54 bd da 86 9e bd e0 51 b2 3b dc 19 ae bd
       -0.051859964 -0.07740565 0.005441889 -0.08501026
0001c0 64 8d 50 bd 0b bc bf 3b ed 86 8f bd 8b 88 a9 3d
       -0.05091609 0.005851274 -0.07008157 0.08277997
0001d0 42 94 42 bd 5c 84 65 3d 68 01 53 3d 07 58 26 bc
       -0.04750467 0.05603443 0.051515013 -0.010152823
0001e0 ee 57 39 3d aa 96 8d 3d c4 5b a0 bc c0 15 00 bc
       0.045249872 0.069135025 -0.019575007 -0.007817686
0001f0 04 61 89 bc a0 14 8f bd c8 2e 09 3d 4c f5 92 3c
       -0.016769893 -0.06986356 0.03349188 0.017939232
000200 7c e0 54 3d e8 30 df 3c 4a 30 a3 3d 44 a2 0f bd
       0.051971897 0.027245 0.07968195 -0.035066858
000210 5a c3 61 bc a0 09 17 bb 2c b3 b8 bc 9d 6d 07 bc
       -0.013779486 -0.0023046508 -0.022546373 -0.00826588
000220 0c 9b 80 bd 7e ca 20 3c 23 b9 3b 3d b0 2a c8 bb
       -0.06279573 0.009813903 0.045830857 -0.0061086044
000230 1c 0a b7 bc 00 1b a0 3b d3 62 72 bd 1d 49 cc bd
       -0.022343688 0.004886031 -0.059176277 -0.09974883
000240 d1 51 39 3c 3b 56 ae 3b 49 df 2f bd 80 d2 06 bb
       0.01131101 0.005320338 -0.04293755 -0.0020572245
000250 8f 7c be 3d ef f5 71 ba cc 6c 8c 3d e5 af 8f bd
       0.093011014 -0.00092300674 0.06856689 -0.07015971
000260 46 9a 15 3c 6f f5 99 3b 8a 9a 23 bd b8 ec 06 bd
       0.00913102 0.0046984474 -0.0399423 -0.032940596
000270 02 b1 88 bd aa 07 ba 3c 00 74 1d bc 12 0f dc 3d
       -0.066743866 0.022708733 -0.009610176 0.10745062
000280 10 88 a2 bb df 0f 06 39 c2 f1 a1 bd 6e 48 7c bd
       -0.0049600676 0.00012785148 -0.0790744 -0.06159251
000290 90 43 22 bd 91 f3 4d 3c b0 41 e0 3c ea f9 83 bd
       -0.039615214 0.012570278 0.027375072 -0.06444152
0002a0 00 bc f9 38 74 03 c9 3c 28 9c fd bc db fe dc 39
       0.00011908263 0.02453778 -0.03095825 0.00042151552
0002b0 94 6a 53 bd 3f 15 ec 3d 93 f8 1a 3d d6 7f 14 3d
       -0.051615313 0.1152749 0.037834715 0.036254726
0002c0 c0 4c 4e 3b c4 f5 09 bd d6 f3 4d 3d 88 cd 22 3d
       0.0031478852 -0.033681646 0.05028137 0.03974679
0002d0 ce 68 39 bd 1a 81 8c bd fb 57 8d bd ce 75 09 3d
       -0.045265965 -0.06860562 -0.069015466 0.033559613
0002e0 18 c6 3e bc f7 07 a8 bc 40 85 52 3d 60 5e ba 3c
       -0.011643909 -0.02051161 0.05139661 0.02275008
0002f0 a6 8c 0d 3d a2 ca c8 3c 35 00 b9 bc f7 1d 91 bd
       0.03455796 0.024510685 -0.022583107 -0.070857935
000300 12 a8 59 3d cc a9 9c bc 51 dd c8 bb 3e 56 40 3d
       0.0531388 -0.019123934 -0.0061298986 0.046957247
000310 60 da ec bc cf c3 c1 3b c4 72 9e bc 0c a7 fd 3c
       -0.028912723 0.005913235 -0.019341834 0.030963443
000320 af dc c8 3c 24 2f 81 bc 38 85 a3 3c ad 77 2c bd
       0.024519293 -0.015769549 0.019960985 -0.04210632
000330 e4 3c c2 3c c0 2e b0 bc c3 a7 ad bd ba 15 87 bd
       0.023710676 -0.021506667 -0.08479264 -0.06595941
000340 38 13 9c 3c e6 e5 0f 3d 7e 81 5d bd 6c 6d 78 bc
       0.019052133 0.035131358 -0.05407857 -0.015162807
000350 10 b7 27 3c d5 69 3a 3d e8 9b 19 bd d0 46 1f ba
       0.010236517 0.045511086 -0.0375022 -0.00060759205
000360 ef 84 19 3d e4 71 cd bc 04 2b e9 3c de ac 7e 3d
       0.03748029 -0.025078721 0.028462894 0.062176578
000370 2a 13 44 bd 2a d3 6a 3d 74 66 50 3d a0 db 52 3c
       -0.04786984 0.057330288 0.050878957 0.0128697455
000380 14 a7 8e bc 8c 32 ec bc 59 a9 d0 bc 84 79 ae bc
       -0.017413653 -0.028832696 -0.025471376 -0.021298178
000390 dd b6 d5 bd 3c 04 26 bd 28 df de 3c 0b 5c 83 bd
       -0.10435269 -0.040531382 0.027206019 -0.0641404
0003a0 10 bd 8f bc 66 0f 65 bd 82 5c 3f 3d bf 39 d8 3c
       -0.017546207 -0.05592289 0.04671908 0.026394723
0003b0 89 b4 82 3c 34 6a fe 3c ef 2f 12 bd 9e 22 4f 3d
       0.015955226 0.031056501 -0.035690244 0.050570123
0003c0 c4 e7 46 3d c1 cd 5d 3d f6 58 3a 3d 22 1b 39 3c
       0.048560873 0.0541513 0.045494996 0.011297973
0003d0 89 77 90 bd c0 50 93 3b 0d 80 b4 bc ca 57 a5 3c
       -0.070540495 0.00449571 -0.022033716 0.020183463
0003e0 3f b2 2a bd bf ad 8b bd 2c 15 49 bd b3 87 6f bd
       -0.041673895 -0.06820249 -0.049092457 -0.058479022
0003f0 70 a5 21 bd 20 25 bc bd b8 80 2e 3c 6d 2e 63 bb
       -0.039464414 -0.091867685 0.010650806 -0.0034665123

fc2.bias f4 [128]
000000 86 89 7c bd 0c d2 87 bd f5 69 85 bd 0a ff 42 bd
       -0.06165459 -0.0663186 -0.0651435 -0.047606505
000010 7b d5 1e bd 4f bc 6d bd 1f de c0 3d 8c f7 d3 bd
       -0.03877781 -0.058040913 0.09417366 -0.1034995
000020 43 01 4f 3d 17 76 c0 3d 15 ff 67 bc 6e 8a 9c bd
       0.050538313 0.09397524 -0.014159937 -0.07643591
000030 8b 8d 90 3d 38 b8 3a bd e8 53 23 bc cd 74 9d bd
       0.07058247 -0.04558584 -0.009968735 -0.076882936
000040 72 43 e1 bc 76 b9 b4 bc 62 84 80 bd f5 10 94 bd
       -0.02749798 -0.02206109 -0.0627525 -0.07229797
000050 95 18 51 bd fb ac 4b bd b0 5d a7 be 38 4d 88 bc
       -0.051048834 -0.049725514 -0.32688665 -0.016638383
000060 b6 62 89 bc 6f ac c5 bd 16 c7 20 3d 9c b0 3d be
       -0.016770702 -0.0965203 0.039252363 -0.18524402
000070 42 92 91 3c 9f 07 17 3e 01 69 2f bc 74 57 42 bd
       0.017769936 0.14749001 -0.010706187 -0.047446683
000080 ee 39 c5 bd 06 f2 67 bc 99 fe 58 bb 95 15 fd 3d
       -0.0963019 -0.014156824 -0.0033110736 0.12357632
000090 47 e5 cd bd 9c 75 14 be 23 58 bf bc 16 c7 af bd
       -0.10053497 -0.1449799 -0.023357457 -0.085828945
0000a0 20 aa f1 3b b9 72 1c 3d dd a4 28 bd 24 e6 0b 3c
       0.007375017 0.038195346 -0.04117285 0.0085387565
0000b0 13 23 9b bd 53 b3 3a 3d 70 d8 97 3d 0a cf 60 bd
       -0.07575049 0.045581173 0.07414329 -0.054884948
0000c0 e2 3a ad 3d 06 4c 9d 3d 4c b5 ad 3d 7e d5 c4 bd
       0.08458497 0.07680516 0.08481845 -0.09611033
0000d0 f0 72 cd bb e2 cb 2c bd 49 12 eb bd 56 dc 9a 3d
       -0.006269805 -0.042186625 -0.11478097 0.07561557
0000e0 3d 74 bb bd f9 5b 63 bd 02 dc 25 be 58 e9 63 bd
       -0.0915303 -0.055507634 -0.16197208 -0.055642456
0000f0 16 23 c3 bc 59 69 3f be a0 1b 0a bc 38 3a ca bd
       -0.023820441 -0.1869253 -0.008429438 -0.098743856
000100 a0 e3 8c bd b3 f3 ed bd 93 e1 3a bd 45 ca 28 bd
       -0.068793535 -0.116187476 -0.04562528 -0.041208524
000110 e4 9b ac bd e4 93 77 bd 69 51 cd bd ef 96 18 3d
       -0.08428171 -0.060443774 -0.100252934 0.037253316
000120 60 ab 91 bd 0c 58 95 bd 01 88 b2 3d ae fc 68 bd
       -0.07112765 -0.07292184 0.08717347 -0.0568816
000130 56 a9 ba bd 34 65 67 bd ac 40 4e bc f7 b7 1a bd
       -0.091143295 -0.056493 -0.012588661 -0.0377731
000140 69 ec 56 bd 26 5c 00 3e 30 b7 39 bd 15 69 da bd
       -0.052471552 0.12535152 -0.045340717 -0.10664574
000150 83 78 2a 3d b8 dc 24 bd 40 9f e6 bd de 4c bd bd
       0.041618835 -0.040249556 -0.11260843 -0.09243177
000160 f0 f8 99 bd f1 97 3f 3d 20 49 78 bc 05 06 99 bb
       -0.07518184 0.046775762 -0.015154153 -0.004669907
000170 88 87 bc bd 6c 04 f1 bd ab c4 5f bd aa 31 ae bc
       -0.09205538 -0.117684215 -0.054630917 -0.021263916
000180 f1 86 a4 3d 6c a9 dd 3c b8 8b 23 bc 20 76 42 bb
       0.080335505 0.027058326 -0.009982042 -0.0029672459
000190 bc 74 cc bc b3 96 0a be 9f 34 12 be e4 b2 00 3e
       -0.024958007 -0.1353405 -0.14277886 0.12568241
0001a0 a8 12 8e bd fc 46 b0 3d 24 ff c3 3d 31 e5 60 bd
       -0.06937152 0.08607289 0.095701486 -0.054906074
0001b0 37 26 42 bd ae 03 2c bd 2e 18 a0 bd 1b 05 39 3e
       -0.047399726 -0.041995697 -0.07817112 0.18068354
0001c0 e9 7d 02 3e e6 6d a7 3e 26 e5 94 bd ea 84 1d 3e
       0.12743343 0.32701033 -0.07270269 0.15382734
0001d0 d0 e2 ef bd 62 3e af bd b5 ea ee bd 86 05 4b bd
       -0.11713183 -0.085568205 -0.116658606 -0.049565814
0001e0 2f 50 c6 bd b0 9d 14 3c 7a 89 42 bc 69 d8 8d 3d
       -0.096832626 0.009070799 -0.011873597 0.069260426
0001f0 9e f5 ca bd 3a d3 6f bd ec d0 36 3b ac cd 89 3d
       -0.09910129 -0.05855105 0.0027895523 0.06728682

fc3.weight f4 [2, 128]
000000 ec a4 e4 bb 67 e3 33 3d 01 be b3 3a 83 38 cc 3c
       -0.006977668 0.04391804 0.0013713242 0.02492929
000010 99 60 f2 bb b5 ec 5e 3c f5 be 15 3e ad 12 b5 bc
       -0.0073967692 0.01360624 0.14623626 -0.022103632
000020 64 e3 04 3e 13 82 fb 3c 5d 59 7c bc 4f 19 c2 bc
       0.12977368 0.030701673 -0.015402165 -0.023693709
000030 ce d9 f4 3d df ae 52 3d 9e 5e 1c 3d 5c ad 6d 3c
       0.119556054 0.0514363 0.03817617 0.014506664
000040 b0 7f ca 3b 7b cd ba 3c 1a 05 96 3c bb ae 38 3d
       0.0061797723 0.022803059 0.01831298 0.04508851
000050 48 67 8e 3d 94 90 4e 3d 6a a3 d1 bc 1e 23 49 bc
       0.06953293 0.05043085 -0.025590617 -0.012276439
000060 03 6b 00 3e 2e f0 87 bc ff 8a 01 3e 3d 56 de bd
       0.12540822 -0.016594019 0.12650679 -0.108562924
000070 af 8e 4c 3d 55 fb d5 bd 8e 66 dd bc 4e eb b0 3d
       0.04994076 -0.104483284 -0.027026441 0.08638631
000080 c2 f8 90 3d 3a d0 12 bb f7 33 f5 3c 7f eb 41 bd
       0.07078697 -0.0022401945 0.029932005 -0.047343727
000090 b1 e0 8e bd d1 30 b9 bd 84 17 cc bb 3f 59 8f bc
       -0.0697645 -0.09042514 -0.006228389 -0.01749861
0000a0 0d c1 88 3d 15 e6 cd bc c0 2f 1d bd fe a2 01 3e
       0.066774465 -0.025134126 -0.038375616 0.12659833
0000b0 0f 8f fa bc b9 41 7b bb d5 e8 14 3e 14 65 a9 ba
       -0.030585794 -0.0038338734 0.14541943 -0.00129238
0000c0 37 06 e6 3d 52 b2 80 3d 49 1f 66 bd 67 f0 25 3b
       0.11231654 0.06284012 -0.05618218 0.0025320293
0000d0 2e 2b 1b bc 32 30 56 3d e3 ac b7 bc 17 9a e4 be
       -0.009470744 0.052292056 -0.022421306 -0.4464881
0000e0 95 ab 24 bc 98 71 19 3d bd 15 5f bd 53 31 c9 bc
       -0.010050674 0.037461847 -0.05446409 -0.024559652
0000f0 b3 6d 95 3d 53 97 32 bd 39 33 a3 bd 5f 43 02 3d
       0.07296314 -0.043601345 -0.07968754 0.03180253
000100 d5 ab 48 3c c5 1e 54 3d 36 7a a0 3b 13 09 bb 3a
       0.012247999 0.051787157 0.004897381 0.0014269672
000110 05 eb 7f 3d ac d3 b2 bc 3e d6 9d 3d 30 d3 15 3e
       0.06247999 -0.021829449 0.07706879 0.14631343
000120 ab 65 b6 3d 25 cf 04 3d 6c fb a0 3d 70 88 0f 3d
       0.089061104 0.03242411 0.07860455 0.035042226
000130 31 5c e9 bc c6 37 a3 bd 57 b7 9b 3d 46 5b 14 bc
       -0.028486343 -0.07969622 0.07603329 -0.009054964
000140 6b 74 32 bb ff 82 54 be e2 36 c0 3d 6f ba e2 bc
       -0.0027230035 -0.20753096 0.09385468 -0.02767679
000150 b2 86 ea 3d 22 29 88 3c b3 75 a2 3b 5e 75 01 bc
       0.11451472 0.016621176 0.0049578785 -0.007901518
000160 f4 fc a3 bb 67 50 e6 3d a7 f0 2e bb ed 83 23 3d
       -0.0050045196 0.11245804 -0.0026693733 0.039920736
000170 af 27 b7 3b 56 8a 69 3c 63 44 ff bc 72 7f 8c 3c
       0.0055894474 0.014254173 -0.031160539 0.017150614
000180 72 4e 0c 3e e9 63 a0 3d a8 a5 62 bd a8 96 03 3c
       0.137018 0.07831556 -0.055333763 0.008031525
000190 10 90 ab 3d 06 1e a2 bc e5 08 ec bc df 5d 97 bd
       0.08377087 -0.019789707 -0.028812835 -0.07390951
0001a0 47 5b ec 3c 4e 97 d0 3d 6a 3a f1 bd 79 36 06 3e
       0.028852118 0.10185109 -0.1177872 0.13106717
0001b0 1a 30 a8 3d d2 0a 9d 3d fb c7 86 bb ff 15 02 be
       0.082123 0.076680794 -0.004113195 -0.12703703
0001c0 5b 27 4e be f3 3d e3 be e7 1b 7b 3c 48 62 57 bd
       -0.201322 -0.443832 0.015326477 -0.052583963
0001d0 93 e7 08 bd 4d ba 04 bd 03 97 ad 3c c6 97 65 3c
       -0.03342397 -0.032404233 0.021190172 0.014013236
0001e0 8f 4a d3 bc cb fa 61 3c 7b e9 b3 3c c3 b5 90 3c
       -0.025792388 0.013792704 0.021961918 0.017664796
0001f0 47 69 d8 bc f6 1d 91 3c df aa 43 bd 64 dc 15 3e
       -0.026417388 0.017714482 -0.047770377 0.14634854
000200 2a ab 97 bd 50 04 40 3b f7 04 a5 3b ee 91 97 bd
       -0.07405694 0.0029299445 0.0050359922 -0.07400881
000210 f6 65 14 3d 63 9e 54 3d 3a 74 89 bd 28 ef ab bd
       0.03623005 0.05190886 -0.067116216 -0.08395225
000220 a8 17 08 be f6 7b b8 bd 4f c1 a5 bc b9 80 93 bd
       -0.13290274 -0.09008019 -0.020233778 -0.07202286
000230 93 66 09 be d0 08 9f 3c c9 b1 7e bd 84 86 6d bd
       -0.13418035 0.019413382 -0.062181268 -0.057989612
000240 2e 6c ad bd 09 fb 00 bd 34 b2 1d 3d 09 52 8a bd
       -0.08467899 -0.031489406 0.038500026 -0.06753928
000250 98 d0 c4 bc 9d a0 23 bd 29 a4 f9 3d f8 f8 39 bc
       -0.024025247 -0.039948095 0.12189514 -0.011350863
000260 02 6f d2 3c 64 ab d6 bd bf 30 20 be d6 cc 31 bb
       0.025687698 -0.10481909 -0.15643595 -0.0027130148
000270 99 59 9f 3c 79 b1 55 3d 6b d0 ab 3c e1 4d 3c 3d
       0.019451903 0.052171204 0.020973405 0.04597271
000280 f6 ce e4 bc 50 71 71 bd 70 83 1d bd e1 c9 46 3e
       -0.027930718 -0.058945954 -0.038455427 0.19412948
000290 5b e7 4a 3a db dc ce 3c 91 d2 df bd 25 7f d6 bb
       0.0007740163 0.025251796 -0.10928834 -0.0065459185
0002a0 80 70 49 bd 26 fd 44 bc f1 f6 28 3d bf 3f 75 bd
       -0.049179554 -0.012023246 0.041251127 -0.059875246
0002b0 99 34 41 3c 6d 21 84 3a 90 5a c6 bc 33 a4 c8 bd
       0.011792325 0.0010080762 -0.024213105 -0.097969435
0002c0 9d e8 e6 bd be c7 b2 bd a8 2b 4f bc 22 bd f7 bc
       -0.11274836 -0.08729504 -0.012644686 -0.030241553
0002d0 ef 7d 43 bd 3f c1 a8 3d ab 4a d1 bd 38 8e ac 3e
       -0.04772752 0.08239984 -0.1021932 0.33702254
0002e0 94 00 5c bd 94 0f 41 bd 6d 56 e1 bc 3e 8e 21 bc
       -0.05371149 -0.047133997 -0.027507031 -0.009860573
0002f0 f1 9e 11 bc 34 ee 0b bd af a2 06 3c c5 62 91 bd
       -0.008887992 -0.034162715 0.008217498 -0.07098917
000300 37 9c 41 bd ac 92 7c bc b5 a7 51 bd 76 e1 94 bd
       -0.04726812 -0.015415829 -0.05118533 -0.07269566
000310 9c 0f d8 bd 92 e5 fa bd 91 e2 57 bc 3f 7c 26 be
       -0.10549852 -0.12250818 -0.013176576 -0.16258334
000320 2e c6 f1 bc 00 03 29 bc e5 ac b5 3d a7 2e dd bc
       -0.029513445 -0.010315657 0.08870868 -0.026999785
000330 c1 19 b0 bc 25 eb 4a 3d e8 cb 99 3c 9d f6 dd 3c
       -0.021496655 0.049540658 0.018773988 0.027095133
000340 ca c1 c4 bc 68 38 b2 3d 82 03 88 3c a7 62 9c bd
       -0.024018187 0.08702165 0.016603235 -0.07636004
000350 bf fc 61 bd b5 32 69 bd c9 b4 9f 3c bd b9 4a 3d
       -0.055172678 -0.056933124 0.019495385 0.04949354
000360 56 df 81 bb aa 9d 4a 3c de de c9 bd de 7c a3 3d
       -0.0039633913 0.012366692 -0.09856962 0.07982801
000370 f2 32 df bc 4a 10 c1 3d 2b fd 39 3d 9e b5 81 bd
       -0.027245972 0.09426935 0.045407455 -0.06333469
000380 84 3f 3f bd 5d d1 37 bd 3b 64 f4 3c 6b 09 04 3d
       -0.046691433 -0.0448774 0.02983295 0.032235544
000390 69 57 10 bc 09 8a 48 bd 43 48 56 3c 3d ef 0a bd
       -0.008809903 -0.048959766 0.013078752 -0.03391956
0003a0 fd 46 02 3e 97 2a dc bd 27 a3 e3 3c 20 93 68 3c
       0.12722392 -0.10750311 0.027787758 0.014195234
0003b0 f1 4f ba 3c b7 31 23 3d 1d ba 8a 3c 23 d5 fd bb
       0.022743197 0.039842334 0.016934449 -0.007746355
0003c0 72 62 c2 3d 83 d9 ee 3e 39 f5 b7 bd 5c 04 35 3e
       0.09491433 0.46650323 -0.089823194 0.17677444
0003d0 c8 94 89 bc 50 12 31 3d 4b e0 c8 3d 09 a5 52 39
       -0.016794577 0.043230355 0.098084055 0.00020088641
0003e0 b0 a2 50 bd 17 5e bd bb 82 4a d9 3b 4c 45 a8 3c
       -0.0509364 -0.0057790386 0.0066311965 0.020540856
0003f0 24 bd 95 bd 0e 26 a1 3c 4a 1c 30 bd 10 7b 16 bd
       -0.07311466 0.019671466 -0.04299573 -0.036738455

fc3.bias f4 [2]
000000 bf 16 7d bc c8 fc 8d bd
       -0.015447318 -0.0693298
